actor_model/actor_800.pt (torch, 89966 bytes, 6 tensors)

weight f4 [128, 16]
000000 37 86 47 3e eb de b8 bd b2 6a bf 3d 84 fd 4d bd
       0.19484793 -0.09026893 0.093465224 -0.0502906
000010 7d 47 4e 3d 35 d4 4b bd 7a f8 91 be de f5 8a 3d
       0.050361145 -0.049762923 -0.28509885 0.06785177
000020 b3 c8 f4 bc bd 97 54 3e 00 df b0 bd 11 8f ce 3d
       -0.029880857 0.20761009 -0.08636284 0.100858815
000030 82 92 4e bd 1f e8 62 be 1e 81 a6 bd 3a d5 2e 3e
       -0.05043269 -0.2215886 -0.08130096 0.17073527
000040 d5 87 9e be f9 f6 fd bd 26 4c e1 bd 87 45 8a bd
       -0.30963007 -0.12400622 -0.11000852 -0.067515425
000050 44 25 f2 bd e0 16 55 3d 51 fd 9d bd 70 43 90 bd
       -0.11823514 0.05202377 -0.07714332 -0.07044113
000060 e9 e6 bb bd d3 3f fa bc 73 fe 9d be b0 88 1c bc
       -0.09174902 -0.030548012 -0.30858192 -0.009554073
000070 c9 41 49 be d4 3e db bc bb 4d 85 be db 8a 94 3e
       -0.19654001 -0.026763357 -0.26035866 0.29012188
000080 87 18 98 3e 9d 6b 1e 3e a0 c3 50 bd 91 3d 3c bd
       0.29706213 0.15470739 -0.050967813 -0.04595715
000090 9f 76 41 bd 26 8c 2e 3e e0 ad 83 3d 3f c5 c7 3d
       -0.047232267 0.1704565 0.064296484 0.097544186
0000a0 8d e2 a7 be ad 8f f1 bd 2f 12 91 bd 0d 91 6f 3d
       -0.32790032 -0.11794982 -0.07083546 0.05848794
0000b0 e6 c7 87 bc 66 19 bb 3d 2c 71 96 bd 25 24 86 3d
       -0.016574811 0.09135704 -0.073458046 0.06549863
0000c0 60 e6 1b 3e fb f5 0f bd b1 85 38 3c 82 bf d4 3c
       0.152246 -0.035146695 0.011262343 0.025970224
0000d0 17 15 92 3d fc dc c6 3e fc 85 06 3e f8 28 c2 bd
       0.07132929 0.38840473 0.13137048 -0.094804704
0000e0 15 5c 7b be db 02 3f 3d 75 95 c4 be 61 99 78 be
       -0.24546845 0.046633583 -0.38395277 -0.2427726
0000f0 7e 3c d8 3d d7 41 69 3d 55 fc 81 3c b9 19 6e bc
       0.10558413 0.056947555 0.015867392 -0.0145325
000100 b4 94 99 3d 20 0e 9a 3d 83 77 06 bd c8 9b a4 bd
       0.07499066 0.075222254 -0.03282882 -0.080375254
000110 7c 1b 03 be b9 1f 9a 3e f3 ed c4 3c e2 a6 a5 bd
       -0.12803453 0.30102327 0.024039244 -0.08088471
000120 02 2c 89 3c f1 6b 71 be 3a ec c5 bd b8 09 6a be
       0.016744617 -0.23576333 -0.09664197 -0.2285527
000130 4f 60 85 3e e6 2d 65 be 28 97 e3 3c 12 ad 19 be
       0.2605004 -0.2238079 0.027782038 -0.15007427
000140 8d 11 03 bd b1 dc 3e be c3 f7 7c 3e 28 fe 4c 3d
       -0.03199916 -0.18638875 0.24703889 0.05004707
000150 3c 37 e0 3d cd 25 1c 3e 51 52 4e 3c 17 3a 5f 3d
       0.10948035 0.15248795 0.012592868 0.05449876
000160 80 92 f7 3d 44 8a a8 3d 1f eb ef 3d d5 6f 03 3e
       0.120884895 0.08229497 0.11714768 0.1283563
000170 67 cd ce 3e 8e 6e 7e be b9 09 bd bd 66 a7 63 bb
       0.40391085 -0.24846861 -0.0923037 -0.0034737228
000180 07 fc c0 3d 0d 6c 47 3e 29 2d f1 3d 48 b1 12 3e
       0.094230704 0.19474812 0.11776192 0.1432544
000190 b3 0f 22 be 43 69 3d bd fc f6 1a bc f8 b1 e2 bd
       -0.15826301 -0.046242964 -0.0094583 -0.11069101
0001a0 11 20 1c 3e ae 99 c8 3d e6 87 9a 3d 7e 46 05 bd
       0.15246607 0.09794937 0.07545452 -0.03253793
0001b0 92 8e 4c 3d 25 a2 98 3c 2d d1 4e 3e 24 4f 87 be
       0.049940653 0.018632004 0.20196982 -0.26427567
0001c0 d8 e3 cb 3c 70 dc 39 3e 49 83 f1 3d 42 25 83 3d
       0.024888918 0.18150496 0.11792619 0.06403591
0001d0 72 38 f6 bd 7b 61 31 3e 28 47 47 bd e2 86 29 3b
       -0.12022485 0.17322342 -0.048651844 0.002586775
0001e0 cd 24 d9 bd 16 61 d7 bd 91 bb af bd 4f 2a ff bd
       -0.10602722 -0.105165645 -0.08580697 -0.124592416
0001f0 57 01 a9 bd 0b ac ad 3e 78 97 90 3d d2 d9 8b 3d
       -0.08252209 0.3392032 0.0706014 0.06828655
000200 de d1 35 bd e7 8b 4f bd b1 a2 3a 3d d4 43 e7 bd
       -0.044389598 -0.05067053 0.04556531 -0.11292234
000210 5d 9f c4 bd fa a7 79 3d 84 60 26 3c 07 68 87 3d
       -0.09600709 0.06095121 0.010154847 0.066116385
000220 9b e4 e3 3d 17 0d 53 be 5a ec 23 be 55 b4 92 3b
       0.111275874 -0.20610462 -0.1600813 0.0044770637
000230 b8 57 e0 bd 21 cb 58 bd 25 0f a0 be 82 7a 1f be
       -0.10954231 -0.052928094 -0.31261554 -0.15574077
000240 cc c4 13 3e 7f 66 dc 3c a3 b4 80 be 45 44 9e 3c
       0.14430541 0.026904343 -0.25137815 0.019319663
000250 ba 49 f1 3d 47 e1 c9 3d e0 a8 b7 3e 6d 20 27 3e
       0.1178164 0.09857421 0.3587103 0.16320963
000260 ba a1 e7 bc f6 79 10 be d2 ee 31 3d 8c 3e 73 3e
       -0.02827536 -0.14109024 0.043440647 0.23754328
000270 a1 b4 2c 3e e6 5b 05 3e 1b 09 8f 3d e1 41 e9 bd
       0.1686578 0.13023338 0.069841586 -0.113895185
000280 53 9b ca 3d ac c9 a4 be a6 89 0f 3e f8 98 1b 3c
       0.09892907 -0.32185113 0.14017352 0.00949692
000290 0b a7 e0 3e 60 e4 ec be d6 fd 9b 3c 5a 7e 32 bd
       0.43877444 -0.46267986 0.019041937 -0.04357753
0002a0 a5 95 9d 38 85 c0 c6 3c 1a 29 a0 bd 94 de 0b 3d
       7.514217e-05 0.024261722 -0.078203395 0.034147814
0002b0 ec 7e 5b 3e 08 a0 5f 3c 75 6c c1 bd e6 07 3c be
       0.21435136 0.013648994 -0.09444515 -0.18362388
0002c0 fb c3 06 ba ab 66 81 3d f9 95 ad 3d ee 41 70 3d
       -0.00051408977 0.063184105 0.08475871 0.058656625
0002d0 7c 1f 0f be 18 b8 cd 3c 59 37 19 be 8e 3e b2 bd
       -0.13976854 0.025112197 -0.1496252 -0.087033376
0002e0 0b a1 ac 3c 10 b3 32 3c 40 f2 66 bd 0c 04 94 bd
       0.021072885 0.01090695 -0.05638337 -0.072273344
0002f0 c0 c7 ad 3d 3c ba f0 3d b9 a1 85 bd 19 79 c0 bd
       0.08485365 0.117542714 -0.06524987 -0.093980975
000300 b9 9b 60 3c 5d 7c e9 3c 4d ad 37 be cf e7 e9 bd
       0.013709002 0.028501684 -0.17937203 -0.11421167
000310 c2 b5 61 bc 1a a6 35 3d ff c1 1c be b0 07 95 be
       -0.013776245 0.04434786 -0.15308379 -0.29107428
000320 70 d7 e9 bb a7 f1 1a be 8f 9d 3f 3b c9 e1 c0 3d
       -0.007136278 -0.15131246 0.00292382 0.09418065
000330 40 9f 86 bd 1a 98 9f bd 6b a3 60 3e 96 cf 5e 3e
       -0.06573343 -0.07792683 0.21937339 0.21758875
000340 d6 db dd 3d 32 35 55 3d 30 01 84 3e 93 37 47 3b
       0.10832946 0.052052684 0.25782156 0.0030398115
000350 4a 0c 7a bd e4 5b bc 3c d4 00 06 3d a8 c6 bf 39
       -0.061046876 0.022993036 0.032715634 0.0003657837
000360 0f 27 8d bd da 95 6e bd d3 93 01 3e 6c 21 97 bd
       -0.068922155 -0.05824838 0.12654047 -0.073794216
000370 fd 7d 32 bc 63 c8 7f 3d f3 8e ac be 41 db a5 be
       -0.010894296 0.062446963 -0.33702812 -0.3239384
000380 e6 36 d5 3c 02 73 d4 bd 86 88 e6 3d 7a 93 62 bd
       0.026027154 -0.103734985 0.112565085 -0.055316426
000390 6a 9e bd bc c0 6e 00 bd 21 31 b8 bd 84 9f 04 3a
       -0.023146827 -0.03135562 -0.089937456 0.000505917
0003a0 e4 e8 cc bd 34 4a 66 bd 13 ee 87 3e 14 d6 7f 3e
       -0.10005358 -0.05622311 0.26548824 0.24984008
0003b0 0a aa 1a 3e aa 5d 60 3d 75 3e 94 be 51 9e 72 bd
       0.15103927 0.054776825 -0.289539 -0.059233014
0003c0 38 b0 ae bc 9c d2 36 be b5 e8 2b be 83 e6 c2 3c
       -0.021324262 -0.17853779 -0.1678799 0.023791557
0003d0 b9 60 96 3d 02 a1 31 bd 02 af 3a bd ce cc 5c be
       0.07342667 -0.04336644 -0.045577057 -0.21562502
0003e0 2f 8d 6a 3e 01 64 ee 3c c0 b7 4f be bf 1d a3 bc
       0.2290542 0.02910042 -0.20284939 -0.019911645
0003f0 73 76 13 3c 4d b4 51 bd 75 60 17 be 24 4e 3b be
       0.009000408 -0.05119734 -0.14782889 -0.18291527

bias f4 [128]
000000 e5 7e 85 bc 0d 06 28 3e ef 00 52 3e 0b cf 10 be
       -0.01629586 0.16408558 0.20508169 -0.1414148
000010 4f d4 92 be 92 71 45 be b1 b8 85 be 13 80 91 bd
       -0.28677604 -0.19281605 -0.2611747 -0.07104506
000020 a6 9f fc bd 18 cc 1f 3d 1e 1d e6 3c 75 dc 86 3e
       -0.12335138 0.039013 0.028090056 0.2634007
000030 7a 7c 3a bd b1 ab ed bb fd 30 3a be 7e 4b 18 3e
       -0.045528866 -0.007253133 -0.1818275 0.14872548
000040 7a 4f 5c be 7a 14 d5 3d 58 1b 8c 3e db d0 8a 3e
       -0.21514693 0.10404296 0.27364612 0.2711247
000050 e2 50 ba 3e d8 c7 aa bd b1 17 24 be 2a 51 b7 bd
       0.36389834 -0.083388984 -0.16024663 -0.08951028
000060 0a 05 1c 3e 27 96 20 3e 34 31 35 be 51 99 03 bd
       0.15236297 0.15682279 -0.17694551 -0.032128636
000070 e6 ff 6d bc d9 5a 7c bd 65 4b f2 3e 7d 44 a3 3e
       -0.014526343 -0.061610077 0.47323146 0.3188819
000080 5c 1b f3 bd 74 2c af 3e fe 30 82 3e fd 13 8e 3e
       -0.11870453 0.34213603 0.25428003 0.27749625
000090 e0 7f 30 3e 88 d9 da 3d d6 3a 82 3d ea 8a ec 3d
       0.1723628 0.10686022 0.06358878 0.11549933
0000a0 40 e4 48 3e 5b 8a 2d 3e d2 a5 7a bc af 08 a7 bc
       0.1961832 0.1694731 -0.015298324 -0.020389883
0000b0 1a bb ba 3e a3 5d 81 bd 01 05 19 be 7b 1c a0 3e
       0.36470872 -0.06316688 -0.14943315 0.3127173
0000c0 c1 cb 98 bd bc 22 8c bc d4 d2 df 3e 02 f0 fc 3d
       -0.07460738 -0.017106406 0.43715537 0.12350465
0000d0 e2 63 02 be 86 e4 85 3e 9c bc e7 bc 63 6a b7 3e
       -0.12733415 0.26150912 -0.028288178 0.35823354
0000e0 d2 8f 00 be 27 b7 40 be 4b a2 97 3e 71 d2 e1 3d
       -0.12554863 -0.18819867 0.29616007 0.11026467
0000f0 b7 93 9d 3d 5c 8f f3 bd 06 a4 99 3e 0f a3 e4 3e
       0.0769419 -0.11892578 0.30007952 0.44655654
000100 10 76 bc 3e c1 e7 81 be dd d1 ae 3e db 68 7a 3e
       0.36808825 -0.25372127 0.34144488 0.24454062
000110 b4 7d a0 be af 3e b7 3e e5 68 24 bd 7b b8 b6 3e
       -0.31345904 0.3579001 -0.040139098 0.35687622
000120 52 e6 be 3e 54 6e d0 3e e0 74 7f 3e 10 7f 07 3e
       0.37285095 0.40709174 0.24946928 0.13232064
000130 08 08 10 be c9 4b 8d be d3 76 0e be 70 86 b9 3e
       -0.14065564 -0.27596882 -0.13912515 0.3623538
000140 3d 5d 04 bd 66 e4 7a 3e d4 20 b4 3e b5 5a 90 3e
       -0.03231548 0.2450119 0.35181296 0.28194204
000150 56 5c d3 3e 0a 00 49 3e bc 24 d1 3d 69 62 98 be
       0.41281384 0.19628921 0.10212085 -0.2976258
000160 67 53 95 be 0a a6 28 3d 0c 5d 96 bd 51 1f 65 3d
       -0.29165193 0.041173972 -0.07341966 0.05593807
000170 23 9e ab bd ab 3f ce 3e 37 26 76 3e af e3 fd bd
       -0.083797716 0.4028295 0.24038015 -0.12396943
000180 0d 6d b9 3e 61 de c5 bc cc 4c 51 bc 23 99 6f be
       0.36216012 -0.02415389 -0.012774657 -0.23398261
000190 10 83 b9 3d 84 69 b2 bc c2 32 85 3d 88 fc 92 be
       0.09058201 -0.02177883 0.06503822 -0.2870829
0001a0 23 22 36 3e eb 26 a2 3e e3 61 9b 3e 4b 8f f3 be
       0.1778646 0.31670317 0.3034812 -0.4757026
0001b0 10 76 0b be 0b 67 0c 3e 4f b6 1e be 0b 6f ae 3d
       -0.13619256 0.13711183 -0.15499233 0.085172735
0001c0 ec 97 5d 3e b0 cf a4 3e 90 2d b9 3e 08 8f 71 3e
       0.21639985 0.32189703 0.36167574 0.23589718
0001d0 2c 89 ba 3e 40 84 7e be bf ee af be 6b 92 90 3e
       0.3643278 -0.24855137 -0.34361836 0.28236708
0001e0 73 1f 9a be 82 35 f7 ba 76 e1 eb 3d 5b 59 ca 3e
       -0.3010212 -0.0018860551 0.11517613 0.39521298
0001f0 61 d0 cc 3c 94 22 a2 bb 06 65 95 bd 6e 31 48 be
       0.025001707 -0.0049479697 -0.07294659 -0.19550106

weight f4 [128, 128]
000000 80 ae 9d 3d 10 2a 3a be 9b a8 10 3e a8 66 ad bd
       0.07699299 -0.18180108 0.14126818 -0.08466846
000010 be a5 2e 3d f0 c6 44 3d b6 03 05 be 64 ef 82 3d
       0.042638533 0.048041284 -0.12989697 0.063933164
000020 80 26 20 bd 2f 92 71 bd db 2f 50 3e 66 46 eb 3c
       -0.039099216 -0.058977302 0.20330755 0.028720092
000030 f1 b1 87 3c d1 50 76 3d cc 32 e6 bd 40 6a 1d 3e
       0.016564341 0.060135666 -0.112401575 0.15372562
000040 7b 81 16 be e0 f0 18 3d 2a ee a6 3d e1 10 bf bd
       -0.1469783 0.03733909 0.08150895 -0.09329391
000050 a4 36 58 3e a6 61 1a be 7a 3c ca 3b 79 c5 52 3e
       0.21114594 -0.15076312 0.00617176 0.20583142
000060 7a e7 19 be e8 75 17 3e 57 86 a6 be 5f 07 1d 3e
       -0.15029708 0.14791071 -0.32524368 0.15334843
000070 71 68 37 bd 68 7f 28 be f9 4d 3d 3e 70 2e 85 bc
       -0.044777337 -0.16454852 0.18486775 -0.016257495
000080 ca 44 9a bd 6b f9 04 3e 8e 74 10 3e 36 65 7c bd
       -0.07532652 0.1298577 0.14106962 -0.06161996
000090 b9 99 81 3d c2 5f 20 be df 8e 6a be fb 53 30 3d
       0.063281484 -0.15661529 -0.22906063 0.04304884
0000a0 65 17 39 bd 54 60 79 3e 0e 63 da bd 40 3a 36 be
       -0.045188326 0.24353153 -0.106634244 -0.17795658
0000b0 85 2a ab 3e 3e 0c d0 bc f7 7f 86 bd a7 dd 7c 3c
       0.33430877 -0.025396463 -0.06567376 0.015433705
0000c0 af 84 22 bd 2b fc 10 be 73 a3 51 be 9d 67 a6 bd
       -0.03967732 -0.14158694 -0.20472507 -0.081252314
0000d0 fc 9e f3 bc 31 e3 75 3d 44 35 7a 3d 40 19 24 bc
       -0.029738896 0.06003112 0.061085954 -0.010015786
0000e0 bb 6b be 3d 57 e7 ca bd d3 b1 b8 bd ad b8 6e be
       0.09297892 -0.09907406 -0.09018292 -0.23312636
0000f0 47 13 3a 3e 27 38 69 3d 19 4a 02 3e 8c f2 5b 3e
       0.18171416 0.056938317 0.12723579 0.21479243
000100 2e 77 21 3d 5d 6f 4d be ef de 00 3e 55 67 66 3e
       0.0394203 -0.20062013 0.12585042 0.22500356
000110 8d 7e 73 be 5a db 59 3d ed 27 88 3d a8 37 5f 3e
       -0.23778744 0.053187706 0.0664824 0.21798575
000120 a3 ab c0 3e f7 b8 bb 3e c4 00 19 3e 33 c7 72 3c
       0.37630948 0.36664554 0.14941698 0.014818001
000130 20 c8 6c 3d 8a 03 f1 bd 5a 79 9f bd 20 95 59 3e
       0.05780804 -0.11768253 -0.07786818 0.21248293
000140 2e 13 ad bc d7 ec a1 bc 37 43 bf 3d a1 c4 28 bd
       -0.02112731 -0.019766254 0.09338992 -0.041203145
000150 aa 9d cb 3d 90 e9 b9 3c 75 9a 03 3e 58 07 80 be
       0.099421814 0.02269438 0.1285189 -0.25005603
000160 0b 5e 3a be 9b 01 b6 bd aa 6e 06 3e 77 1b 0e 3e
       -0.18199937 -0.08887025 0.13128152 0.13877665
000170 b9 bf 30 bc ab 57 a2 3e 00 b3 1e 3e 3c 1d ac bc
       -0.010787898 0.3170751 0.1549797 -0.021010034
000180 d3 d3 55 3e 3d 46 9b 3d 01 09 9f bd e0 0f e1 bd
       0.20881586 0.07581756 -0.07765389 -0.10989356
000190 4d 0a 5e 3d ee ab 10 3e c3 64 1f bd bc 13 36 ba
       0.054209042 0.14128086 -0.038914453 -0.00069456897
0001a0 12 b6 0e 3e 5e e6 1d 3e 21 0c 07 3e 5e d3 a1 be
       0.13936642 0.1541991 0.1318822 -0.31606573
0001b0 06 c5 1f be ef d3 86 3c 82 8e 45 be ac 0e 25 bd
       -0.15602502 0.01645848 -0.19292644 -0.040297195
0001c0 dc 75 21 bd 2a 59 ab 3d 4a d7 91 3c fe 71 a0 bd
       -0.03941904 0.08366616 0.017802853 -0.07834242
0001d0 58 29 4c bd 29 4a 4f be 8b a2 b6 bc 8e 38 8b 3e
       -0.049844116 -0.20243134 -0.022294303 0.27191585
0001e0 0b bd 9f be 25 a3 80 be 0a 4f 43 be 6f ba be 3d
       -0.31198916 -0.2512447 -0.1907312 0.09312903
0001f0 48 5f e7 bc 81 1f 43 be 08 f7 ff bc 29 0d 2b 3c
       -0.028243676 -0.19054987 -0.031245723 0.010440149
000200 b7 f0 10 be 1c 45 2a bd bd 26 f4 3d b7 c0 16 be
       -0.14154325 -0.041569814 0.11921451 -0.14721952
000210 08 69 38 be 25 11 05 bd fc 2c 3c b9 3c f8 0d 3e
       -0.18008816 -0.032487053 -0.00017945835 0.13864225
000220 99 3a 41 3d df 2e 26 3b 25 6b 23 be 7b 2f 0b 3e
       0.047175024 0.0025357527 -0.15958841 0.13592331
000230 42 3b 2d 3e 80 06 2b bc 21 ea 19 3e b2 a0 bc 3d
       0.16917136 -0.010438561 0.1503072 0.09210338
000240 b9 bc b5 3d d5 f4 5d 3d e6 83 fb 3d 71 ac ad bd
       0.088738866 0.05418857 0.12281017 -0.08480156
000250 f4 03 20 bd d3 a8 9e bd 69 91 96 3e 82 a9 2b 3e
       -0.03906627 -0.077470444 0.29407814 0.16763881
000260 77 a4 d0 3d 60 df f4 3d a9 3b 99 3d 0e 28 ec 3d
       0.10187619 0.11956668 0.074820824 0.11531077
000270 4f 03 24 3e e7 84 04 3e 6e 3c 50 3c 71 ba ed 3a
       0.16016887 0.12941323 0.01270972 0.0018137229
000280 7d 94 92 3a 09 4a 0a 3d 1b 48 9f be 2a f9 34 be
       0.0011183169 0.03376201 -0.311097 -0.17673174
000290 70 11 a4 3e 5b 99 4d 3e f5 7e 77 3e 11 11 e4 3d
       0.32044554 0.20078032 0.24169524 0.11136068
0002a0 fe 2f 75 3d ee a5 c7 3d f2 22 88 bd 07 11 1c be
       0.059860222 0.097484455 -0.0664729 -0.1524087
0002b0 5e 83 55 3d fd c8 3f be 3a 5a 2e be 9c 0e 59 3e
       0.052127235 -0.18729015 -0.17026606 0.2119698
0002c0 d4 a1 50 be a2 c1 af bd c1 29 a6 3d 0f 58 04 3e
       -0.20374233 -0.085818544 0.08113433 0.12924217
0002d0 28 0e d6 bd 0d 3f 51 3d f2 f8 00 bf d8 e2 e9 3d
       -0.10451919 0.05108552 -0.5037986 0.1142022
0002e0 3d 70 8b 3d 2b ee 85 3e de c5 cd 3c e2 3d 25 be
       0.06808517 0.2615827 0.025118764 -0.16136888
0002f0 fb 36 eb 3c e5 ce c7 3d ae 99 cf 3c ed 69 df 3c
       0.02871274 0.09756259 0.025341835 0.027272189
000300 b9 92 84 3c bc 73 0b be a3 13 03 3e 7d 96 12 3e
       0.016183244 -0.13618368 0.1280046 0.14315219
000310 98 97 90 be 30 b7 d6 3d 98 50 2e 3b fb 2d d7 3d
       -0.28240657 0.10484159 0.002659833 0.10506817
000320 4e e5 fe 3d 29 f3 98 3d ca 60 5e 3d cf bf 83 bd
       0.1244608 0.07468254 0.054291524 -0.06433069
000330 31 c0 fc bc 1d 4f fa bc 5d 56 f1 3d b5 9a d3 3d
       -0.030853363 -0.030555302 0.117840506 0.103322424
000340 4c 45 0f be fe 0e 85 3d c6 0a 0c be 2e b0 28 bd
       -0.13991278 0.06497 -0.13675985 -0.041183643
000350 fa 02 d6 3e a5 aa 0b bd 6d 18 91 3d 51 a3 8b 3d
       0.41799146 -0.034098286 0.07084737 0.068182595
000360 31 51 46 be 33 ae d6 3d 71 65 97 bd e6 41 12 3e
       -0.1936691 0.104824446 -0.07392395 0.14282951
000370 fd 69 1c bd 5e 96 aa 3d 5d af c5 3c 27 44 37 be
       -0.038187016 0.083294615 0.024131471 -0.17897092
000380 42 a8 26 3d 57 32 b3 3e 61 27 6c bd 52 ba a4 3d
       0.040687807 0.34999344 -0.057654742 0.0804335
000390 f9 79 32 3d 29 e3 b8 3d 1f ea 11 be 75 17 a0 3c
       0.043573353 0.09027702 -0.14249466 0.019542435
0003a0 be 01 4f bd 29 8d 3d be 10 85 c0 bd 99 ae a4 bd
       -0.05053877 -0.1851088 -0.0940038 -0.08041114
0003b0 22 5d 10 be 4c 66 17 3e 48 63 33 3d 83 a3 6e 3e
       -0.14098027 0.14785117 0.043795854 0.23304562
0003c0 a0 a5 91 3e 82 2c 5f 3c 6b 70 8c 3d f9 af 49 be
       0.28446674 0.013621451 0.068573795 -0.19696034
0003d0 1c 17 cc 3d c5 f3 bf bd a6 a0 e6 bd f6 46 04 bc
       0.09965345 -0.09372667 -0.1126111 -0.008073559
0003e0 00 3c 9d 3c bf c5 d3 bd 54 f4 96 3e 83 27 13 bd
       0.01919365 -0.103404514 0.29483283 -0.035926353
0003f0 82 cd f5 bc 8e 29 f8 bc 16 8a 24 be 71 8b 0d bd
       -0.03000522 -0.030293252 -0.160683 -0.03455681

bias f4 [128]
000000 c5 65 f2 3d c9 c1 04 3e a6 31 8e bc 1f 26 03 3e
       0.11835817 0.12964548 -0.017357659 0.12807511
000010 3e 3c ad bd 62 bf 89 3d 47 e3 8b bd 27 c7 49 3d
       -0.08458756 0.067259565 -0.06830459 0.049262192
000020 90 40 8d bd 6e 1c 60 3d d9 ca c1 3d ff 8a 07 bc
       -0.0689708 0.054714613 0.09462518 -0.008272885
000030 78 42 cd 3c 54 53 08 3e c8 ee b9 bc 77 60 08 3e
       0.025056109 0.13313037 -0.022696868 0.13318048
000040 3f ae b6 3d d1 6a 67 3c c5 10 bc 3d 05 ca c4 3c
       0.089199536 0.014124588 0.09182886 0.024022112
000050 0d 74 78 3d 96 1b 17 3e 77 c2 82 3d c3 bf 01 3d
       0.06065755 0.14756617 0.063847475 0.03167702
000060 12 e8 27 3c 35 28 f0 3d 11 e7 92 3c a6 7a 01 3d
       0.010248201 0.11726419 0.017932447 0.031611107
000070 6c cc e9 bc 57 db d5 bd e7 f0 e3 bd 0a b5 cd bd
       -0.028539859 -0.104422264 -0.11129933 -0.10044296
000080 9b 5e 18 3e b0 c2 05 be e0 7a 8a 3b 80 8b f0 3d
       0.14879839 -0.13062549 0.0042260736 0.117453575
000090 13 79 65 bc 41 15 52 be f2 76 8a bd 81 1d bf 3c
       -0.014005917 -0.2051592 -0.06760968 0.023329498
0000a0 94 43 b3 bd 8c 6f ce bd de 4d a1 bc 69 d8 29 bc
       -0.08753124 -0.1007987 -0.01969045 -0.010366538
0000b0 9f d5 d6 3d 51 cc a9 3c ea b9 b8 3c 76 38 7c 3c
       0.10489964 0.020727308 0.022549588 0.015394321
0000c0 2c c4 2a 3e 2d 8f 04 3e 4b 58 e4 bc 44 e8 33 3e
       0.16676396 0.12945242 -0.027874133 0.17569071
0000d0 de 13 06 3e 1b c5 1a 3d 25 d8 c0 bd bf 49 ef 3d
       0.13093516 0.03778563 -0.09416226 0.11683988
0000e0 02 42 86 3d a0 de 8d 3d 47 c1 c3 bc f2 29 57 be
       0.06555559 0.06927228 -0.023895873 -0.21012095
0000f0 dc e2 26 3c 39 5e 19 bd c0 b2 6e bd 3d 9c 5c 3c
       0.010185923 -0.037443373 -0.058275938 0.0134649845
000100 6a 66 83 3c 90 57 f2 3c 46 f7 8a 3d cd 98 af 3d
       0.016040046 0.029582769 0.06785445 0.08574066
000110 4b 5a 82 3d e1 cb 05 3a 8e f6 18 be c3 f7 d9 bc
       0.06364878 0.00051039277 -0.14937803 -0.0266074
000120 2a 6c 00 bc c3 1b 30 3d 47 58 11 3e 24 30 95 bc
       -0.007838288 0.042995226 0.14193831 -0.018211432
000130 5a 1d 91 3d 44 9c 00 3e 1c 06 1f 3e 8a 02 6d 3d
       0.070856765 0.1255961 0.15529674 0.05786375
000140 6c a4 44 be f2 89 5a bc dd b1 10 3e c3 e3 28 3e
       -0.19203347 -0.013338553 0.1413035 0.16493134
000150 e6 a9 41 3e a0 90 17 3e 56 bd e6 3d 4b d7 26 3e
       0.18912467 0.14801264 0.11266582 0.16293065
000160 ba 13 1f 3e 2e be 5f 3d 38 5b 89 bb d4 ed 34 3e
       0.15534869 0.05462473 -0.0041917823 0.17668849
000170 6a 26 b2 3d d8 eb 6a 3e 15 87 0b 3b 53 e7 b5 bb
       0.08698733 0.2294153 0.0021290232 -0.0055512576
000180 43 de 41 3c 00 e8 21 3e 65 76 3e 3e 5e 82 7d bc
       0.0118327765 0.15811157 0.18599851 -0.0154729765
000190 0e f7 13 3e d0 c8 00 3d eb 85 93 3d 62 99 29 3e
       0.14449713 0.03144151 0.07203277 0.16562417
0001a0 3a b0 d7 bd 68 02 07 3e f0 01 53 3e 1e c5 98 3c
       -0.105316594 0.13184512 0.20606208 0.01864868
0001b0 1e a3 65 3d 8b 10 61 bd 08 54 b8 3c 71 e5 9f 3b
       0.056063764 -0.054947417 0.022501007 0.0048796465
0001c0 15 e6 c1 bd 0e f5 5e bd 2f 95 a7 3d 62 61 33 bc
       -0.09467713 -0.05443292 0.081827514 -0.010948511
0001d0 e2 5e 83 ba a0 3c 26 bd 58 7a 82 3d 2f 73 cf 3c
       -0.0010022784 -0.04058516 0.063709915 0.025323479
0001e0 84 18 13 3e 3a ee c8 3d 27 71 ba 3d cb 1e 5b 3d
       0.1436482 0.09811063 0.09103613 0.053496163
0001f0 c6 ed f7 3d b1 20 a0 bd 59 e6 af 3d af 09 26 be
       0.121058986 -0.078187354 0.08588857 -0.16214631

weight f4 [12, 128]
000000 95 2e 8a 3e 49 fc 21 3e f1 47 a4 3d 29 aa 5a 3e
       0.26988664 0.15818895 0.08021534 0.21353973
000010 08 39 14 be 79 5d 6c 3e cf bb b5 bd 3e 18 82 3e
       -0.1447488 0.23082532 -0.08873712 0.2540912
000020 64 5c ab bd bc c3 eb bc 31 ab 38 bc 22 56 b6 3c
       -0.083672315 -0.028779857 -0.011271284 0.022257868
000030 d7 d5 41 3e 97 f8 29 3e d1 9c 7f bd 9a 07 58 3e
       0.1892923 0.16598736 -0.06240541 0.2109665
000040 9b e9 2a 3e 98 98 84 3d e2 24 43 3e 17 0b 5a 3d
       0.16690676 0.064744174 0.19057038 0.053233232
000050 06 d4 0e be 69 a8 b3 3d 5a 34 13 3e 51 d3 65 bd
       -0.13948068 0.08772356 0.1437544 -0.05610973
000060 59 0b 29 be ca 19 2f 3e e7 db 78 bb 49 48 73 be
       -0.16508235 0.17099681 -0.003797287 -0.23758043
000070 af 22 8b bd c1 dc d2 bd 47 a6 a8 3d b8 6c fe bd
       -0.06793725 -0.10296012 0.0823484 -0.1242308
000080 d5 f5 1d 3e 6c 45 a0 bd 34 e3 50 be 15 d3 7c 3d
       0.15425809 -0.07825741 -0.20399171 0.06172474
000090 99 fd a1 be d2 5c db bc a5 fc da bc 1e 1b 4e be
       -0.31638792 -0.026777659 -0.026731798 -0.20127532
0000a0 79 eb 96 be 1f 7c 71 3d e7 13 7e 3c 9c 9d 1f bd
       -0.29476526 0.05895626 0.015507675 -0.038968667
0000b0 3c 1e 4c 3e f8 a6 0b be e7 97 21 bd 2f bb b8 3d
       0.19933408 -0.13637912 -0.039451506 0.090200774
0000c0 dd 57 80 3e 36 9b 35 bb 74 47 01 be 44 ca 00 3e
       0.25067034 -0.002771092 -0.12624913 0.12577158
0000d0 3f c6 35 3e 80 e8 e4 3d 2f 4c e8 bb f3 e9 c0 3e
       0.17751406 0.11177158 -0.00708916 0.3767849
0000e0 b2 32 22 bd 98 c8 4d 3d 89 e4 bd 3d 64 76 3f bd
       -0.039599128 0.05024013 0.09272105 -0.046743765
0000f0 db 60 0e be e8 d5 0b be 1b 0f c6 3d d1 8d 0b 3e
       -0.13904135 -0.13655818 0.0967085 0.13628317
000100 b4 cb 32 3c a3 d8 1b 3e ab 08 f3 3d d8 3c 65 3e
       0.010912824 0.15219359 0.11866888 0.22386491
000110 49 39 c2 3d a7 e0 54 be d9 1b 5e bd c0 67 74 3e
       0.094835825 -0.20788823 -0.054225776 0.23867702
000120 c3 64 92 bd 2d 52 aa 3d b0 fb 11 bc dd 0b 58 bc
       -0.07148125 0.08316455 -0.008910105 -0.013186422
000130 5b c3 11 3e 92 89 82 3d 7c e9 ce bd 64 8b 8a 3e
       0.14234678 0.06373896 -0.10103127 0.27059472
000140 e2 64 0c bf d9 d2 17 bd 93 3e 95 3d 83 6a b2 3c
       -0.54841435 -0.037066314 0.07287326 0.021779304
000150 5e e8 90 3e b8 1c c7 3e 42 0b 27 3e 53 2e 11 3e
       0.28302282 0.38889098 0.16312888 0.14177828
000160 6d ac fa 3d 6e 3d 54 3e 1f cc 4d be 43 50 93 3d
       0.12239919 0.20726559 -0.20097397 0.07193043
000170 22 ca 1b bd 60 e2 7d 3e 1e f4 14 be 80 64 f1 bd
       -0.038034566 0.24793386 -0.14546248 -0.11786747
000180 82 51 e4 3d b6 a7 31 3e 04 49 a6 3c 7e 65 e4 bd
       0.11148359 0.17349133 0.020298488 -0.111521706
000190 c8 50 44 be 75 7c 00 3e 56 b1 f3 3d e1 89 a6 3e
       -0.1917144 0.12547477 0.118990585 0.32527068
0001a0 b7 de b2 3d 28 a5 9b 3e b7 1a ba 3d f7 82 75 bd
       0.08733886 0.30399442 0.09087127 -0.05993935
0001b0 68 f9 db bd dc d8 af be be 7e 4e be c7 da 30 bd
       -0.1074093 -0.34345138 -0.20165536 -0.043177392
0001c0 77 73 39 be 06 78 62 bd 08 13 34 3e 4e 88 35 bd
       -0.18110453 -0.055290245 0.17585385 -0.044319443
0001d0 34 66 93 bd cd 6c bb 3c b9 0f 83 3d c3 4c b1 3d
       -0.07197228 0.022879029 0.06399483 0.08657219
0001e0 28 1a 36 3e ac 45 51 3e 47 ae 47 3e 68 34 00 3c
       0.17783415 0.20436734 0.19500075 0.007824995
0001f0 c0 19 73 3d 17 12 68 be c4 52 24 3e 38 ae 75 bd
       0.05935073 -0.2266315 0.16047198 -0.0599806
000200 bb 39 5f 3e 2f 7b cd bd 9b a4 bf 3d 7a 44 e5 3b
       0.21799366 -0.10033261 0.09357568 0.0069966884
000210 75 c1 e9 bd 3b 69 e7 bd b6 27 73 3e 4f ee 45 bd
       -0.11413852 -0.11299368 0.23745617 -0.048322972
000220 9b c0 54 bd fe 26 92 be 76 e0 62 3c 16 54 ed bd
       -0.051941495 -0.28545374 0.013847461 -0.11588304
000230 2a cd c0 bc ec d6 56 3d b4 bb 24 3e 3c 6f 5e 3e
       -0.02353533 0.05245106 0.16087228 0.2172212
000240 1b 27 12 39 50 cc 6a 3c 13 5d 18 3d 8b 3e 98 bd
       0.00013938213 0.014330938 0.037198137 -0.07433804
000250 10 1f 2a 3e 51 a5 bf bc 98 35 ff bd 98 89 1f be
       0.16613412 -0.023394259 -0.12461394 -0.15579832
000260 6b f3 f5 bd b1 3b 0c 3e 16 ee 56 bd 18 47 9d 3d
       -0.12009319 0.13694645 -0.05247315 0.07679576
000270 60 8a 31 3e f2 7e f5 3c d8 d3 0a be a7 0d 06 bd
       0.17337942 0.029967759 -0.13557374 -0.032727864
000280 fe b3 b9 bc 38 81 b8 bc 16 5c 3d bd 4f 75 6e be
       -0.022668835 -0.022522554 -0.046230398 -0.23286937
000290 1d 59 c1 3e 1f 7a 02 3d df d0 c2 bd 8e 10 c2 3d
       0.377633 0.031854745 -0.09512495 0.09475814
0002a0 94 aa e5 3d 84 c1 80 bc 27 c9 02 3e 6b f7 90 3d
       0.11214176 -0.015717275 0.12772046 0.07078441
0002b0 56 d9 4c 3e ab a4 a4 bc 65 22 50 3c e5 16 e9 3d
       0.20004782 -0.020098051 0.012703513 0.1138132
0002c0 38 2a 82 3d 60 73 90 3d 5e 36 1a 3e 94 d8 33 bd
       0.06355709 0.07053256 0.15059802 -0.043907717
0002d0 02 8f d9 3d 51 17 61 3e c7 d4 ab bd 52 00 8d bd
       0.1062298 0.21981551 -0.083901934 -0.06884827
0002e0 88 f1 88 bd eb 5c 20 3e d6 5c e8 3a d2 0b 79 be
       -0.066866934 0.15660445 0.0017727863 -0.24320915
0002f0 42 c3 80 3d b9 17 a7 be 93 5d 8b 3e da b5 04 3e
       0.062872425 -0.32635286 0.2721983 0.12959996
000300 95 ff bc bd c9 87 14 3e 34 a1 13 be 8a 82 a0 3d
       -0.09228436 0.14504923 -0.14416963 0.07837398
000310 4d 24 21 3d 20 ea 8e bd 29 da 9c 3e 55 59 de 3b
       0.03934126 -0.069782495 0.30635193 0.0067855516
000320 da 19 61 3c 40 56 7d 3e b4 eb 26 3e 83 6f af 3d
       0.013739074 0.24739933 0.16300851 0.08566191
000330 63 40 c0 3c 52 c2 0c be e8 56 24 3e 20 d9 2c bc
       0.023468202 -0.13746002 0.16048777 -0.0105498135
000340 5b 5d 8c 3c ee c5 0b be f2 10 ff 3d c9 5e 86 3b
       0.01713436 -0.13649723 0.12454404 0.0041006547
000350 f9 fb 7e bd 3c 1e d9 3c 56 20 fd bc b2 8f f2 be
       -0.06225202 0.026503675 -0.030899208 -0.47375256
000360 bd 7e 07 3d 71 04 48 be 9a 1b 35 3d a2 b6 7c 3d
       0.03307985 -0.19532944 0.044215776 0.06169761
000370 be dd 00 bb 5c 12 54 3c a9 aa e0 bd 9f 57 22 bd
       -0.0019663419 0.01294383 -0.10970051 -0.039634343
000380 d1 42 20 bd 06 d3 2d 3e ae 11 0b be a0 c5 76 3d
       -0.03912622 0.1697503 -0.13580963 0.060247064
000390 a5 e2 d5 3c 4a 95 d5 bd c6 8b 13 3e 7e 0b eb 3d
       0.02610905 -0.10428865 0.14408788 0.11476801
0003a0 b2 20 f7 3d 0f 84 fb bd 84 db b5 3d 07 ba ce bd
       0.12066783 -0.122810476 0.0887976 -0.10094076
0003b0 d8 71 cf bd ce aa a4 be 13 41 1c bd ac 53 db bd
       -0.10129136 -0.32161564 -0.038147997 -0.107093185
0003c0 12 b6 46 3e 23 96 8f b9 c7 19 8e bc 59 ac 53 bd
       0.19405392 -0.00027386946 -0.017346276 -0.051678035
0003d0 e3 34 01 be 9d d0 2e 3e ec 48 49 be 36 f1 18 3e
       -0.12617831 0.17071767 -0.19656724 0.14935765
0003e0 8c 39 9d bd 34 b1 1f bd 0a f8 12 3e 7d 8c 7f bd
       -0.07676992 -0.038987353 0.14352432 -0.06238984
0003f0 e8 96 1f bd a9 30 8f be 3a 4a 15 3e 36 17 f8 3d
       -0.038962275 -0.27966812 0.14579096 0.12113802

bias f4 [12]
000000 ca 2f 16 3e 41 14 32 3d 31 3a 94 bd 9f d3 ec bd
       0.14666668 0.043476347 -0.07237662 -0.11563801
000010 fe 3c b1 3d f5 ad 42 be 56 4c 85 3d f7 4d 53 bc
       0.086542115 -0.19011672 0.065087005 -0.012897006
000020 e1 4d 36 3d 3e 6d 9f bd d6 97 a0 3d 65 34 0a be
       0.044507865 -0.07784508 0.078414604 -0.1349655
