actor_model/actor_3600.pt (torch, 99279 bytes, 6 tensors)

weight f4 [128, 34]
0	0xbd0324bc	-0.032017455
1	0x3e0a736e	0.13520595
2	0xbdb1c8c8	-0.08680874
3	0x3cc255d7	0.023722572
4	0x3cc78d7d	0.024359459
5	0x3da7c8ab	0.08192571
6	0x39afc953	0.000335286
7	0xbe32c47e	-0.17457768
8	0x3e73a95d	0.23795076
9	0xbcf81b6a	-0.03028651
10	0xbe3a0eae	-0.18169662
11	0x3d0f77f8	0.03502652
12	0x3b9a3a1f	0.0047066356
13	0xbd16259a	-0.036656953
14	0x3cb3a258	0.021927997
15	0xbb7d30d3	-0.0038633838
16	0x3dbee430	0.09320867
17	0xbe0ad998	-0.13559568
18	0x3ea1426e	0.31495994
19	0xbe2abc1a	-0.16673318
20	0x3d8d91b0	0.06912553
21	0x3c05f9a7	0.008177198
22	0xbdd4b62b	-0.10386308
23	0x3a4ca3dc	0.00078063994
24	0x3d3d9551	0.046284977
25	0x3ca266ac	0.019824348
26	0xbe45fd29	-0.19334854
27	0xbc9d99d7	-0.019238396
28	0xbd883e74	-0.06652537
29	0xbe0aeef5	-0.13567717
30	0xbcb91e18	-0.022597358
31	0xbd217261	-0.03941572
32	0xbb8c6f22	-0.004285709
33	0x3d782339	0.060580466
34	0x3e41d5ef	0.18929265
35	0x3e0f3cbe	0.13988015
36	0xbd662782	-0.05619002
37	0x3c8ac6da	0.016940523
38	0xbdb3edbf	-0.08785581
39	0xbdace69a	-0.08442421
40	0x3c8865f8	0.016650185
41	0x3e234241	0.15943243
42	0xbe88067f	-0.26567456
43	0x3bf67158	0.007520836
44	0xbb967e27	-0.0045926753
45	0x3d176873	0.036964845
46	0x3c1bd721	0.00951174
47	0xbbf517f2	-0.007479661
48	0x3cef0abe	0.029179927
49	0x3bddf60b	0.0067737154
50	0x3d29c945	0.04145171
51	0x3d3264df	0.04355323
52	0x3e119a9a	0.14219132
53	0x3e01729b	0.12641375
54	0xbd039dba	-0.03213284
55	0x3d08bd7d	0.033383835
56	0x3bc6af9c	0.0060634147
57	0x3bb5ec63	0.005551861
58	0x3bda9d33	0.0066715716
59	0x3df3f2a3	0.11911514
60	0xbc8f7419	-0.017511414
61	0xbc64e9c6	-0.013971752
62	0xbc8b3fcc	-0.016998194
63	0x3dec4de1	0.11538292
64	0x3b9999ca	0.0046875225
65	0x3dd0a210	0.10187161
66	0xbd4344f5	-0.047673184
67	0x3c5d079e	0.013490586
68	0x3e100083	0.14062695
69	0x3d4271ae	0.047471695
70	0x3d57160c	0.05251126
71	0x3c1952c4	0.009358112
72	0xbc0c2085	-0.008552675
73	0x3e18640d	0.14881916
74	0x3cbae988	0.022816435
75	0x3c27d68e	0.010244025
76	0x3e0738b1	0.1320522
77	0x3cd34e83	0.025794273
78	0xbd95eb91	-0.07320321
79	0xbde4d962	-0.11174275
80	0xba550205	-0.0008125606
81	0xbdbb799c	-0.091540545
82	0x3d34c53e	0.044133417
83	0xbbb9b941	-0.005667836
84	0xbe23f4e2	-0.16011384
85	0xbd926e3d	-0.071499325
86	0xbe10e40e	-0.14149496
87	0xbe2a55e5	-0.16634329
88	0x3df9b547	0.12192779
89	0xbd8cd134	-0.0687584
90	0xbcd07a92	-0.025449071
91	0x3daf523b	0.08560606
92	0x3ccc4128	0.024933413
93	0xbe309d97	-0.17247616
94	0xbb8b6f05	-0.004255178
95	0x3c3f9b3c	0.011694726
96	0xbd937eda	-0.072019294
97	0xbd8bc02d	-0.06823764
98	0x3af65a2f	0.0018795187
99	0xbdb89455	-0.09012667
100	0xbce0667e	-0.027392622
101	0xbd261aa8	-0.040552765
102	0xbdd86ff7	-0.105682306
103	0xbe8a5e02	-0.27024847
104	0xbd8d5c44	-0.06902364
105	0x3cd367fd	0.025806421
106	0xbd97ddf3	-0.0741538
107	0x3e06a364	0.13148266
108	0xbca96f77	-0.020683033
109	0x3cbcd5ec	0.023051225
110	0x3b9737f3	0.004614824
111	0x3c83548f	0.016031532
112	0x3e5afa77	0.21384607
113	0xbeb75ce2	-0.3581305
114	0x3b7d51cd	0.0038653493
115	0xbe45eda9	-0.19328941
116	0xbd856415	-0.0651323
117	0x3d2116c9	0.03932837
118	0xbce171be	-0.027520057
119	0x3e06d083	0.13165478
120	0xbeb6cdc0	-0.3570385
121	0xbdcae8e9	-0.09907705
122	0xbdf6d989	-0.1205321
123	0x3d9320ed	0.071840145
124	0xbcc47377	-0.02398084
125	0x3bffa594	0.007801721
126	0x3c543bee	0.0129537415
127	0x3cda1ddc	0.026625566
128	0x3d3b9917	0.045800295
129	0x3d12e407	0.035861995
130	0x3cb94d2f	0.022619812
131	0xbe224053	-0.1584485
132	0xbcf3dfeb	-0.029769858
133	0xbdb6f8da	-0.089341834
134	0xbd002e98	-0.031294435
135	0x3b35c7dd	0.0027737536
136	0x3ea8f8e3	0.33002385
137	0x3e86ec6a	0.26352245
138	0x3e3f4359	0.18678035
139	0x3ce17031	0.027519317
140	0x3defbe11	0.11706174
141	0xbb01aab2	-0.001978558
142	0x3a94e029	0.0011358309
143	0x3e1d22e8	0.15345347
144	0xbe529c0d	-0.20567341
145	0xbcfe063f	-0.031008838
146	0xbbb4dade	-0.005519255
147	0x3bc02249	0.005863462
148	0x3cb9cd73	0.022680974
149	0x3dbcbe2d	0.09215961
150	0xb849ad02	-4.808326e-05
151	0xbbc4a658	-0.006001275
152	0x3e684aeb	0.22684829
153	0xbcded65f	-0.02720183
154	0x3d64ce83	0.055861007
155	0x3e8a52e2	0.2701636
156	0xbdebc6ea	-0.11512549
157	0xbddc77ef	-0.10765063
158	0x3d6d126f	0.057878908
159	0x3c0c2906	0.008554703
160	0x39a61ac5	0.00031681932
161	0x3eacac76	0.33725327
162	0x3d50d74d	0.050986577
163	0xbd045d48	-0.032315522
164	0x3c483d14	0.012221593
165	0x3d796ecc	0.06089668
166	0x3c3888c7	0.011263079
167	0x3dd12844	0.10212758
168	0xbb8c84ef	-0.004288308
169	0xba6de596	-0.00090750435
170	0x3d0d8cc6	0.03455808
171	0x3dc88235	0.0979046
172	0xbd5dac46	-0.05411937
173	0xbc179d9d	-0.0092538865
174	0x3d136aae	0.03599041
175	0xbc89a0cd	-0.016800309
176	0xbb751c60	-0.0037400946
177	0xbd269dca	-0.040677823
178	0xbdb72236	-0.08942072
179	0xbb9a18fc	-0.0047026854
180	0x3dbc26c7	0.09187084
181	0xbd6ad296	-0.057329737
182	0xba7b31a8	-0.00095822895
183	0xbd750eb9	-0.059828494
184	0xbdb88b57	-0.09010952
185	0x3cbd8142	0.023132924
186	0xbda110dc	-0.07864544
187	0x3d3cf950	0.0461362
188	0xbe53c688	-0.20681202
189	0x3d09302a	0.0334932
190	0xbd4ba9e7	-0.04972258
191	0xbdb722d8	-0.08942193
192	0x3d6b4027	0.057434227
193	0xbb28a341	-0.0025732073
194	0xbc0a6a4e	-0.008448197
195	0xbd779fd9	-0.060455177
196	0xbc51d7d7	-0.012807808
197	0xbc04e940	-0.008112252
198	0x3d4b640b	0.049655955
199	0xbd6ef18a	-0.05833582
200	0xbbc98737	-0.006150152
201	0xbdcb4ef0	-0.099271655
202	0x3b56e498	0.003279006
203	0x3a0e1b3f	0.000542093
204	0x3ed03173	0.40662727
205	0x3ea1c9d3	0.31599292
206	0x3e1fc3dc	0.15602058
207	0xbcfdaa07	-0.030964864
208	0xbbb78745	-0.005600842
209	0x3d3f76a2	0.046743996
210	0xbc88ebf9	-0.016714083
211	0x3eb99bcf	0.36251685
212	0xbcd74391	-0.026277335
213	0x3d74c5a8	0.059758812
214	0xbd19f5c4	-0.037587896
215	0x3ddd9877	0.10820096
216	0x3b7c563d	0.003850355
217	0x3c7bb545	0.015363042
218	0xbcc8ae3c	-0.024497144
219	0xbb8b0c96	-0.0042434437
220	0x3d8e596d	0.0695065
221	0xbbde6246	-0.0067866175
222	0x3dde2e3c	0.10848662
223	0x3e008bf2	0.12553385
224	0xbdb840c5	-0.08996729
225	0x3ba8563b	0.0051372326
226	0xbd109087	-0.035294082
227	0xbc1f64c3	-0.009728613
228	0x3c4d86b0	0.012544319
229	0x3eb2722a	0.34852725
230	0xbc957002	-0.018241886
231	0x3cfbf387	0.030755771
232	0xbc821cd7	-0.015882893
233	0x3d427a31	0.047479812
234	0xbb1a1741	-0.0023512396
235	0xbce9059b	-0.028445056
236	0x3d08b860	0.03337896
237	0x3c6932d5	0.014233311
238	0xbdee9df2	-0.116512194
239	0xbc74cd73	-0.014941561
240	0xbdfa91ab	-0.12234815
241	0x3a96bd8e	0.0011500583
242	0xbe0dc71a	-0.13845482
243	0xbe18cc75	-0.14921744
244	0x3bdf324f	0.006811417
245	0xbdfc0a0a	-0.12306602
246	0xbcb4e0cd	-0.02207985
247	0x3b019a10	0.0019775666
248	0xbd92d604	-0.071697265
249	0xbc15aee0	-0.009135932
250	0xbc5a221c	-0.013313796
251	0xbdd1315c	-0.10214493
252	0x3c82db3a	0.015973676
253	0xbc8c0daa	-0.01709636
254	0x3da19be3	0.07891061
255	0xbd89832f	-0.067144744

bias f4 [128]
0	0xbda95ebd	-0.08270023
1	0x3e8cbff4	0.274902
2	0xbd82e60e	-0.06391536
3	0xbe1e8a6c	-0.15482491
4	0xbe235d43	-0.15953545
5	0x3e9a3332	0.30117184
6	0xbd1fb263	-0.038988482
7	0x3ebd76c7	0.37004682
8	0xbef5757a	-0.4794119
9	0xbe3a3fb8	-0.1818837
10	0xbeb3c2a8	-0.35109448
11	0xbe1abad8	-0.15110338
12	0x3c57644a	0.013146469
13	0x3e0b4a7e	0.13602635
14	0x3ca5d130	0.02024135
15	0x3ec381bc	0.38184917
16	0xbeb78d77	-0.35850117
17	0xbe8dc2df	-0.27687737
18	0xbe6c3569	-0.2306725
19	0xbee0d944	-0.4391576
20	0xbeb208dd	-0.34772387
21	0xbe84d9e2	-0.2594748
22	0xbebfc8de	-0.37457937
23	0xbdf95e2f	-0.12176167
24	0xbebc654d	-0.36796036
25	0xbdbae282	-0.09125234
26	0x3e9a3846	0.30121058
27	0xbe4f60ca	-0.20251766
28	0x3da72d6b	0.0816296
29	0xbeaf711e	-0.3426599
30	0x3eb3b41b	0.35098347
31	0xbe3fbc7a	-0.18724242
32	0xbe3218d3	-0.17392282
33	0x3e5a47aa	0.213164
34	0xbe81de17	-0.25364754
35	0x3ea4a36e	0.32155937
36	0xbe875a9e	-0.26436323
37	0xbe4eb92b	-0.20187823
38	0xbe85268c	-0.2600597
39	0xbef83351	-0.4847665
40	0xbed55f97	-0.41674492
41	0xbe8049cb	-0.250563
42	0xbee9d60c	-0.45671117
43	0xbe9abc9e	-0.30222028
44	0xbe1ee8d3	-0.15518503
45	0xbe36af5f	-0.17840336
46	0x3ea40da8	0.3204167
47	0x3db92f59	0.09042234
48	0xbc73943b	-0.014866884
49	0xbed83001	-0.42224124
50	0x3ebc4bf3	0.36776695
51	0x3cf65ac6	0.030072581
52	0xbe870add	-0.26375476
53	0x3d87f60d	0.06638727
54	0xbc5cd8c4	-0.013479415
55	0x3e94f715	0.2909476
56	0x3e44e037	0.19226156
57	0xbe8eff66	-0.2792923
58	0x3c96cf04	0.01840926
59	0x3e3a60ef	0.1820104
60	0xbe51f949	-0.20505251
61	0x3e22e1d1	0.15906455
62	0x3e60f298	0.21967542
63	0xbe519912	-0.20468548
64	0x3ea458ce	0.32099003
65	0xbde8d499	-0.11368675
66	0x3ec711b4	0.38880694
67	0x3e3cccb0	0.18437457
68	0x3e0c6b87	0.13712893
69	0xbe13f5c8	-0.14449227
70	0x3d436614	0.04770477
71	0xbe0dc44c	-0.13844413
72	0x3d8b12a7	0.06790667
73	0xbe22b26b	-0.15888374
74	0x3e9861c9	0.29762104
75	0xbee4288b	-0.44562182
76	0x3d7438bd	0.059624422
77	0x3ef78ba7	0.48348734
78	0xbe01f543	-0.12691216
79	0xbf0007ef	-0.50012106
80	0x3d9f70a3	0.077851556
81	0x3d2f43d6	0.042789303
82	0x3e8e18f4	0.27753413
83	0xbd137d5d	-0.036008228
84	0xbeb839c0	-0.3598156
85	0x3e7ee290	0.24891114
86	0x3db2a677	0.08723157
87	0x3e8675e2	0.26261812
88	0x3e06936c	0.13142174
89	0xbeb9eeea	-0.3631509
90	0xbede0755	-0.4336497
91	0xbdb16493	-0.08661761
92	0x3c67d053	0.014148789
93	0x3e870495	0.26370683
94	0x3e5a0eef	0.21294759
95	0xbe7279ca	-0.23679271
96	0xbe201e7b	-0.15636627
97	0x3e33d6cf	0.17562412
98	0xbe3043cf	-0.17213367
99	0x3e6d56b0	0.231776
100	0x3dc0f90a	0.094225004
101	0xbe47d27f	-0.19513892
102	0xbe836ee7	-0.2567055
103	0x3e8c2022	0.27368265
104	0x3c3d83ee	0.011567099
105	0x3eb81825	0.3595592
106	0x3dfbcbe4	0.122947484
107	0x3e819fc3	0.253172
108	0xbe3cf5fb	-0.18453209
109	0xbdcb19a9	-0.09917004
110	0xbec751e3	-0.38929662
111	0xbe4f82a6	-0.20264682
112	0x3e590092	0.21191624
113	0xbe118741	-0.14211752
114	0x3eb2aa42	0.3489552
115	0xbe70e0f9	-0.2352332
116	0xbeaa8000	-0.3330078
117	0xbeccc60c	-0.39994848
118	0xbd545d0e	-0.051846556
119	0x3db461c4	0.0880771
120	0xbe1abc34	-0.15110856
121	0xbd813cff	-0.06310462
122	0x3e58238a	0.21107307
123	0x3c575b52	0.013144331
124	0xbd2732a6	-0.040819786
125	0x3e97746c	0.2958101
126	0xbdd944be	-0.10608815
127	0xbee6840d	-0.45022622

weight f4 [128, 128]
0	0x3c674a42	0.014116826
1	0x3d2bed85	0.041974563
2	0xbe2b081a	-0.16702309
3	0x3e9d3921	0.30707648
4	0xbf4e30a0	-0.80542946
5	0xbc8302ac	-0.015992485
6	0xbf1e983d	-0.6195105
7	0x3e268d25	0.1626478
8	0x3e39b0cf	0.18133853
9	0x3d6c705e	0.05772435
10	0xbde4a5b7	-0.1116442
11	0xbd8bdee7	-0.068296246
12	0xbe1fd890	-0.15609956
13	0x3c8e62d9	0.017381119
14	0x3d538a08	0.05164531
15	0x3a947746	0.001132705
16	0xbe879b4a	-0.26485664
17	0xbe8c37a6	-0.27386206
18	0xbe9bd73a	-0.30437642
19	0xbde81672	-0.11332406
20	0xbda2292d	-0.0791801
21	0x3c7d9ac8	0.015478797
22	0xbe09406b	-0.1340348
23	0x3d77fb5a	0.060542442
24	0xbd99bad9	-0.075063415
25	0xbd944abc	-0.07240817
26	0xbd8fbcd6	-0.070184395
27	0xbe1b01a9	-0.15137352
28	0xbef7acb8	-0.4837396
29	0xbb5623f2	-0.0032675234
30	0x3ddf0116	0.10888879
31	0xbe0969f0	-0.13419318
32	0x3daff9f7	0.08592599
33	0x3dba2908	0.09089857
34	0xbe0ff77b	-0.1405925
35	0x3cf580c9	0.029968636
36	0x3c8bd53b	0.01706945
37	0x3d4ad8ba	0.049523093
38	0xbd87900b	-0.06619271
39	0xbe957eae	-0.2919821
40	0x3e2c4f9c	0.16827244
41	0xbe1f0a8b	-0.15531366
42	0xbd578b12	-0.052622862
43	0xbdcdb485	-0.10044197
44	0xbeb1574a	-0.3463691
45	0xbe0f7017	-0.14007603
46	0x3e5e459c	0.21706241
47	0x3d4658b9	0.048424456
48	0x3e076505	0.1322213
49	0xbddfcfb4	-0.10928288
50	0xbcbb8711	-0.022891553
51	0x3dd81212	0.10550322
52	0xbdaa7aa5	-0.08324174
53	0xbda93fb7	-0.08264106
54	0x3ddb0528	0.10694343
55	0x3d7e2480	0.062046528
56	0x3d6cffa5	0.05786099
57	0xbef10dde	-0.47080892
58	0xbe53b01a	-0.20672646
59	0xbd637b65	-0.0555376
60	0xbe7b4d14	-0.24541122
61	0x3db06097	0.08612173
62	0xbc469793	-0.012121099
63	0x3df60420	0.120125055
64	0xbdb202a3	-0.08691909
65	0x3dfa0802	0.122085586
66	0x3ec077fc	0.3759154
67	0xbde44e4b	-0.11147746
68	0x3e60a801	0.21939088
69	0x3ea17c02	0.31539923
70	0xbdefbf59	-0.117064185
71	0xbdcd5e2c	-0.100277275
72	0xbd23c5ee	-0.039983682
73	0xbe43dd8c	-0.19127482
74	0x3e9ffe8c	0.3124889
75	0x3dbd317f	0.09237956
76	0x3e925a0f	0.28584334
77	0x3df50516	0.11963861
78	0x3dba0cf1	0.090844996
79	0xbe39584f	-0.18100093
80	0xbda09957	-0.07841747
81	0x3db96e45	0.09054235
82	0xbd9a70ea	-0.07541068
83	0xbd51135d	-0.051043857
84	0xbe38a989	-0.18033423
85	0x3e031d56	0.1280416
86	0xbe584250	-0.21119046
87	0xbda88e69	-0.082302876
88	0xbf7e10cc	-0.9924438
89	0xbdcd7113	-0.10031333
90	0x3d2d67bd	0.04233526
91	0xbd4c49da	-0.049875118
92	0x3dcd7745	0.100325145
93	0x3e013f9a	0.12621918
94	0x3de8da3f	0.11369752
95	0xbee9b1dd	-0.4564351
96	0xbe1f9165	-0.15582807
97	0x3d77eb2e	0.06052702
98	0xbe934359	-0.2876232
99	0xbe4c030a	-0.19923034
100	0xbc2f3b63	-0.010695311
101	0xbd850f0d	-0.06497011
102	0xbdbfd35b	-0.09366485
103	0xbbaadbca	-0.005214189
104	0x3e128c79	0.14311399
105	0x3b88c527	0.004173893
106	0x3d96f7b1	0.07371462
107	0xbe3099ea	-0.17246214
108	0xbdb3976e	-0.08769117
109	0x3e8794ba	0.26480657
110	0xbe46d594	-0.19417411
111	0xbd40d92f	-0.047082122
112	0xbd2e3107	-0.042527225
113	0xbd18d05b	-0.03730808
114	0x3dfa61e6	0.12225704
115	0x3ddd9cc0	0.10820913
116	0x3c7b973c	0.015355881
117	0xbe13b345	-0.14423855
118	0x3d963f1e	0.073362574
119	0x3e4f57cd	0.20248337
120	0xbdff6505	-0.1247044
121	0x3e72e18d	0.23718853
122	0x3d40a26c	0.047029898
123	0x3d824ff5	0.06362907
124	0xbe4d7e87	-0.20067798
125	0x3e8dd6f8	0.2770307
126	0xbd8ccea3	-0.0687535
127	0x3ec5d4c6	0.38638896
128	0xbc1fc384	-0.009751204
129	0xbe935a51	-0.28779843
130	0xbdbbb14c	-0.09164676
131	0x3deaf103	0.114717506
132	0xbeadfad6	-0.33980435
133	0xbe1b0784	-0.15139586
134	0xbea2ce81	-0.31798175
135	0xbcb39216	-0.021920245
136	0xbe6115f6	-0.21981034
137	0x3dbcf3f0	0.09226215
138	0xbe197fcc	-0.14990157
139	0xbe298eed	-0.16558428
140	0x3da2820f	0.07934963
141	0x3c3d8a81	0.011568666
142	0x3e343ea3	0.17602019
143	0x3e00af11	0.12566783
144	0x3e2659cc	0.16245192
145	0x3cf1fbc2	0.029538993
146	0xbd4943e7	-0.049137022
147	0xbe101812	-0.14071682
148	0xbece574c	-0.40300977
149	0xbdcce23c	-0.10004088
150	0x3e04d5cb	0.1297218
151	0xbed65713	-0.41863307
152	0x3e202425	0.15638788
153	0xbd9da794	-0.076979786
154	0xbde79c6e	-0.113091335
155	0xbdbe0405	-0.092781104
156	0xbf19baa1	-0.600504
157	0xbe17d61e	-0.14827773
158	0xbcc32017	-0.023819013
159	0x3df10562	0.11768605
160	0x3e09bc8e	0.13450834
161	0xbdd6af40	-0.10482645
162	0xbdadf1e1	-0.084934
163	0xbe38da67	-0.18052064
164	0xbe305a86	-0.17222032
165	0x3c9f09ae	0.019413795
166	0xbd49e902	-0.04929448
167	0xbe4242f7	-0.18970858
168	0xbe130d3f	-0.14360522
169	0x3e13d297	0.14435802
170	0x3e2d63e5	0.16932638
171	0x3c534b4a	0.012896368
172	0xbb041437	-0.002015365
173	0xbe8f24ff	-0.27957913
174	0xbe9467e0	-0.289855
175	0x3db6b120	0.08920503
176	0x3cc1fa91	0.02367905
177	0x3e2212c4	0.15827471
178	0xbe63e414	-0.22254974
179	0x3d7276a3	0.059195172
180	0x3d65445b	0.055973392
181	0x3e4b70af	0.19867204
182	0x3decf221	0.1156962
183	0x3e446e53	0.1918271
184	0x3de4058a	0.11133869
185	0xbe285f45	-0.16442592
186	0x3dcc6e85	0.099820174
187	0xbeb52cd1	-0.35385755
188	0x3bbbb274	0.0057280604
189	0x3d28b30e	0.041186385
190	0x3dcab573	0.0989789
191	0xbd8c7536	-0.06858294
192	0xbe8667b6	-0.26251
193	0x3d915d0a	0.07097824
194	0x3da3c4a0	0.079964876
195	0xbd00679a	-0.031348802
196	0xbd56d6c4	-0.05245091
197	0xbe14cc2f	-0.14531015
198	0x3ddbfbdc	0.10741398
199	0x3cf54fa0	0.029945195
200	0xbe0b594e	-0.13608286
201	0xbd8763c1	-0.066108234
202	0xbd3e4065	-0.04644813
203	0x3c74175f	0.01489815
204	0xbb989ab3	-0.0046571135
205	0xbe92b856	-0.28656262
206	0x3dc0abf4	0.094077975
207	0xbdc2ff3d	-0.09521339
208	0xbd95b301	-0.07309533
209	0xbdea83a6	-0.11450891
210	0x3c6fca18	0.014635585
211	0xbe76a797	-0.24087368
212	0x3cedec57	0.02904336
213	0x3d7cdf25	0.061736245
214	0xbeacfd91	-0.33787206
215	0xbe42f917	-0.19040333
216	0xbe9b574e	-0.30340046
217	0xbe903996	-0.28168935
218	0xbc9dda31	-0.01926908
219	0xbc01d32f	-0.007923885
220	0x3e9ef3d7	0.3104541
221	0xbe2d6894	-0.16934425
222	0xbb765969	-0.0037589914
223	0x3d53f946	0.051751398
224	0xbe28f7f3	-0.16500835
225	0xbe8d2502	-0.27567297
226	0xbe0e012f	-0.13867639
227	0x3cc9d135	0.02463589
228	0x3cb7b7c4	0.022426493
229	0x3dad0ba3	0.08449485
230	0xbd9821fd	-0.07428358
231	0x3d1e299c	0.0386139
232	0xbde771c7	-0.11300998
233	0xbdc07f66	-0.09399299
234	0x3be83b4d	0.0070871473
235	0xbcdf89f0	-0.027287453
236	0xbd6614f9	-0.056172345
237	0xbdc43e9c	-0.09582254
238	0xbef114ad	-0.47086087
239	0x3cc7e29d	0.02440005
240	0xbc64ea64	-0.013971899
241	0xbd469daa	-0.048490204
242	0x3e11b747	0.14230071
243	0xbecf64b0	-0.40506506
244	0x3bd052c1	0.0063575213
245	0xbe429290	-0.19001222
246	0x3e44fea0	0.19237757
247	0x3e516719	0.20449485
248	0x3e7ccf38	0.24688423
249	0xbdcab354	-0.098974854
250	0xbd25bc56	-0.040462814
251	0xbe44cf2b	-0.19219653
252	0xbd53ffc8	-0.051757604
253	0x3c5657c0	0.013082445
254	0xbe423e1d	-0.18969007
255	0x3c6d4f6e	0.01448427

bias f4 [128]
0	0x3e14f13d	0.1454515
1	0xbd7daa57	-0.061930027
2	0x3b5d0f49	0.0033731034
3	0x3e53cd58	0.20683801
4	0x3e0391bb	0.1284856
5	0xbe016f59	-0.12640132
6	0xbd9ee6b2	-0.077588454
7	0xbcdbcd79	-0.026831375
8	0xbe625452	-0.22102478
9	0xbe77feb3	-0.24218254
10	0x3e13d841	0.14437963
11	0xbd33a4d4	-0.043858364
12	0xbe6b285c	-0.22964615
13	0x3d3ce4c1	0.046116594
14	0xbe2a4eba	-0.16631594
15	0x3de5da42	0.1122327
16	0x3c9b5d54	0.0189654
17	0xbdce0113	-0.10058799
18	0xbddec4ca	-0.10877378
19	0x3baa5b25	0.0051988536
20	0x3d3220f9	0.043488476
21	0x3deb1dfa	0.11480327
22	0xbe387067	-0.18011628
23	0xbc90fd8b	-0.017699024
24	0xbdb68d48	-0.08913666
25	0x3e07e2f5	0.13270171
26	0x3dea8ba7	0.11452418
27	0x3ae10d0f	0.001717003
28	0xbdb222e9	-0.08698065
29	0x3dd8a8ef	0.105790965
30	0x3dbaa892	0.091141835
31	0x3dad0bf1	0.08449543
32	0xb982c2ed	-0.00024940763
33	0xbdaa1ba1	-0.08306051
34	0xbe2a0150	-0.16602063
35	0x3e7cc88b	0.24685876
36	0x3c59df04	0.0132978
37	0xbe40b86a	-0.18820348
38	0xbe23d077	-0.15997492
39	0xbd5e2011	-0.0542298
40	0xbe3e7f89	-0.18603338
41	0x3c68a32b	0.0141990585
42	0x3de25a0d	0.11052332
43	0x3e81f918	0.25385356
44	0xbd2e039d	-0.042483915
45	0x3cb0d1d5	0.02158443
46	0xbe73bfe9	-0.23803677
47	0xbd2f4da5	-0.042798657
48	0xbe259e2d	-0.1617362
49	0x3d921249	0.07132394
50	0xbdd65ee2	-0.10467316
51	0x3c17ddc3	0.009269181
52	0x3e2507da	0.16116276
53	0xbe091c9f	-0.13389824
54	0x3d44d219	0.048051927
55	0xbdbf5cd4	-0.093438774
56	0xbdd661d6	-0.104678795
57	0x39df06fd	0.0004253908
58	0xbd9ccad0	-0.07655871
59	0x3e8da251	0.276629
60	0xbccc6760	-0.024951637
61	0x3e2e97e5	0.1705013
62	0x3e33cd82	0.17558864
63	0x3df075ea	0.1174124
64	0x3e58c307	0.21168147
65	0x3d0584ee	0.032597475
66	0x3e92fb37	0.28707287
67	0xbd835bc9	-0.06413991
68	0x3d242d39	0.04008219
69	0xbd454443	-0.048160803
70	0x3e2357ad	0.15951414
71	0x3e2ce9f4	0.16886121
72	0x3e4f9f4a	0.20275608
73	0xbce7235c	-0.028215103
74	0xbd8d1537	-0.06888812
75	0x3e4fb375	0.20283301
76	0x3b7d7864	0.0038676495
77	0x3d61460b	0.05499844
78	0xbe03d2e7	-0.12873422
79	0x3d5c6869	0.05381051
80	0xbe00759f	-0.12544869
81	0x39fcc177	0.00048209328
82	0xbcfa2555	-0.03053538
83	0xbcd9a894	-0.026569642
84	0x3e0b4f48	0.13604462
85	0x3d26588a	0.04061178
86	0x3e7ade1f	0.24498795
87	0x3e113bd1	0.14182974
88	0x3e89fef6	0.26952332
89	0x3dbc4921	0.09193636
90	0xbe2592dc	-0.16169304
91	0x3cf0be8f	0.02938774
92	0xbdfd0a87	-0.123555236
93	0x3ebf48f0	0.37360334
94	0xbd9634e7	-0.07334309
95	0xbdeda606	-0.11603932
96	0x3e12d965	0.14340742
97	0x3e1e3476	0.154497
98	0xbe07e1ef	-0.1326978
99	0xbe272bd5	-0.16325314
100	0xbd7fe2ed	-0.062472273
101	0x3c2d271b	0.0105684055
102	0xbb1082d5	-0.0022050638
103	0x3df24bd3	0.118308686
104	0x3dfe66b6	0.12421934
105	0x3dddb41f	0.10825371
106	0xbb49bb5a	-0.0030781836
107	0x3ccd1787	0.025035633
108	0x3d9e4602	0.07728197
109	0x3e3cc9f5	0.18436415
110	0x3da009ff	0.078144066
111	0xbd7498b6	-0.05971595
112	0xbdce762c	-0.10081133
113	0xbd3bc3e7	-0.045841124
114	0x3e5a4f43	0.21319298
115	0x3c42738b	0.011868368
116	0x3d8634c2	0.065530315
117	0xbad4e843	-0.0016243536
118	0x3e8420e5	0.25806347
119	0x3dea92ec	0.114538044
120	0xbe8ac759	-0.27105215
121	0x3dcc99e7	0.09990292
122	0xbe3242b1	-0.17408253
123	0xbdce74e4	-0.10080889
124	0x3d761906	0.060082458
125	0x3e23316c	0.15936822
126	0x3b5e380e	0.0033907923
127	0x3e84204f	0.258059

weight f4 [12, 128]
0	0x3c983aec	0.018582784
1	0x3d542655	0.05179437
2	0x3e7a943f	0.24470614
3	0xbcdeeb35	-0.027211765
4	0xbdd9b7a8	-0.10630733
5	0x3d3563f1	0.044284765
6	0x3de1f087	0.11032205
7	0xbdeea5ec	-0.11652741
8	0xbe516b60	-0.20451117
9	0x3cde891e	0.027164992
10	0x3d6cf1d3	0.05784781
11	0xbd0e0061	-0.03466833
12	0xbdbc5d72	-0.09197511
13	0x3e2c315b	0.16815703
14	0xbd46bf10	-0.048522055
15	0xbd887414	-0.06662765
16	0xbd298d07	-0.04139426
17	0x3dad234a	0.084539965
18	0xbd8f2c68	-0.06990892
19	0xbc5dfd6b	-0.013549189
20	0x3e4e3496	0.20137247
21	0xbd4ff599	-0.05077133
22	0x3c6c93ed	0.014439565
23	0x3e014fad	0.1262805
24	0xbd98e2c8	-0.0746513
25	0xbb88b50e	-0.004171974
26	0xbde397d0	-0.1111294
27	0x3d23194f	0.039819058
28	0x3df22dc3	0.118251346
29	0x3c62c62b	0.013841192
30	0xbd166b88	-0.036723644
31	0xbd0ba8ec	-0.034096643
32	0x3cebc52e	0.028780546
33	0x3dfaace9	0.12240011
34	0x3d2d59ce	0.042321973
35	0xbc4fe84b	-0.01268966
36	0x3d497a68	0.049189
37	0x3da14912	0.07875265
38	0x3c1e0866	0.009645557
39	0xbc79ab5c	-0.015238609
40	0xbe31fb31	-0.17380978
41	0xbe38034b	-0.17970006
42	0x3d8f14f5	0.06986419
43	0xbd840c9f	-0.0644772
44	0x3c5adf87	0.013358957
45	0x3c5e9172	0.013584482
46	0xbcab3e96	-0.020903867
47	0xbd87fd65	-0.06640128
48	0xba922ef2	-0.0011152907
49	0x3bbc0233	0.005737567
50	0x3e38899c	0.18021244
51	0x3c80f56c	0.015742026
52	0xbd197ed2	-0.03747446
53	0x3d215afa	0.039393403
54	0x3dc9c9ef	0.09852969
55	0x3d99ecda	0.07515879
56	0x3db3609b	0.087586604
57	0xbe346ce4	-0.17619663
58	0x3cfa7b64	0.030576415
59	0xbc775171	-0.015095101
60	0xbd12799f	-0.03576052
61	0xbc8d23a1	-0.017228903
62	0xbc95c62b	-0.01828297
63	0xbd930c03	-0.071800254
64	0x3d69d727	0.05708995
65	0x3dd8173f	0.10551309
66	0x3dc743a5	0.09729699
67	0xbcb8abb7	-0.022542818
68	0xbd4e48d3	-0.05036242
69	0x3dc56491	0.09638322
70	0x3cd747c5	0.02627934
71	0x3d64a87a	0.055824734
72	0x3cf3d2cc	0.029763602
73	0x3cd75132	0.026283834
74	0xbdb2d771	-0.087324984
75	0x3ac0daa3	0.0014713596
76	0x3b143f76	0.0022620833
77	0xbd14ce97	-0.036329832
78	0xbdb212c9	-0.08694989
79	0xbd8fa003	-0.07012942
80	0xbd270e77	-0.04078528
81	0x3d6e0660	0.05811155
82	0xbd3dabd3	-0.046306442
83	0x3e2ee551	0.17079665
84	0x3c575c95	0.013144632
85	0x3c41f869	0.011839011
86	0x3bd892c5	0.006609293
87	0xbcafbbe8	-0.021451905
88	0x3def6841	0.11689807
89	0x3d6519b1	0.055932704
90	0xbd099e4e	-0.033598237
91	0x3c9b6955	0.018971125
92	0xbe31b6b0	-0.17354846
93	0xbb915fb4	-0.0044364575
94	0x3d72ec05	0.059307117
95	0x3d9de427	0.07709532
96	0xbd125882	-0.03572894
97	0xbd29afd5	-0.041427452
98	0xbe25e862	-0.16201928
99	0xbd13e047	-0.03610256
100	0xbd89130e	-0.066930875
101	0x3e4d5e5f	0.20055531
102	0x3d864536	0.0655617
103	0x3d5cecba	0.053936698
104	0xbdb9904f	-0.09060728
105	0xbe176e99	-0.14788283
106	0xbd062a9e	-0.032755487
107	0xbc0c21fa	-0.0085530225
108	0x3df4b7c8	0.11949116
109	0x3d835bcc	0.06413993
110	0xbd2f0ee7	-0.04273882
111	0x3d7eaf3e	0.062178843
112	0xbdeda3f7	-0.116035394
113	0x3db1013b	0.08642813
114	0xbd3ee1da	-0.046602108
115	0x3d5bd496	0.053669535
116	0x3c6a6e48	0.01430852
117	0x3db06d32	0.08614577
118	0xbd9ddaec	-0.07707772
119	0xbd3a7f45	-0.04553153
120	0xbda0672c	-0.078321785
121	0x3d04d657	0.032430973
122	0x3c856a2d	0.01628598
123	0xbd748b9a	-0.059703447
124	0x3dfe931c	0.12430403
125	0x3cfd2018	0.030899093
126	0xbd970c39	-0.07375378
127	0xbd3fb347	-0.04680183
128	0xbd407de0	-0.046995044
129	0xbd82ea06	-0.06392293
130	0xbe0c1852	-0.13681152
131	0xbc6c1565	-0.014409398
132	0x3e445021	0.19171192
133	0x3d67d373	0.056598138
134	0x3c99628d	0.01872375
135	0xbd5f2d7d	-0.05448674
136	0xbe13bbdd	-0.14427133
137	0x3dcfbbdf	0.101432554
138	0xbe120225	-0.1425863
139	0x3ce7691c	0.028248362
140	0xbc79d945	-0.015249555
141	0x3c3813c4	0.011235181
142	0xbcb1ebc9	-0.021718876
143	0xbc57cc59	-0.013171279
144	0xbcf59afe	-0.029981133
145	0x3d810aeb	0.063009106
146	0xbcd3a92d	-0.025837505
147	0xbd63bf17	-0.05560216
148	0x3cb63918	0.022244021
149	0x3c16bf5c	0.009200897
150	0x3c57a3ee	0.0131616425
151	0xbd47d64d	-0.048788358
152	0x3d6c87d9	0.057746742
153	0x3d3e445a	0.046451904
154	0xbbe7f963	-0.0070792898
155	0x3cfbd2c5	0.030740151
156	0x3d99b7d0	0.075057626
157	0x3bd4fbab	0.0064997277
158	0x3a2d8859	0.00066197437
159	0xbb4eb932	-0.003154349
160	0x3c972ef0	0.018454999
161	0x3df695b8	0.12040275
162	0x3eab6774	0.33477366
163	0x3e0fba12	0.14035824
164	0x3ce5bf51	0.028045328
165	0xbcaf3251	-0.021386297
166	0x3d303e55	0.043028194
167	0x3def3d08	0.11681563
168	0xbd7ec91d	-0.062203515
169	0x3d59a311	0.053134028
170	0x3c975b4b	0.018476149
171	0xbdcc1f52	-0.099669114
172	0x3c81c8bd	0.01584279
173	0x3ddb9f0f	0.107236974
174	0x3bda0e19	0.0066545126
175	0xbcd997b1	-0.02656159
176	0x3cabe2dd	0.0209822
177	0xbd42640e	-0.0474587
178	0x3dbc9a5c	0.09209129
179	0xbc9ccff5	-0.01914213
180	0x3cc35899	0.023845958
181	0x3d5e56c2	0.054281957
182	0x3bc46054	0.0059929285
183	0x3dda9c6d	0.10674367
184	0xbcd858a1	-0.026409449
185	0xbd284c90	-0.04108864
186	0x3d3f0364	0.046634093
187	0xbd9922cd	-0.07477341
188	0x3e2f151a	0.17097893
189	0xbc9ea49e	-0.019365605
190	0x3bbf56c2	0.0058391998
191	0xbd363ed5	-0.044493515
192	0x3d03fcc6	0.032223485
193	0x3ccfc00b	0.025360128
194	0xbdbda6a0	-0.09260297
195	0xbd145d07	-0.03622153
196	0x3d146327	0.03622737
197	0x3df44849	0.1192785
198	0xbd8faf7a	-0.070158914
199	0x3d221cd3	0.03957827
200	0xbbf00c14	-0.0073256586
201	0x3d5cfe53	0.05395348
202	0x3cee8872	0.029117797
203	0xbd95a464	-0.07306746
204	0x3e806778	0.2507894
205	0xbd9170d9	-0.07101602
206	0xbd26ada3	-0.040692937
207	0xbd6081cc	-0.054811284
208	0xbdb3760a	-0.087627485
209	0x3ba88004	0.005142214
210	0xbda51b54	-0.08061853
211	0x3c902cd2	0.017599497
212	0x3d3bc954	0.0458463
213	0x3cc32561	0.023821535
214	0x3d3c41e2	0.04596127
215	0x3de58ee2	0.11208893
216	0x3ba431a1	0.005010799
217	0x3c588598	0.013215445
218	0xbc080bb3	-0.008303571
219	0xbe20ca2a	-0.1570212
220	0xbe29cc88	-0.16581929
221	0xbca3cfb1	-0.019996496
222	0x3d4bf93b	0.04979823
223	0x3babea8b	0.0052464656
224	0x3d3b2a98	0.045694917
225	0xbe1f36c6	-0.15548238
226	0xbc559e14	-0.013038177
227	0x3d44624e	0.047945313
228	0xbd0959fa	-0.033533074
229	0x3c2b04aa	0.010438124
230	0x3cbc0612	0.022952113
231	0x3d0851d1	0.03328115
232	0xbd9833c2	-0.07431747
233	0x3d13ca62	0.03608168
234	0xbd4d2559	-0.050084446
235	0x3c5a319f	0.013317495
236	0xbdb13690	-0.08652985
237	0xbdba3f27	-0.090940766
238	0x3d98f9fe	0.07469557
239	0xbd86be7b	-0.065793
240	0xbc8d0c30	-0.017217726
241	0x3dad7ea8	0.084714234
242	0x3d696618	0.05698213
243	0xbbe3b9fe	-0.006949662
244	0xbc469e06	-0.012122637
245	0x3d81ac65	0.0633171
246	0xbcb9cf15	-0.022681752
247	0xbcf864c6	-0.03032149
248	0xbe0f237e	-0.13978383
249	0xbc13cb94	-0.009020705
250	0x3d6567a3	0.05600704
251	0x3dd8ee73	0.105923556
252	0x3d094f2c	0.03352277
253	0x3b94134a	0.004518901
254	0xbe9db710	-0.30803728
255	0x3d61f1af	0.055162128

bias f4 [12]
0	0xbd40b096	-0.047043405
1	0x3d7d05aa	0.06177298
2	0x3d7b6eec	0.06138508
3	0xbe14c335	-0.1452759
4	0xbe1f0579	-0.15529431
5	0x3d4b079f	0.049567815
6	0xbdf1cb8a	-0.118064
7	0x3e9c41c9	0.3051894
8	0xbc93cc77	-0.018041832
9	0xbcdbcb6f	-0.026830403
10	0x3c84402a	0.016143877
11	0x3df917fb	0.12162777
