actor_model/actor_0.pt (torch, 81612 bytes, 6 tensors)

weight f4 [128, 1]
0	0x3e90506e	0.28186363
1	0x3e282254	0.16419345
2	0xbe3382e5	-0.17530401
3	0x3d8ed589	0.06974322
4	0x3e554365	0.2082649
5	0x3cb5a2cb	0.022172352
6	0x3d0a1a50	0.0337165
7	0x3c994fa8	0.01871474
8	0x3d2ff617	0.0429593
9	0xbacc719a	-0.0015597821
10	0xbe5d9414	-0.21638519
11	0xbe3ece73	-0.18633442
12	0xbe60bec9	-0.21947779
13	0x3d5b36cb	0.05351905
14	0x3d0314f5	0.032002408
15	0x3dc393ae	0.09549652
16	0x3c43f0b9	0.011959248
17	0xbe382c6f	-0.179857
18	0xba3c57a8	-0.00071846927
19	0x3d530e21	0.051527146
20	0xbd2020bb	-0.039093714
21	0x3b054d31	0.00203402
22	0x3c0a5f6a	0.0084456
23	0x3e670001	0.22558595
24	0xbd0687c5	-0.032844324
25	0xbdee6789	-0.116408415
26	0x3d05ebe5	0.03269567
27	0xbb50091a	-0.0031743706
28	0xbe1804a0	-0.14845514
29	0xbd682d5b	-0.05668388
30	0x3e082489	0.13295187
31	0x3e05a099	0.13049544
32	0x3e17182a	0.14755312
33	0xbda4ffbe	-0.080565915
34	0x3e43e874	0.19131643
35	0x3dbb3ba0	0.09142232
36	0xbd17dfa1	-0.037078504
37	0xbe135028	-0.14386046
38	0xbe6315ab	-0.22176234
39	0xbe0843b9	-0.13307084
40	0x3d594391	0.053042952
41	0x3e13b08d	0.14422818
42	0x3d32d668	0.043661505
43	0xbde50815	-0.11183182
44	0x3c0b23ee	0.008492453
45	0x3db48468	0.08814317
46	0xbd87d7c6	-0.066329524
47	0x3e841495	0.25796953
48	0x3d84d1e9	0.0648535
49	0xbd51cb2c	-0.05121915
50	0x3d106879	0.035255883
51	0x3bf8f5b7	0.007597651
52	0x3e3df2bd	0.18549629
53	0xbe0d0991	-0.1377318
54	0xbe16c137	-0.14722143
55	0xbd007ea5	-0.031370778
56	0x3cfa0510	0.030519992
57	0x3e483700	0.19552231
58	0xbe7957a1	-0.24349834
59	0x3e5931d8	0.2121042
60	0x3cc18233	0.023621654
61	0x3e418d65	0.18901594
62	0x3cd61686	0.026133787
63	0x3cdda687	0.027056945
64	0xbdfacbcc	-0.122459024
65	0x3dbbc4fc	0.09168431
66	0x3d194343	0.03741766
67	0x3ad1820f	0.0015984195
68	0xbdf6f323	-0.120580934
69	0x3d9c2086	0.07623391
70	0xbe53450e	-0.20631811
71	0xbe895eb7	-0.26830074
72	0xbb37fdc2	-0.0028074835
73	0xbe643043	-0.22284035
74	0x3e1e99bd	0.15488334
75	0x3dc35536	0.09537737
76	0xbe0083d3	-0.12550287
77	0x3e42d2e7	0.19025765
78	0xbcb4764c	-0.022029065
79	0x3dee4187	0.11633592
80	0x3e0f1472	0.13972643
81	0xbdbb2eef	-0.09139811
82	0xbd945424	-0.07242611
83	0xbc241144	-0.010013882
84	0xbcd8c32c	-0.026460253
85	0xbe7db826	-0.24777278
86	0xbe1c7ccd	-0.15281983
87	0x3c9c269a	0.019061375
88	0x3cf26a45	0.029591689
89	0xbd8b315d	-0.06796525
90	0xbd2d2833	-0.042274665
91	0x3dcad150	0.099032044
92	0xbdba5e73	-0.09100046
93	0x3e3b7e1d	0.18309827
94	0xbde91cf6	-0.11382477
95	0xbe1c3f70	-0.15258574
96	0xbcefa321	-0.02925259
97	0xbe644412	-0.22291592
98	0xbc9e5061	-0.019325437
99	0xbdd432fa	-0.103612855
100	0x3e3f8c0c	0.18705767
101	0x3e1184a9	0.14210762
102	0xbd99df3f	-0.07513284
103	0xbda9c14c	-0.082888216
104	0x3dd6dd87	0.10491472
105	0x3dd7635b	0.105169974
106	0xbcc77edd	-0.024352485
107	0x3dad6199	0.08465881
108	0x3d4bc495	0.049748022
109	0xbbc85116	-0.006113182
110	0x3d30cf1f	0.043166276
111	0xbdbdfdbd	-0.09276912
112	0x3d517607	0.05113795
113	0xbeaad6c7	-0.33366987
114	0xbdade110	-0.08490193
115	0xbc02b6b2	-0.007978128
116	0xbdef9920	-0.11699128
117	0x3b86038e	0.004089779
118	0xbd6be7e4	-0.057594195
119	0xbda52672	-0.080639735
120	0xbe4dcd26	-0.20097789
121	0xbcf4e490	-0.029894143
122	0xbdb9399c	-0.09044191
123	0x3e488113	0.19580488
124	0x3dbee4c9	0.09320981
125	0x3e158ccd	0.14604492
126	0x3d23876e	0.039924078
127	0x3d20d258	0.0392631

bias f4 [128]
0	0x3e9da190	0.30787325
1	0xbf329be0	-0.69769096
2	0xbdc44770	-0.09583938
3	0x3e026d30	0.12736964
4	0x3eba29b4	0.36359942
5	0xbeca51e8	-0.39515615
6	0x3f2ce7f6	0.67541444
7	0xbeaaed48	-0.33384156
8	0x3f6e0c4c	0.92987514
9	0xbce3ec00	-0.027822495
10	0x3e994d7c	0.29941928
11	0xbdf9fe50	-0.122067094
12	0xbf19b19c	-0.60036635
13	0x3f242d3c	0.6413152
14	0xbf05e424	-0.5230124
15	0x3f29623a	0.66165507
16	0xbf7afc3e	-0.9804114
17	0x3f213278	0.62967634
18	0x3ed2a1a8	0.4113896
19	0x3e6474c8	0.22310174
20	0x3ea0b07c	0.31384647
21	0x3eabff30	0.3359313
22	0x3f4818ba	0.7816273
23	0xbed8586c	-0.4225496
24	0x3f4b7b14	0.7948468
25	0xbf43e09c	-0.765146
26	0x3f7439ec	0.9540088
27	0xbf7a8fa6	-0.9787544
28	0x3f754b98	0.9581847
29	0xbb413600	-0.002948165
30	0xbf66913c	-0.9006536
31	0x3ca4b040	0.020103574
32	0x3f20167e	0.6253432
33	0xbf75b68a	-0.9598166
34	0xbee78108	-0.4521563
35	0x3eb38704	0.35063946
36	0x3e8f503c	0.279909
37	0xbf3266f2	-0.6968833
38	0x3e902d04	0.28159344
39	0xbf3f9ee2	-0.7485181
40	0x3e350318	0.17676961
41	0x3ece1dac	0.40257013
42	0x3dc315b0	0.09525621
43	0xbf0adc06	-0.5424198
44	0xbf749842	-0.95544827
45	0x3e2300c8	0.15918267
46	0xbc430280	-0.0119024515
47	0xbe2e7220	-0.17035723
48	0x3ec4c8c8	0.38434434
49	0x3e1b9260	0.15192556
50	0xbef64af0	-0.48104048
51	0x3eb4a8c0	0.35284996
52	0x3ecb0128	0.3964932
53	0x3da16270	0.078801036
54	0x3e173730	0.14767146
55	0x3f3e2d82	0.7428819
56	0x3f39b186	0.72536504
57	0xbef84dc4	-0.4849683
58	0x3eb75068	0.35803533
59	0x3e6f0a50	0.23343778
60	0xbf7dd39e	-0.9915103
61	0xbf06d4b8	-0.52668333
62	0xbf27f488	-0.656075
63	0x3dcddbb0	0.10051668
64	0x3e2b5128	0.16730177
65	0xbed76b70	-0.42074156
66	0xbee20384	-0.44143307
67	0xbf1102be	-0.5664481
68	0x3ee486e8	0.44634175
69	0x3d996740	0.074903965
70	0xbed6845c	-0.41897857
71	0x3f313468	0.6922059
72	0x3efb61e8	0.49098134
73	0xbed48a00	-0.41511536
74	0x3f3fc440	0.7490883
75	0xbee62910	-0.44953203
76	0xbe7b2118	-0.24524343
77	0xbde0d260	-0.10977626
78	0x3f1c6dac	0.61104846
79	0xbeeae574	-0.45878184
80	0x3f6ec99c	0.9327638
81	0xbcc93240	-0.024560094
82	0x3ef1dda0	0.472394
83	0xbeff76c8	-0.4989531
84	0x3ed989d0	0.42487955
85	0xbf3c3134	-0.7351258
86	0x3e8d6980	0.27619553
87	0x3f5f803a	0.87305033
88	0x3f258b7a	0.6466595
89	0xbf4813bc	-0.7815511
90	0xbf100aa6	-0.5626625
91	0x3eec0608	0.4609835
92	0x3f665c14	0.8998425
93	0x3f3b489c	0.7315767
94	0x3e8599b8	0.2609384
95	0xbf6da8e0	-0.9283581
96	0xbeac4e38	-0.33653426
97	0x3f3579f2	0.708892
98	0x3f4fcc92	0.81171525
99	0xbf29118c	-0.660424
100	0x3d5ebf80	0.054381847
101	0xbefcf720	-0.4940729
102	0xbf0eb09e	-0.55738246
103	0xbf3beaa0	-0.73404884
104	0x3f75c14a	0.9599806
105	0x3f632d22	0.8874074
106	0xbe862680	-0.26201248
107	0xbed8c08c	-0.42334402
108	0xbf673be4	-0.9032576
109	0x3f6dea4a	0.9293562
110	0x3f44f32a	0.7693354
111	0xbf1e323c	-0.617954
112	0x3ee705a0	0.4512148
113	0x3df50d60	0.11965442
114	0x3f71f60e	0.94516075
115	0x3e939bb0	0.28829718
116	0x3e6c87f8	0.23098743
117	0xbed7b324	-0.4212886
118	0x3d85c850	0.06532347
119	0x3f4d4da6	0.8019661
120	0xbd750240	-0.0598166
121	0x3f3490ae	0.70533264
122	0x3e632e90	0.22185731
123	0x3f59c4de	0.8506602
124	0xbc939680	-0.0180161
125	0x3f465f68	0.7748933
126	0xbebffb30	-0.37496328
127	0xbe361178	-0.17780101

weight f4 [128, 128]
0	0x3e029216	0.1275104
1	0xbda2ff23	-0.0795882
2	0x3e115232	0.14191511
3	0x3e061b18	0.13096273
4	0xbd8ca6a8	-0.06867725
5	0x3e8d9d7e	0.2765922
6	0x3e6ebd3e	0.23314378
7	0xbdacb1f0	-0.084323764
8	0x3e3133a9	0.17304863
9	0xbd3d3b4b	-0.046199124
10	0x3cfdbafe	0.030972954
11	0xbb13b921	-0.0022540765
12	0xbe02db29	-0.12778915
13	0xbd328a8b	-0.043589156
14	0xbd15b61c	-0.036550626
15	0xbd18a1ba	-0.03726361
16	0xbe7aef4f	-0.24505351
17	0xbccb9c6e	-0.024854865
18	0xbde764d5	-0.11298529
19	0x3df5f910	0.120103955
20	0x3d3d68f8	0.046242684
21	0x3d029aba	0.03188584
22	0x3d388b73	0.045054864
23	0xbe46fc01	-0.1943207
24	0xbca6d1c8	-0.020363703
25	0x3d6cc00e	0.057800345
26	0x3e64f54d	0.223592
27	0x3e6e1739	0.23251046
28	0x3de22f95	0.11044232
29	0xbd6e1703	-0.058127414
30	0xbe1e960a	-0.15486923
31	0xbe4ede6b	-0.20202033
32	0xbdcf1d15	-0.10112969
33	0x3d544d26	0.051831387
34	0x3d485b8c	0.04891543
35	0x3e3bb6f8	0.18331516
36	0xbe0ff3e8	-0.14057887
37	0x3c947b90	0.018125325
38	0x3e0f4ec2	0.13994887
39	0x3e2be731	0.16787411
40	0xbc8945f2	-0.016756985
41	0xbd98ed21	-0.07467104
42	0x3c120b30	0.0089138
43	0xbb33eaa3	-0.0027453087
44	0x3e1fd9db	0.15610449
45	0x3ddf45ea	0.10902007
46	0xbd6e4fb7	-0.05818149
47	0x3c2da6eb	0.010598878
48	0xbe0b2ffd	-0.13592525
49	0x3e3a6a32	0.18204573
50	0x3e284552	0.16432694
51	0x3beb656e	0.007183722
52	0xbd3954f4	-0.045247033
53	0xbe5237cc	-0.20529097
54	0x3e3f7d6d	0.1870019
55	0x3d297906	0.041375183
56	0xbde11bca	-0.109916285
57	0x3e312f49	0.17303194
58	0xbe4f985e	-0.20272967
59	0x3e070a0f	0.13187431
60	0x3e41e110	0.18933511
61	0xbe00c686	-0.1257573
62	0x3d0bcf26	0.0341331
63	0x3d1c9686	0.038229488
64	0x3dfb5c8b	0.122735105
65	0xbe54b420	-0.20771837
66	0xbd7c5286	-0.061602138
67	0xbdb20dee	-0.08694063
68	0x3d17e9e1	0.03708828
69	0x3da87700	0.082258224
70	0x3d558ec1	0.052138094
71	0xbccfe1d4	-0.025376238
72	0xbd5031a9	-0.05082861
73	0x3e19df3a	0.1502656
74	0x3d51281d	0.051063646
75	0x3d28ee09	0.041242633
76	0xbe473ed4	-0.19457561
77	0xbe0bb688	-0.13643849
78	0xbd524c22	-0.051342137
79	0x3d60090d	0.05469613
80	0x3e0d7737	0.13815008
81	0xbd270a01	-0.040781025
82	0xbbc6e449	-0.006069694
83	0xbe15a8d7	-0.14615189
84	0x3d398d09	0.045300517
85	0x3e0ff0dd	0.14056726
86	0x3e3391c3	0.17536072
87	0xbd70939c	-0.05873452
88	0xbd701a51	-0.058618847
89	0x3dc5375e	0.09629701
90	0xbe467d4a	-0.19383731
91	0xbdbd6ee3	-0.092496656
92	0xbdc42593	-0.09577479
93	0xbd9cd1cd	-0.07657204
94	0x3e8b622c	0.27223337
95	0xbe5f1809	-0.21786512
96	0xbd322a2d	-0.043497253
97	0xbdd7eefd	-0.1054363
98	0xbd141cc0	-0.03616023
99	0xbd396fe9	-0.04527274
100	0xbc7a2654	-0.015267927
101	0x3eb93dc9	0.3617995
102	0xbcf9a23e	-0.03047287
103	0x3ba6c231	0.0050890674
104	0xbc891b3c	-0.01673662
105	0xbdbe3180	-0.09286785
106	0xbe5d7498	-0.21626508
107	0x3e436c32	0.19084242
108	0x3e19ffdf	0.15039013
109	0x3d567dcf	0.052366074
110	0xbdcc39b5	-0.09971944
111	0xbdf1fb5f	-0.11815523
112	0x3d34e6c5	0.04416539
113	0x3dafa0ce	0.08575593
114	0x3d9b6c53	0.075890206
115	0x3ce5c12f	0.028046219
116	0xbdc3c3c9	-0.095588274
117	0xbc8b316e	-0.016991343
118	0xbd23915f	-0.03993356
119	0xbcb9ea62	-0.02269477
120	0x3d365594	0.044515207
121	0xbe48c035	-0.19604571
122	0xbe052c09	-0.1300508
123	0xbe042c98	-0.12907636
124	0xbe340464	-0.175798
125	0xbda9076f	-0.08253371
126	0xbd24b27b	-0.040209275
127	0xbe66ee94	-0.22551948
128	0xbe567821	-0.20944263
129	0x3d988084	0.074463874
130	0x3db1e8eb	0.08687004
131	0xbb100a1e	-0.0021978687
132	0xbdee76da	-0.11643763
133	0x3dafdf00	0.08587456
134	0xbdafc5a5	-0.085826196
135	0x3cdba9ca	0.02681436
136	0xbe5414f9	-0.20711125
137	0xbe9127d6	-0.28350705
138	0x3e7106bd	0.23537727
139	0x3e91fdc6	0.28513926
140	0x3d004312	0.031313963
141	0x3e1d8e4e	0.15386316
142	0x3dceeadb	0.10103389
143	0xbd94bbbe	-0.072623715
144	0x3d849b0d	0.06474886
145	0x3c90ce52	0.017676506
146	0xbe0c1cd6	-0.13682875
147	0xbd6fd5d9	-0.05855355
148	0xbc3c46b2	-0.011491464
149	0xbd384cdf	-0.044995185
150	0xbd83a2a4	-0.064275056
151	0xbca3375c	-0.019923858
152	0xbdeb075e	-0.114760146
153	0x3d6825fe	0.056676857
154	0xbc14015b	-0.009033526
155	0xbe249b36	-0.16074833
156	0x3db157d6	0.086593315
157	0x3e136821	0.14395191
158	0x3da75dbb	0.081721745
159	0x3e67e6cc	0.22646636
160	0xbe4348fd	-0.19070812
161	0xbc8dbb98	-0.017301366
162	0x3ca0b76c	0.019618712
163	0x3c8be394	0.017076291
164	0xbdfe99b7	-0.124316625
165	0x3b7ca392	0.0038549644
166	0xbe82af53	-0.25524387
167	0x3dcfb129	0.101412125
168	0x3ddaecc1	0.106896885
169	0x3d007819	0.031364534
170	0xbd73826c	-0.059450552
171	0x3e01fcb6	0.12694058
172	0x3e09df9b	0.13464205
173	0x3e295573	0.16536503
174	0x3d165ae5	0.036707778
175	0xbdc200b6	-0.09472792
176	0xbdd5e032	-0.104431525
177	0x3daaf091	0.08346666
178	0x3dc61c7d	0.096734025
179	0xbc0c89d2	-0.008577781
180	0x3e7982fa	0.2436637
181	0x3d70a489	0.058750663
182	0x3e03523e	0.12824342
183	0xbd537236	-0.051622592
184	0xbdf6fc40	-0.120598316
185	0x3d56e15b	0.05246101
186	0xbe342c21	-0.17594959
187	0xbdb43fee	-0.08801256
188	0xbc6f8d15	-0.014621039
189	0xbd9b8775	-0.07594196
190	0xbe4efa50	-0.20212674
191	0xbd3e9d2f	-0.04653662
192	0x3cad5ccc	0.021162413
193	0xbdc07116	-0.093965694
194	0xbca5d53a	-0.020243276
195	0xbd86edab	-0.065883
196	0xbdd4dad7	-0.10393303
197	0xbd9a4924	-0.07533482
198	0xbe988c57	-0.2979457
199	0xbd931317	-0.071813755
200	0xbd959d05	-0.0730534
201	0x3e29bab7	0.16575132
202	0x3dbf5f8d	0.09344397
203	0xbe149cd6	-0.14512953
204	0x3c59a913	0.013284939
205	0x3dd398b8	0.10331863
206	0x3e08964d	0.13338585
207	0xbe4f23cf	-0.20228504
208	0xbd523700	-0.051321983
209	0xbd2c6b46	-0.04209449
210	0x3e7ea2c7	0.24866782
211	0xbe16fc57	-0.14744698
212	0xbe735351	-0.23762251
213	0xbda42762	-0.08015324
214	0xbd57977c	-0.0526347
215	0x3de83383	0.1133795
216	0xbcd2f604	-0.025752075
217	0xbd01fb27	-0.03173366
218	0x3e0ee47a	0.13954344
219	0xbc3977c4	-0.011320058
220	0xbe2794d6	-0.1636537
221	0xbdc950dc	-0.09829876
222	0x3e75f46c	0.24019021
223	0xbd67f04d	-0.056625653
224	0xbe55eab1	-0.20890309
225	0x3b92ec61	0.004483745
226	0xbe1c30f4	-0.15253049
227	0x3dd660f4	0.10467711
228	0x3e9f4032	0.31103665
229	0xbb8bf399	-0.0042709825
230	0x3c8f725b	0.017510584
231	0xbd3e107b	-0.046402436
232	0x3dd28700	0.102796555
233	0x3dece5a0	0.11567235
234	0x3d68e0c9	0.056854997
235	0x3d7d0966	0.06177654
236	0xbd3b6654	-0.045751885
237	0xbce7f6f7	-0.028316004
238	0x3d1cec89	0.038311515
239	0x3e59051d	0.21193357
240	0xbd29d359	-0.041461322
241	0xbdc94b31	-0.09828795
242	0x3ddd661f	0.10810494
243	0x3d616f3a	0.055037715
244	0x3d1f17fd	0.038841236
245	0xbd8cdecf	-0.06878435
246	0x3d2f97b7	0.042869296
247	0x3d44e8d9	0.048073623
248	0xbe6969ad	-0.22794218
249	0xbd7b1706	-0.061301254
250	0x3d5c3a3a	0.053766467
251	0x3c023d99	0.007949256
252	0xbd4eb26c	-0.050463125
253	0xbe8871cf	-0.2664933
254	0xbe461309	-0.19343199
255	0x3e038ec4	0.1284743

bias f4 [128]
0	0xbbebe8c0	-0.007199377
1	0xbc4d82b0	-0.012543365
2	0x3c9cad38	0.019125566
3	0xbd9ae251	-0.07562698
4	0x3cc0ec01	0.023550035
5	0x3d61e945	0.055154104
6	0x3cf8c75c	0.0303685
7	0x3b18bce2	0.0023305942
8	0xbd8d4b4a	-0.06899126
9	0xbd53f593	-0.05174787
10	0xbd685318	-0.05671987
11	0x3d131a76	0.035913907
12	0xbd90269d	-0.07038615
13	0x3cbd8687	0.023135437
14	0x3da1ac09	0.07894141
15	0xbda0f1d7	-0.07858627
16	0xbd8c6745	-0.068556346
17	0xbd287f50	-0.04113704
18	0xbd80e283	-0.06293204
19	0xbc8b9084	-0.017036684
20	0x3c2807d3	0.010255772
21	0xbd2857ce	-0.041099362
22	0x3d9ac84f	0.07557737
23	0xbcd1e6a2	-0.02562267
24	0xbcc05712	-0.023479018
25	0xbca086a3	-0.01959545
26	0x3ba4f84e	0.005034483
27	0x3cd2189e	0.025646504
28	0x3c2f17da	0.010686839
29	0xbb094a63	-0.002094888
30	0x3ce1910f	0.02753499
31	0xbd8a9d4d	-0.06768284
32	0xbd8529c6	-0.06502108
33	0x3d804010	0.06262219
34	0xbdae085a	-0.08497687
35	0xbd4dbb9f	-0.050227758
36	0xbc074222	-0.008255513
37	0xbc8d4dc5	-0.017248997
38	0xbd00d863	-0.031456362
39	0x3d012a36	0.031534396
40	0xbd21222e	-0.039339237
41	0x3d9ef43b	0.07761427
42	0x3d20c7f2	0.039253183
43	0xbd2dc852	-0.04242737
44	0xbd2f5fe6	-0.042816065
45	0xbb809d8b	-0.0039250306
46	0xbd1272ae	-0.0357539
47	0xbd02b149	-0.031907354
48	0x3d1c002a	0.038086094
49	0xbd8199ee	-0.06328188
50	0x3ac54bee	0.0015052536
51	0x3db01a6f	0.08598792
52	0x3d8c056f	0.06836974
53	0x3ce83814	0.028347053
54	0x3d5c9712	0.05385501
55	0x3d54121f	0.051775094
56	0xbcf0e5be	-0.029406425
57	0x3d87e4b1	0.06635416
58	0xbb6ad035	-0.0035829667
59	0x3da6dd9a	0.08147736
60	0x3d23ad01	0.03995991
61	0xbc1cade1	-0.00956294
62	0x3d495133	0.049149703
63	0x3d1d0c77	0.038341966
64	0xbd22e72b	-0.03977124
65	0x3d2658c9	0.040612016
66	0x3d4c32ec	0.04985325
67	0x3c57c55e	0.013169615
68	0x3d720f83	0.059096824
69	0x3cc98d13	0.024603402
70	0xbd26c020	-0.04071057
71	0xbdae36d5	-0.08506552
72	0x3d8c46d1	0.06849445
73	0x3d6c4d0a	0.057690658
74	0x3cf7a0b2	0.030227993
75	0xbba6dda5	-0.00509234
76	0x3d7d33d9	0.061817024
77	0x3d9e194b	0.07719668
78	0xbd5a8288	-0.05334714
79	0xbd9833f1	-0.07431782
80	0x3a383cbb	0.00070280925
81	0xbd10df8d	-0.035369445
82	0xbd922f2e	-0.07137905
83	0xbdae3767	-0.08506661
84	0xbbc5f5d0	-0.006041266
85	0x3d0ecc70	0.034862936
86	0x3c8c74ab	0.017145475
87	0x3ca4cd54	0.02011744
88	0xbda91b04	-0.08257106
89	0xbd8122de	-0.063054785
90	0xbd5a6275	-0.053316552
91	0x3dad2a37	0.084553175
92	0xbc8414a7	-0.016123129
93	0xbb8ff366	-0.004393029
94	0xbd1b3780	-0.037894726
95	0xbc575879	-0.013143652
96	0xbd859728	-0.065229714
97	0xbd098777	-0.033576455
98	0xbd889ad7	-0.06670158
99	0xbcde5deb	-0.027144393
100	0xbcb13bb4	-0.021634914
101	0x3c54532a	0.012959281
102	0x3db48a35	0.088154234
103	0x3c81fb19	0.015866803
104	0x3d2f8ccd	0.042858887
105	0x3daa4dab	0.08315595
106	0xbc9d23d0	-0.019182116
107	0x3cdb4f9d	0.026771361
108	0xbd2d30cf	-0.042282876
109	0xbd2c474f	-0.042060193
110	0x3d876f04	0.066129714
111	0xbd1df4aa	-0.038563408
112	0xbd891dd2	-0.06695141
113	0xbd23c673	-0.039984178
114	0xbd467684	-0.04845287
115	0x3d0bac64	0.03409995
116	0xbd93397f	-0.07188701
117	0x3ce9794e	0.028500225
118	0xbc1772f9	-0.00924372
119	0xbdb1eafb	-0.08687397
120	0xbd8ecd4f	-0.06972753
121	0xbd2ef348	-0.04271248
122	0xbd108f70	-0.035293043
123	0x3d903c49	0.070427485
124	0x3d26175e	0.04054963
125	0x3d9d9ab3	0.07695522
126	0xbcfeb3b5	-0.03109155
127	0xbd48bd37	-0.049008574

weight f4 [12, 128]
0	0x3bb130e6	0.0054074405
1	0x3e101851	0.14071776
2	0x3da8cd20	0.082422495
3	0x3b58d54e	0.0033086124
4	0x3dbfef5e	0.093718275
5	0x3dc2c671	0.09510506
6	0xbe00e09b	-0.1258568
7	0x3db4fe7b	0.08837601
8	0x3d14459b	0.036199193
9	0x3df185fe	0.11793135
10	0x3df42a55	0.11922137
11	0x3cb1f1a9	0.021721678
12	0x3e0cf1a9	0.13764061
13	0xbe3ee45d	-0.18641801
14	0x3da8495e	0.08217119
15	0x3e10ca13	0.14139585
16	0x3d451396	0.04811438
17	0x3d441925	0.047875542
18	0x3cec60ed	0.028854812
19	0xbb36aca5	-0.00278739
20	0x3ead197b	0.33808503
21	0xbdbe3959	-0.09288282
22	0xbd97380f	-0.07383739
23	0x3de4a8bb	0.11164995
24	0x3df59a44	0.119923145
25	0xbe42df5e	-0.1903052
26	0x3ca3241b	0.019914677
27	0xbb0e5694	-0.0021719085
28	0xbe8aee9f	-0.27135178
29	0x3cee422b	0.029084286
30	0x3c0bcc3f	0.008532583
31	0xbeacc160	-0.33741283
32	0x3d4306fa	0.047614075
33	0xbeba8442	-0.3642903
34	0x3eab9578	0.33512473
35	0xbbef58bf	-0.0073042805
36	0x3de8da28	0.11369735
37	0xbe8bc095	-0.27295366
38	0xbdea3a46	-0.11436896
39	0x3e08dcb1	0.13365437
40	0xbdd81caf	-0.10552346
41	0xbdc02afe	-0.093832
42	0x3e175ec0	0.14782238
43	0xbd57a453	-0.052646946
44	0x3c51b719	0.012800002
45	0x3e3686e1	0.1782489
46	0xbabab60e	-0.001424493
47	0xbc9c59d4	-0.019085802
48	0x3dd1a252	0.10236038
49	0x3da66101	0.08123971
50	0x3e097b31	0.134259
51	0x3e202dd1	0.15642478
52	0xbd528189	-0.051393066
53	0x3d8db957	0.069201164
54	0xbd03690f	-0.032082614
55	0xbdc7b22a	-0.09750779
56	0xbdbeebf2	-0.09322347
57	0x3dceff87	0.10107332
58	0xbda07900	-0.07835579
59	0xbdf08855	-0.11744753
60	0x3d010f62	0.03150881
61	0xbe07a5c9	-0.13246836
62	0xbcac0126	-0.020996641
63	0x3d4b4f50	0.049636185
64	0x3db33538	0.08750385
65	0xbcc2ff26	-0.023803305
66	0x3da2dc48	0.079521716
67	0x3b654eae	0.0034989524
68	0xbd180883	-0.037117492
69	0xbbb70e5d	-0.005586429
70	0xbde12d32	-0.109949484
71	0x3e1fe93e	0.15616319
72	0xbdd2ada5	-0.10287026
73	0x3d44c9de	0.048044078
74	0x3d009edd	0.031401504
75	0x3dc5ddda	0.096614555
76	0x3dd97fb7	0.10620063
77	0x3c93d365	0.018045137
78	0x3dbf04b5	0.0932707
79	0x3e767f65	0.24072035
80	0x38967615	7.174552e-05
81	0x3e0949b8	0.13407028
82	0x3e443f19	0.19164695
83	0x3b71b1b0	0.0036879592
84	0x3dfd3214	0.12363067
85	0x3e7557dc	0.23959297
86	0x3d52bc18	0.05144891
87	0x3e2e00d9	0.16992511
88	0xbdffedc3	-0.12496521
89	0xbe2ffb27	-0.17185651
90	0x3d900284	0.0703173
91	0xbdfb002e	-0.12255894
92	0xbc93499b	-0.017979434
93	0x3d7db57e	0.061940663
94	0xbe020487	-0.1269704
95	0xbcd8f3e2	-0.02648348
96	0x3dbbefdb	0.09176608
97	0x3e02dca4	0.1277948
98	0xbe4df006	-0.20111093
99	0xbdff175b	-0.124556266
100	0x3e950dae	0.29112
101	0xbd83a9f1	-0.06428898
102	0xbe8bd7e7	-0.27313158
103	0x3c605be3	0.0136937825
104	0xbc4d8d46	-0.012545889
105	0xbc1577db	-0.009122814
106	0x3db67cfe	0.08910559
107	0xbd31ff3a	-0.043456294
108	0xbd0fbafd	-0.035090435
109	0x3ccec868	0.025242046
110	0x3d8760bd	0.06610248
111	0x3c89b9e7	0.016812278
112	0xbdb3ddbc	-0.08782527
113	0x3df49d78	0.11944097
114	0xbc7c4bae	-0.015398903
115	0xbe0ffcaa	-0.14061227
116	0xbc5dde1d	-0.013541725
117	0xbdf3b473	-0.11899652
118	0x3cdd15be	0.026987907
119	0xbe2ae2e1	-0.1668811
120	0x3c1fb24c	0.009747099
121	0xbe6021a0	-0.21887827
122	0xbd464362	-0.048404105
123	0xbde1b610	-0.11021054
124	0xbd7ed0d5	-0.062210876
125	0x3e1d4e4d	0.153619
126	0xbb2a356d	-0.0025971786
127	0xbe133576	-0.14375862
128	0x3e86fe59	0.26365927
129	0x3c9de1a9	0.019272642
130	0xbd2a6ac8	-0.04160574
131	0x3e3c04f9	0.18361272
132	0xbd7aa337	-0.06119081
133	0x3de89869	0.11357195
134	0x3d2d9b78	0.042384595
135	0x3d858043	0.065186046
136	0xbd65d091	-0.056107108
137	0xbdb640d9	-0.088990875
138	0x3ebd6cbb	0.36997017
139	0xbe7645f7	-0.24050127
140	0xbe5e1ada	-0.2168993
141	0x3d873467	0.06601792
142	0x3e363c35	0.17796405
143	0xbe56bd59	-0.20970668
144	0xbdcda5f7	-0.10041421
145	0xbde96ad5	-0.1139733
146	0x3d5669f8	0.052347153
147	0xbd545655	-0.051840145
148	0xbac9f1a3	-0.0015407096
149	0xbd43c391	-0.04779393
150	0x3d394129	0.045228157
151	0xbd8e7be9	-0.06957228
152	0xbd99184a	-0.07475336
153	0xbc6b1c90	-0.014350072
154	0x3d9610b1	0.073274024
155	0x3cbc2167	0.022965146
156	0xbe3412df	-0.17585324
157	0x3d416a16	0.047220312
158	0x3dda63a7	0.106635384
159	0x3d580037	0.05273458
160	0x3e2b1651	0.16707732
161	0xbe46f003	-0.19427495
162	0x3de8100d	0.113311864
163	0x3c2e3078	0.010631673
164	0x3e132d49	0.14372744
165	0xbe1f5be8	-0.15562403
166	0x3d3b824c	0.045778558
167	0x3dd8737c	0.10568902
168	0x3db92301	0.090398796
169	0x3e0f0031	0.13964917
170	0xbe431dd7	-0.19054352
171	0xbe339304	-0.17536551
172	0xbd981628	-0.07426101
173	0x3d70d600	0.058797836
174	0xbd9a4c7d	-0.0753412
175	0xbe2cc6ad	-0.16872664
176	0x3d88abfc	0.066734284
177	0xbe87dd08	-0.2653582
178	0xbe3b0582	-0.1826382
179	0x3da6231e	0.08112167
180	0x3dc54b5e	0.09633516
181	0x3d77c125	0.06048693
182	0xbbe37757	-0.0069417167
183	0xbe968c11	-0.29403737
184	0xbd9d61dc	-0.07684681
185	0xbe45db17	-0.19321857
186	0xbe395e59	-0.18102397
187	0x3ad3291f	0.0016110278
188	0xbe01c1dd	-0.12671609
189	0x3cbf16d1	0.02332631
190	0x3db6cc15	0.08925644
191	0x3d7e26d8	0.062048763
192	0xbe6d04b9	-0.23146333
193	0xbd97292c	-0.073809
194	0xbceba9a2	-0.02876741
195	0x3e2185e9	0.15773739
196	0x3db29b65	0.087210454
197	0x3d86d9e8	0.06584531
198	0x3cd7762e	0.02630147
199	0xbc3caec6	-0.011516279
200	0xbe28b1f3	-0.16474132
201	0x3d030396	0.03198584
202	0xbe301d43	-0.17198662
203	0x3e268798	0.16262662
204	0x3d1fe17f	0.03903341
205	0x3d974496	0.073861286
206	0x3def99af	0.11699235
207	0x3d9a68cb	0.07539519
208	0x3e379b5b	0.17930357
209	0xbd19f45f	-0.037586566
210	0xbc892cc7	-0.016744984
211	0xbd655e14	-0.055997923
212	0xbb5c6e20	-0.0033634976
213	0xbd710dd4	-0.05885108
214	0xbd25fd7e	-0.040524952
215	0xbc80e905	-0.015736112
216	0x3ad0c45e	0.0015927663
217	0x3df330c6	0.11874537
218	0xbc6a9682	-0.01431811
219	0xbd32136b	-0.04347555
220	0x3d83c8c5	0.06434778
221	0x3cf23d11	0.029570134
222	0x3e6eb96a	0.23312917
223	0xbe0411ea	-0.12897459
224	0x3d05d0ce	0.032669835
225	0xbe049694	-0.12948066
226	0x3e433bd2	0.19065788
227	0xbe326af4	-0.17423612
228	0xbe495ee4	-0.19665104
229	0x3e8cac7a	0.2747534
230	0xbc70c8b2	-0.014696287
231	0xbddaa4d6	-0.10675971
232	0x3e3692dd	0.17829461
233	0x3dcfe72d	0.10151515
234	0xbcecaa35	-0.028889755
235	0x3981e341	0.00024774115
236	0xbc9a549e	-0.018839177
237	0x3bb02201	0.0053751473
238	0x3dab8108	0.0837422
239	0xbdf94549	-0.12171418
240	0xbdb59192	-0.08865656
241	0xbdaee05d	-0.08538888
242	0x3e56f30f	0.20991157
243	0xbe30d7a3	-0.17269759
244	0x3dcc59bf	0.09978055
245	0xbd83b855	-0.06431643
246	0xbd09311b	-0.033494096
247	0xbddbc066	-0.107300565
248	0xbd536821	-0.051612977
249	0x3e800193	0.250012
250	0x3c80c2d0	0.015717894
251	0xbe3ef9c1	-0.18649961
252	0x3dd4e078	0.103943765
253	0xbd178b63	-0.036998164
254	0xbd45df3c	-0.048308596
255	0xbcd5ea60	-0.026112735

bias f4 [12]
0	0xbb52fb77	-0.0032193342
1	0x3d56a005	0.0523987
2	0x3db21c62	0.0869682
3	0x3d9abf3e	0.07556008
4	0xbd6c43f2	-0.057681985
5	0x3db09600	0.0862236
6	0x3b012330	0.0019704811
7	0x3ca6f42a	0.020380098
8	0xbbfe7b56	-0.0077661676
9	0xbd161b08	-0.036646873
10	0xbd837dde	-0.06420492
11	0xbd94c6cf	-0.07264482
