actor_model/actor_48000.pt (torch, 99312 bytes, 6 tensors)

weight f4 [128, 34]
0	0x3e47e9d1	0.19522788
1	0x3d86ad1e	0.06575988
2	0xbe2d112d	-0.16901083
3	0x3d1ad74d	0.037802983
4	0xbf2120d1	-0.629407
5	0xbf327a11	-0.6971751
6	0xbf4937b6	-0.78600633
7	0x3c2663d6	0.010155639
8	0xbcff4cc0	-0.031164527
9	0xbdd67831	-0.104721434
10	0x3dfe3e8f	0.12414276
11	0x3d8a91ac	0.06766066
12	0x3e0c2e0a	0.13689438
13	0xbd24752e	-0.040150814
14	0xbe23d06c	-0.15997475
15	0xbe7614c2	-0.24031356
16	0x3e22190b	0.15829866
17	0xbd5fbdfd	-0.054624546
18	0x3ef05e8b	0.4694713
19	0x3e47f9d4	0.19528896
20	0xbe91b37c	-0.28457248
21	0xbe96c9f7	-0.29450962
22	0xbe206713	-0.1566432
23	0xbd3ce07f	-0.046112534
24	0x3d805938	0.06267017
25	0x3eba1adb	0.36348614
26	0x3da2d26a	0.079502895
27	0x3d239e7d	0.039946068
28	0xbce5d1db	-0.028054168
29	0x3c176fe2	0.009242984
30	0x3c4fb60f	0.0126776835
31	0x3e814d81	0.25254443
32	0xbd9bb3a2	-0.076026216
33	0xbcef930a	-0.029244918
34	0xbdf75d88	-0.120783865
35	0xbcea0aa4	-0.028569527
36	0xbddf2f8c	-0.10897741
37	0x3dadf10b	0.08493241
38	0xbd85cf8c	-0.06533727
39	0xbf9f1d74	-1.2430863
40	0xbd21df01	-0.039519314
41	0xbdc71032	-0.09719886
42	0xbe87ce8e	-0.26524776
43	0xbe4584d3	-0.1928895
44	0x3bfe990f	0.007769711
45	0xbe2a59ef	-0.1663587
46	0xbeccf4d4	-0.4003054
47	0x3ee41fc5	0.44555488
48	0xbc859735	-0.016307453
49	0xbea58c16	-0.3233344
50	0x3ee46d49	0.44614628
51	0x3c514030	0.012771651
52	0x3e1606b2	0.14650992
53	0xbe68f423	-0.22749381
54	0xbcf7ce69	-0.030249791
55	0x3c0708a4	0.008241806
56	0x3d3bf3f8	0.045886964
57	0x3de18544	0.110117465
58	0xbbe1b353	-0.006887832
59	0xbd7e44b8	-0.062077254
60	0xbe68f45b	-0.22749464
61	0x3dd621f8	0.10455698
62	0xbeaeb100	-0.34119415
63	0xbdd1ed63	-0.10250356
64	0xbd050a7f	-0.032480713
65	0xbc99339b	-0.018701365
66	0xbde04856	-0.10951297
67	0x3d4455b3	0.04793329
68	0xbeec7b0c	-0.46187627
69	0x3d9b1be4	0.07573679
70	0x3b703d2d	0.0036657557
71	0x3d0d968a	0.034567393
72	0xbe5f6468	-0.21815646
73	0xbf34bebd	-0.70603544
74	0x3e8e7e32	0.27830654
75	0x3e8a0e8f	0.26964232
76	0xbeea9aaa	-0.45821124
77	0xbdf2a3e8	-0.11847669
78	0xbe5479ae	-0.20749542
79	0x3e2ee965	0.1708122
80	0xbf0f783b	-0.5604283
81	0x3eba4c0f	0.36386153
82	0xbd7b8c74	-0.061413243
83	0xbe7c2b1b	-0.24625818
84	0x3ec7919a	0.38978273
85	0x3e1e827e	0.15479466
86	0xbe61fe16	-0.22069582
87	0x3c8d3578	0.01723741
88	0xbe73cb5b	-0.23808043
89	0xbd9d0af1	-0.076681025
90	0xbd2d9bd4	-0.042384937
91	0xbda2d5ff	-0.07950973
92	0x3d380d08	0.044934303
93	0x3d70fc07	0.058834102
94	0x3d374840	0.044746637
95	0xbd7f8688	-0.06238416
96	0x3d213bae	0.039363556
97	0x3e38f170	0.18060851
98	0x3db05d99	0.08611602
99	0x3d2928f2	0.041298814
100	0x3e8e2913	0.27765712
101	0xbe195f53	-0.1497777
102	0x3e132b38	0.14371955
103	0x3c36d819	0.01115992
104	0xbe462b7f	-0.1935253
105	0xba4ea5a6	-0.000788296
106	0xbf074e3b	-0.52853745
107	0xbe708e55	-0.23491795
108	0x3f9414e2	1.1568873
109	0x3dac375e	0.08408998
110	0xbb7b4ac8	-0.0038344134
111	0xbda1c77f	-0.07899379
112	0x3d8b964c	0.06815776
113	0xbe3e7ea8	-0.18603003
114	0xbf298db4	-0.66231847
115	0xbe2daeb8	-0.16961181
116	0xbea06a40	-0.31331062
117	0xbf009618	-0.50229025
118	0x3e0d3db5	0.1379307
119	0x3c9ade79	0.018904911
120	0x3e154210	0.14575982
121	0xbd500d0d	-0.050793696
122	0xbda4fca0	-0.08055997
123	0x3d8ba0f6	0.0681781
124	0xbd33b722	-0.04387582
125	0xbd66a12c	-0.05630605
126	0xbd1762f5	-0.036959607
127	0x3d101626	0.035177372
128	0xbbb66730	-0.0055665
129	0x3e0bbee5	0.13647039
130	0x3cecf786	0.028926622
131	0xbc83745d	-0.016046697
132	0xbd3b873d	-0.04578327
133	0x3c25509b	0.010090019
134	0x3b89283d	0.004185705
135	0xbb391a9d	-0.0028244623
136	0xbcbe0163	-0.02319402
137	0xbd472316	-0.048617445
138	0xbbca53ad	-0.0061745257
139	0xbcd16fbe	-0.025565978
140	0x3e79da00	0.24399567
141	0xbebcfd87	-0.36912176
142	0xbe88a2c2	-0.26686674
143	0xbe14192a	-0.14462724
144	0xbd8da88f	-0.069169156
145	0xbeca73ce	-0.39541477
146	0x3ea0085f	0.31256387
147	0xbd6f0e70	-0.058363378
148	0xbeb133a7	-0.3460972
149	0xbdcdec3d	-0.100548245
150	0xbc84c056	-0.016204994
151	0xbe1ac4a0	-0.15114069
152	0x3d3597fc	0.044334397
153	0x3a5b83bc	0.0008373817
154	0xbd8b6dec	-0.06808075
155	0xbe3b1c7b	-0.18272583
156	0xbd93856f	-0.07203185
157	0xbd3ab88f	-0.045586165
158	0xbd88ec4d	-0.06685696
159	0xbc6b6c45	-0.014369075
160	0xbc177268	-0.009243585
161	0x3c84dafa	0.016217697
162	0x3d8fa22d	0.070133545
163	0xbdb47046	-0.08810477
164	0xbc753fc1	-0.014968813
165	0x3d4057f2	0.04695887
166	0x3d5c652e	0.05380743
167	0x3cf8004f	0.030273585
168	0xbc7f282e	-0.015573544
169	0x3a0ad28f	0.0005295658
170	0x3c1c33d3	0.00953384
171	0x3d72fd44	0.059323564
172	0xbdf3e04c	-0.119080156
173	0x3bdd19d5	0.006747464
174	0xbe20e720	-0.15713167
175	0x3dfc02c9	0.12305219
176	0x3e970a37	0.2949998
177	0x3c98deb5	0.018660882
178	0xbd0fcd24	-0.035107747
179	0xbf89f217	-1.0777005
180	0xbea8949e	-0.32925886
181	0xbdecddb9	-0.11565728
182	0xbd6127e5	-0.054969687
183	0xbdbb7360	-0.091528654
184	0xbaced858	-0.0015781028
185	0xbc1c884c	-0.00955398
186	0x3d73c182	0.059510715
187	0x3d15a25b	0.036531787
188	0x3d195ecf	0.037443932
189	0xbe8a143b	-0.2696856
190	0xbe325cb8	-0.17418182
191	0xbd249de9	-0.040189657
192	0xbcf6d9f3	-0.030133223
193	0x3d1493f5	0.036273915
194	0xbb4b790c	-0.0031047491
195	0x3eb63b06	0.35591906
196	0x3f9fb8c8	1.2478266
197	0xbf4bff3c	-0.7968633
198	0xbd823229	-0.063572235
199	0x3ce69cf6	0.028151017
200	0xbc2f31f1	-0.010693059
201	0xbd6f7ac0	-0.058466673
202	0x3d040a22	0.032236226
203	0x3c00cfe2	0.007862063
204	0xbd46d1af	-0.048539814
205	0xbe111efe	-0.14171979
206	0x3da013c7	0.07816272
207	0xbc7dba51	-0.015486316
208	0xbe80555e	-0.2506513
209	0xbee72779	-0.45147303
210	0xbebad773	-0.364925
211	0xbe60e0b6	-0.2196072
212	0xbe8916bf	-0.26775166
213	0x3f035d4e	0.51314247
214	0x3cdcdc71	0.026960583
215	0xbdbdc8be	-0.09266804
216	0xbeacdd98	-0.33762813
217	0x3e941762	0.2892409
218	0xbddd4785	-0.10804657
219	0xbe503b88	-0.2033521
220	0xbdb87587	-0.090067916
221	0xbdb01e8d	-0.08599577
222	0xbee1f048	-0.44128633
223	0x3eccdcd0	0.40012217
224	0x3ef65398	0.48110652
225	0xbe445234	-0.19171983
226	0x3df4268b	0.11921414
227	0xbc7f31f3	-0.015575874
228	0xbd50f1fe	-0.05101203
229	0x3dcf845b	0.10132667
230	0x3e8a7caf	0.2704825
231	0xbde1a354	-0.110174805
232	0x3d45a9ae	0.048257522
233	0xbd5e5527	-0.054280426
234	0xbcb21720	-0.021739542
235	0x3e0a5cd6	0.13511977
236	0xbe563881	-0.20919992
237	0xbd1f9988	-0.03896478
238	0xbe8347ae	-0.25640625
239	0xbc43014a	-0.011902163
240	0x3d0228cd	0.031777192
241	0x3da522bf	0.08063268
242	0xbf0b31df	-0.5437297
243	0xbee47cbd	-0.44626418
244	0x3ead1ec1	0.33812526
245	0x3e5eb512	0.2174876
246	0xbf2df8ff	-0.6795806
247	0xbdfd2873	-0.12361231
248	0x3c33509f	0.010944515
249	0xbdd9c4be	-0.10633229
250	0x3e85e79e	0.26153272
251	0xbcca14bf	-0.024668096
252	0x3e8df833	0.27728423
253	0xbe28f41a	-0.16499367
254	0x3e32ecea	0.17473188
255	0x3d0cad0c	0.034344718

bias f4 [128]
0	0xbf3b2b2d	-0.73112756
1	0xbf76fd14	-0.96479917
2	0xbfa08f9c	-1.2543826
3	0x3ef7d111	0.48401693
4	0x3da7906d	0.08181844
5	0xbf75b0f7	-0.9597315
6	0xbc435405	-0.011921887
7	0xbe59d45f	-0.2127242
8	0xbfccaae3	-1.598965
9	0xbf7fa1d5	-0.9985631
10	0xbf0b9041	-0.5451699
11	0xbf981807	-1.1882333
12	0xbfcc733c	-1.5972667
13	0xbec4ba8d	-0.38423577
14	0x3f1d233c	0.6138189
15	0xbfc3da58	-1.5301008
16	0xbf9a8466	-1.2071655
17	0xbf1d4af9	-0.61442524
18	0xbddb1ac5	-0.10698465
19	0x3c6237f0	0.013807282
20	0xbfae1460	-1.3599968
21	0xbf06782d	-0.52527124
22	0x3e0cbb25	0.13743265
23	0xbfef8213	-1.871157
24	0xbfb31626	-1.3991134
25	0xbecb85cb	-0.39750513
26	0xbeda28ef	-0.42609355
27	0xbf95a841	-1.1691972
28	0xbfc9ac3f	-1.575569
29	0xbfa1c035	-1.2636782
30	0xbed901c4	-0.4238416
31	0xbeb028fb	-0.34406266
32	0xbf93fa19	-1.1560699
33	0xbf8d6d77	-1.1049031
34	0xbeed5cb2	-0.46359783
35	0xbfc4c423	-1.5372356
36	0xbf9a0ce3	-1.2035183
37	0xbfc109ab	-1.5081075
38	0xbf96a0f9	-1.1767875
39	0xbf539f19	-0.8266464
40	0xbfc4c09a	-1.5371277
41	0xbf2e60a5	-0.6811622
42	0xbfa9b4de	-1.3258321
43	0xbf41149e	-0.75422084
44	0xbf4aa0e7	-0.7915177
45	0xbfe12e2a	-1.7592213
46	0xbfbbc1ed	-1.4668556
47	0xbf1cfe72	-0.6132575
48	0xbfe44249	-1.7832729
49	0x3f508934	0.81459355
50	0xbf7c259f	-0.98494905
51	0xbe1988fa	-0.14993659
52	0xbedbef01	-0.42955783
53	0xbf347f38	-0.7050662
54	0xbed7e54f	-0.42167136
55	0xbfc6604d	-1.5498139
56	0xbfafc82a	-1.373296
57	0xbdc6cdcb	-0.09707221
58	0xbfb060b9	-1.3779517
59	0xbfc6a7fc	-1.5520015
60	0xbf8e5740	-1.1120377
61	0xbf6522c5	-0.8950618
62	0xbf65a9f3	-0.89712447
63	0xbf7154ed	-0.9427021
64	0xbfc76bbb	-1.5579752
65	0xbe9ab351	-0.30214933
66	0x3e76e14a	0.24109378
67	0xbfc2c700	-1.521698
68	0xbd8ea4a8	-0.069649994
69	0xbf2dd478	-0.67902327
70	0x3cdc40da	0.026886392
71	0x3eda3c1e	0.4262399
72	0x3e23af8e	0.15984938
73	0xbfb8c971	-1.4436475
74	0xbfbc3a59	-1.4705306
75	0xbd38b3d3	-0.04509337
76	0xbf214b67	-0.6300568
77	0xbf806407	-1.0030526
78	0xbf15a192	-0.5844966
79	0xbfe3c85c	-1.779552
80	0xbfc623be	-1.5479658
81	0xbf9a8f0e	-1.2074907
82	0xbfc7a336	-1.5596683
83	0xbed2cd2c	-0.4117216
84	0x3f16657f	0.5874862
85	0x3f58462f	0.8448209
86	0xbfa3a9c7	-1.2786187
87	0xbf1f79fe	-0.6229552
88	0x3f65dbe2	0.8978864
89	0x3dcc82fa	0.09985919
90	0xbe76eed2	-0.2411454
91	0xbfb013e3	-1.3756069
92	0xbfb44105	-1.4082342
93	0x3f7c1a8d	0.98478013
94	0xbe567fb1	-0.20947148
95	0xbfb2c30d	-1.3965775
96	0xbf18e437	-0.5972323
97	0xbf9ccb52	-1.2249548
98	0xbfa3b6d4	-1.279017
99	0xbfc64421	-1.5489541
100	0xbfb91e0a	-1.4462292
101	0xbfcc67bc	-1.5969157
102	0xbee1cf3d	-0.44103423
103	0xbfbf78e1	-1.4958764
104	0xbeee002a	-0.464845
105	0xbfa3020c	-1.2735
106	0xbfd9f1ad	-1.7026879
107	0xbfd819cb	-1.6882871
108	0xbebef911	-0.37299398
109	0xbfbe1cbc	-1.4852519
110	0xbfb75df3	-1.4325546
111	0xbfde6ec6	-1.7377555
112	0xbfe7f853	-1.8122658
113	0x3f59e8fd	0.85121137
114	0x3f6308ca	0.88685286
115	0xbfdb9783	-1.7155613
116	0xbe10a8fa	-0.1412696
117	0xbf8b4771	-1.0881177
118	0x3f843b40	1.0330582
119	0xbf56e914	-0.839494
120	0xbf8bd5b2	-1.092459
121	0xbd108bba	-0.035289504
122	0xbf670498	-0.90241385
123	0xbf3f98cc	-0.74842525
124	0x3f6e914a	0.93190444
125	0xbfaeed33	-1.3666137
126	0xbf48e795	-0.78478366
127	0x3f1de688	0.6167989

weight f4 [128, 128]
0	0x3e5d2fb6	0.21600232
1	0x3ef10526	0.4707424
2	0x3c827622	0.01592547
3	0xbf0d8899	-0.55286556
4	0xbefb446c	-0.4907564
5	0xbd8ea85e	-0.06965707
6	0xbdb0c888	-0.08631998
7	0xbdc53e54	-0.09631029
8	0x3f01b5ba	0.5066792
9	0x3d96e2d5	0.073674835
10	0x3c14b6a6	0.00907675
11	0x3d84d6ef	0.06486308
12	0x3e37cad6	0.1794847
13	0xbf0675c1	-0.5252343
14	0xbea38617	-0.3193824
15	0x3e7a40c5	0.2443877
16	0x3eac7f36	0.33690804
17	0x3da88b9e	0.08229755
18	0x3ed2a32e	0.4114012
19	0xbe4dd36a	-0.2010018
20	0xbda0f221	-0.078586824
21	0x3d0058d9	0.03133473
22	0xbf2a25e0	-0.6646404
23	0x3f07a777	0.52989906
24	0xbe5a75c7	-0.21333991
25	0xbefed2e2	-0.49770266
26	0xbeeb50e6	-0.45960158
27	0x3f6549d0	0.89565754
28	0x3e5e45e3	0.21706347
29	0xbe7c4583	-0.24635892
30	0xb9b3aa78	-0.0003426855
31	0xbf2ece2d	-0.6828335
32	0x3e79cc70	0.24394393
33	0x3deace6f	0.11465155
34	0xbf0d5102	-0.55201733
35	0x3deef8ea	0.1166857
36	0x3ed75964	0.42060387
37	0x3f56b0ff	0.83863825
38	0x3e9a7e87	0.30174658
39	0xbe081cc9	-0.1329223
40	0xbf134432	-0.5752593
41	0xbd97644a	-0.073921755
42	0x3e00d61e	0.12581679
43	0xbec27a66	-0.37984008
44	0x3e0250ad	0.12726088
45	0x3d85e079	0.065369554
46	0x3e5a5c0c	0.21324176
47	0xbccdc133	-0.025116539
48	0xbf005f06	-0.50144994
49	0xbda46055	-0.080261864
50	0x3ecb188d	0.39667168
51	0xbf49490b	-0.7862708
52	0xbce50360	-0.02795571
53	0xbe0307f4	-0.12796003
54	0xbe60a389	-0.21937384
55	0x3dbb6805	0.091506995
56	0xbf5b9ee5	-0.8578933
57	0xbe81478f	-0.25249907
58	0x3f2b072f	0.66807836
59	0x3de3c4cd	0.11121521
60	0xbec310e0	-0.38098812
61	0x3cf94791	0.030429633
62	0x3cdc3e4e	0.026885178
63	0xbe9959ed	-0.2995142
64	0x3eac7917	0.33686134
65	0xbe992382	-0.29909903
66	0xbe68d4cc	-0.22737426
67	0x3e76f295	0.24115975
68	0xbd827edd	-0.063718535
69	0xbcdf35e8	-0.027247384
70	0x3df71d03	0.120660804
71	0xbc9e5559	-0.019327806
72	0xbead4621	-0.33842567
73	0x3e1a6131	0.15076138
74	0x3e82b9ec	0.25532472
75	0x3dee2120	0.11627412
76	0x3e22ebcd	0.15910263
77	0xbc297688	-0.010343201
78	0x3f1303ad	0.57427484
79	0x3e7e1218	0.2481159
80	0x3f012014	0.5043957
81	0xbf1d3914	-0.6141522
82	0xbee70dc9	-0.45127705
83	0x3de49873	0.1116189
84	0xbf01b2de	-0.50663555
85	0xbf848428	-1.0352831
86	0x3eb20415	0.3476874
87	0xbe676b94	-0.22599632
88	0xbf23cc20	-0.63983345
89	0xbf0d365f	-0.5516109
90	0x3eea4ec6	0.45763224
91	0xbf96188f	-1.1726245
92	0x3e8efaeb	0.2792581
93	0x3d58aeda	0.052901126
94	0xbf3979ca	-0.7245146
95	0xbed39e33	-0.41331634
96	0xbd574d98	-0.052564234
97	0xbddffb56	-0.109366104
98	0xbe16b6d9	-0.14718188
99	0xbe9c091a	-0.30475694
100	0x3ea6fa32	0.3261276
101	0xbf28a173	-0.6587135
102	0x3e87721d	0.2645425
103	0x3e870436	0.263704
104	0x3e3566cb	0.17714994
105	0xbefe05bf	-0.4961376
106	0xbd009f10	-0.031401694
107	0xbea3a39c	-0.31960762
108	0x3d316cb9	0.043316577
109	0x3e890bff	0.26766965
110	0xbda14519	-0.078745075
111	0x3f1de384	0.61675286
112	0x3dd5780a	0.10423286
113	0x3db838de	0.089952216
114	0xbf01320c	-0.5046699
115	0xbdca8903	-0.09889414
116	0x3df50803	0.11964419
117	0xbe48f642	-0.1962519
118	0xbf0e214a	-0.55519545
119	0xbeb52458	-0.3537929
120	0xbf13a573	-0.5767433
121	0xbddd1523	-0.10795047
122	0x3d450220	0.04809773
123	0xbe3d3b40	-0.18479633
124	0xbf3cc8c3	-0.7374384
125	0xbd966bab	-0.07344755
126	0xbec63bf2	-0.3871761
127	0xbf1b6bb7	-0.60711235
128	0xbe8c64a6	-0.2742054
129	0xbde7da11	-0.1132089
130	0xbd4082b0	-0.046999633
131	0xbd807891	-0.06272996
132	0xbea083d2	-0.3135057
133	0xbd631c24	-0.05544676
134	0xbe799628	-0.24373686
135	0x3e15668f	0.14589904
136	0xbc121ded	-0.008918268
137	0xbe2c0a0b	-0.16800706
138	0xbc65ce8d	-0.014026296
139	0xbed9af3f	-0.42516515
140	0xbdf2ee62	-0.11861874
141	0x3cab7fed	0.020935023
142	0xbecb0763	-0.39654073
143	0x3ee7e786	0.45293826
144	0x3f1fe8c0	0.62464523
145	0x3ea93c88	0.33053994
146	0x3ec530e4	0.38513863
147	0xbea4995e	-0.3214826
148	0xbd6add16	-0.05733975
149	0xbeacc53e	-0.33744234
150	0xbf77ddaf	-0.9682264
151	0x3e67f778	0.22652996
152	0x3e8c5b7f	0.27413556
153	0x3d8d6b0a	0.06905182
154	0xbc2471bb	-0.010036881
155	0xbede7849	-0.43451145
156	0xbc559729	-0.013036528
157	0x3dcf2ecf	0.1011635
158	0x3ca61656	0.020274322
159	0xbe8dcc5e	-0.27694982
160	0x3f0c7082	0.54859173
161	0x3edbf249	0.42958286
162	0xbebefbfc	-0.37301624
163	0x3e9c21c7	0.3049452
164	0xbe2cbde0	-0.16869307
165	0x3d1dee30	0.03855723
166	0x3ddfcf1e	0.10928176
167	0x3d7300ab	0.05932681
168	0x3f11e5ad	0.5699108
169	0x3e336474	0.17518789
170	0x3ede03ae	0.43362182
171	0xbdb61359	-0.08890409
172	0x3d7665fd	0.060155857
173	0x3f371212	0.7151195
174	0x3f052984	0.5201647
175	0x3e0969f5	0.13419326
176	0x3e0c1e57	0.13683449
177	0xbec619d5	-0.38691583
178	0x3e9d4ade	0.30721182
179	0xbeaf2728	-0.3420956
180	0x3db9e542	0.090769306
181	0xbd4dbf57	-0.050231304
182	0xbd077ca1	-0.03307784
183	0x3eb66eb3	0.35631332
184	0x3ceab675	0.028651455
185	0x3da54fdb	0.08071872
186	0x3eea509b	0.45764622
187	0x3ef20ad0	0.47273874
188	0x3e9cd659	0.30632284
189	0xbf222f8a	-0.6335379
190	0x3e6ae052	0.22937134
191	0xbf01dbc1	-0.5072594
192	0x3eefdff6	0.46850556
193	0xbd03e94b	-0.032204907
194	0xbe22cdda	-0.15898839
195	0x3ef0d045	0.47033897
196	0x3d8607e5	0.065444745
197	0xbeb294ec	-0.34879243
198	0x3e41a9f7	0.18912493
199	0xbe2cb327	-0.16865216
200	0xbf251d52	-0.64497864
201	0xbd4ff859	-0.050773952
202	0xbbafdcb9	-0.0053668884
203	0x3dcd9989	0.1003905
204	0xbe32fd70	-0.17479491
205	0x3c488244	0.012238089
206	0x3dbe6077	0.09295743
207	0x3e5d8361	0.21632148
208	0x3e4aac0b	0.19792192
209	0xbdfefa49	-0.12450082
210	0x3c99a246	0.018754136
211	0x3e26d1ce	0.16290972
212	0xbe7404db	-0.23829977
213	0xbd537158	-0.051621765
214	0x3df9d9d9	0.12199754
215	0x3dc0b7b0	0.094100356
216	0xbebfd7b2	-0.3746925
217	0xbebdc06b	-0.37060866
218	0x3df9e202	0.12201311
219	0xbe354fb3	-0.17706184
220	0xbde41a09	-0.11137778
221	0xbda89fe3	-0.08233621
222	0xbee10a62	-0.43953234
223	0xbd4f140d	-0.05055623
224	0xbf1e4ee5	-0.61839134
225	0x3f414040	0.7548866
226	0xbf108ea2	-0.5646764
227	0xbd11742b	-0.035511177
228	0x3e183fa3	0.14868025
229	0x3e77ff16	0.24218401
230	0x3e95e851	0.29278806
231	0x3df89ac8	0.12138897
232	0x3d177a6d	0.03698199
233	0xbecdeaf7	-0.40218326
234	0x3eb6fd1b	0.3573998
235	0x3d94127c	0.07230088
236	0xbf066cc6	-0.52509725
237	0x3d9ae20f	0.075626485
238	0x3da39eec	0.07989296
239	0x3ed2d0ea	0.41175014
240	0xbcef7ad7	-0.02923338
241	0xbf167624	-0.5877402
242	0xbcc7116c	-0.0243003
243	0x3f30c93b	0.69057053
244	0x3d937720	0.07200456
245	0xbeaaf957	-0.33393356
246	0xbee93027	-0.4554455
247	0x3ea4d6a6	0.32195014
248	0xbe6eed1a	-0.23332635
249	0x3ed41538	0.4142244
250	0xbec8b994	-0.39204085
251	0xbf095274	-0.5364144
252	0x3c9aad47	0.018881453
253	0xbe878afb	-0.2647322
254	0x3f0a7efd	0.5410002
255	0xbe41c7f6	-0.18923935

bias f4 [128]
0	0xbf27629b	-0.65384835
1	0xbed07692	-0.40715462
2	0x3f30f5ed	0.6912525
3	0x3e3d036c	0.18458337
4	0xbf13211a	-0.57472384
5	0xbeee8377	-0.46584675
6	0xbf18bce9	-0.59663254
7	0x3f220cc7	0.63300747
8	0xbe8c848c	-0.27444875
9	0xbb7ffc9a	-0.0039060474
10	0xbf18da9d	-0.5970858
11	0x3d75acc8	0.05997923
12	0xbee6dfd6	-0.45092648
13	0xbe822cb0	-0.2542472
14	0xbdad7b00	-0.08470726
15	0x3f669d51	0.90083796
16	0xbd33f0d8	-0.04393086
17	0x3f5bded0	0.8588686
18	0xbf2210b2	-0.63306725
19	0xba3a058a	-0.00070961623
20	0x3c8930b7	0.016746862
21	0xbf356aee	-0.70866287
22	0xbe85a048	-0.26098847
23	0xbe720d69	-0.23637928
24	0xbedf89ee	-0.4365992
25	0x3f313f5f	0.6923732
26	0xbf3debf9	-0.7418819
27	0xbf95eb4f	-1.1712435
28	0xbe738b65	-0.23783644
29	0xbf413a12	-0.75479233
30	0xbefc1874	-0.49237406
31	0xbf1fbd73	-0.6239845
32	0xbdebd2d7	-0.11514824
33	0xbe00def7	-0.12585054
34	0x3e17536b	0.14777915
35	0xbe1938fc	-0.14963144
36	0xbe0d6be1	-0.13810684
37	0xbf61306c	-0.8796451
38	0xbe602940	-0.21890736
39	0xbf91f8b1	-1.140402
40	0xbea11848	-0.31463838
41	0x3f1079cb	0.5643584
42	0xbf834347	-1.0254906
43	0xbf3ef697	-0.74595016
44	0x3f435100	0.7629547
45	0x3e7b612a	0.24548784
46	0xbf27dbfa	-0.6557003
47	0x3eaf495e	0.34235662
48	0x3e10c13c	0.14136213
49	0x3eafdb4d	0.34347
50	0x3f4a7238	0.79080534
51	0x3ebbc32e	0.36672348
52	0xbe1918e2	-0.14950898
53	0xbf3f8290	-0.748086
54	0xbebbd3cb	-0.36685023
55	0x3edc6590	0.43046236
56	0xbf94b0c7	-1.1616448
57	0xbe5eb980	-0.2175045
58	0x3f2ae241	0.66751486
59	0xbe9ad6c8	-0.3024199
60	0x3f0177fd	0.5057371
61	0x3e8ad89a	0.2711838
62	0xbeb42150	-0.35181665
63	0xbf10914a	-0.56471694
64	0xbe6f8aef	-0.23392843
65	0xbf32970d	-0.69761735
66	0x3ea61651	0.324389
67	0xbe0739ad	-0.13205595
68	0xbf53996f	-0.82655996
69	0xbef9bd7c	-0.48777378
70	0x3f7e0a0b	0.99234074
71	0xbdee9c58	-0.11650914
72	0xbe8ac1b2	-0.27100903
73	0xbe7e68bb	-0.24844639
74	0xbecb0ed6	-0.39659756
75	0x3e6be4b6	0.23036465
76	0x3e8a0381	0.26955798
77	0xbec63cc2	-0.3871823
78	0xbf317d9b	-0.69332284
79	0xbd8c9f96	-0.06866376
80	0xbf8630d9	-1.0483657
81	0x3f62cdaa	0.8859507
82	0x3d3f7359	0.046740863
83	0xbf55348e	-0.8328332
84	0xbe3a9c41	-0.18223669
85	0x3f41899d	0.75600606
86	0xbd67840b	-0.05652241
87	0xbf30e4e0	-0.69099236
88	0xbed5dd0d	-0.4177021
89	0xbf14bb7b	-0.5809857
90	0x3efaf1a2	0.49012476
91	0x3e216d87	0.15764438
92	0xbf9f6973	-1.2454056
93	0xbf71db0d	-0.9447487
94	0xbf252081	-0.6450272
95	0xbbbd260d	-0.0057723583
96	0x3e17b0c0	0.14813519
97	0xbf1d8dff	-0.61544794
98	0xbf2a3561	-0.664877
99	0x3ef9b751	0.48772672
100	0xbd464deb	-0.048414152
101	0x3f2181ea	0.6308886
102	0xbf487bf5	-0.78314143
103	0xbe4eb834	-0.20187455
104	0xbf224949	-0.63393074
105	0x3dd06428	0.10175353
106	0xbe192ade	-0.14957759
107	0x3e85d704	0.26140606
108	0xbf250b71	-0.64470583
109	0xbf987809	-1.1911632
110	0xbdb7f86a	-0.08982928
111	0x3f472731	0.77794176
112	0x3e6eb355	0.23310597
113	0x3e94f977	0.29096577
114	0x3e6637e1	0.22482254
115	0xbe89d149	-0.26917484
116	0xbf01c64c	-0.506932
117	0x3f149974	0.5804665
118	0x3deb3ba8	0.11485988
119	0xbde2ae53	-0.11068406
120	0x3e23396a	0.1593987
121	0x3e34eb72	0.1766794
122	0xbea07b77	-0.31344196
123	0xbf0e12d9	-0.5549751
124	0xbe2745c9	-0.16335215
125	0xbe94c6ca	-0.29057914
126	0x3e2b24d2	0.16713265
127	0xbc7dc57b	-0.015488978

weight f4 [12, 128]
0	0xbc9e51e5	-0.01932616
1	0x3dd80d99	0.105494685
2	0x3e876402	0.26443487
3	0xbe5d4729	-0.21609177
4	0x3d048840	0.0323565
5	0x3e48ab85	0.1959668
6	0x3e968be2	0.29403597
7	0xbd939d9a	-0.072077945
8	0xbd18d982	-0.037316807
9	0xbe040278	-0.12891567
10	0xbe3d940e	-0.1851351
11	0xbd931dd0	-0.07183421
12	0x3c9ea0f2	0.019363854
13	0x3db5e54e	0.08881627
14	0x3e0505ab	0.12990443
15	0x3e5c6834	0.21524125
16	0x3d562bef	0.052287992
17	0x3e236e3b	0.15960018
18	0x3d27cf9c	0.040969476
19	0x3ec90f97	0.39269707
20	0x3dafb9cf	0.08580362
21	0x3e164575	0.14674933
22	0xbdedeff0	-0.1161803
23	0x3e3105f3	0.17287426
24	0x3ea0b776	0.3138997
25	0x3b904dca	0.0044038044
26	0xbe2d21ec	-0.16907471
27	0xbd0f7f7d	-0.03503369
28	0xbf4d8230	-0.80276775
29	0xbe5e541b	-0.21711771
30	0xbe310108	-0.1728555
31	0xbd0638dd	-0.032769073
32	0xbc868c59	-0.016424345
33	0xbd686ba1	-0.056743268
34	0x3c5c402c	0.013443034
35	0xbbe0aac9	-0.0068562967
36	0x3da78ef9	0.08181567
37	0x3ca69a63	0.02033729
38	0x3ccffb74	0.025388457
39	0xbbf1dc51	-0.007381
40	0xbd46f66f	-0.04857486
41	0xbc37e1ec	-0.011223298
42	0xbcd82e51	-0.026389273
43	0x3ddcce4c	0.107815355
44	0x3d828c3d	0.063744046
45	0x3d319a89	0.043360267
46	0xbe38b83f	-0.18039034
47	0x3d947488	0.07248789
48	0x3d910292	0.070805684
49	0xbd5cbf96	-0.053893648
50	0x3db84d49	0.08999116
51	0x3d98a0c3	0.07452538
52	0x3c93c016	0.01803593
53	0xbeb3d1a8	-0.35120893
54	0xbe9791d4	-0.29603446
55	0x3e3cf139	0.18451394
56	0xbe2bb1c6	-0.16767034
57	0x3bc6bcc9	0.0060649854
58	0xbdddf5b9	-0.108378835
59	0xbdb7b846	-0.08970694
60	0xbd986804	-0.074417144
61	0x3e69622a	0.22791353
62	0x3d866203	0.06561663
63	0xbe70356c	-0.23457879
64	0xbf1a23c6	-0.60210836
65	0xbe1f527a	-0.15558806
66	0x3d06edc7	0.032941606
67	0xbdebe9ea	-0.11519225
68	0x3e14b955	0.14523824
69	0x3bd1dff3	0.0064048707
70	0x3e7d72f7	0.24750887
71	0x3de26b33	0.11055603
72	0xbd4ee6ca	-0.050513066
73	0xbc2d8624	-0.010591064
74	0x3c8896c5	0.016673455
75	0x3dbe4f7e	0.09292506
76	0x3d086864	0.03330268
77	0xbe21ed09	-0.15813078
78	0xbd6495b5	-0.055806834
79	0xbdc191a9	-0.094516106
80	0x3d88a5ce	0.0667225
81	0x3dfed5dd	0.12443135
82	0x3cb509f8	0.02209948
83	0xbd307075	-0.043075997
84	0xbdebaf80	-0.11508083
85	0x3e3a8c4e	0.18217584
86	0xbc4fbc25	-0.0126791345
87	0xbdd9b9fc	-0.10631177
88	0xbe008815	-0.12551911
89	0x3d9e2810	0.07722485
90	0x3ea85d83	0.32883844
91	0x3db48eb9	0.08816285
92	0xbeca66fa	-0.3953169
93	0x3ed2a291	0.41139653
94	0x3d5a3e1c	0.05328189
95	0x3e3eea4a	0.18644062
96	0x3de3b3f2	0.11118306
97	0x3d5f726d	0.054552484
98	0x3d284065	0.041077036
99	0x3d72aa06	0.05924418
100	0xbd81874b	-0.06324633
101	0xbd86100c	-0.065460294
102	0x3ba7bb0f	0.0051187347
103	0x3d9ed838	0.07756084
104	0xbe02a518	-0.12758291
105	0xbcf3cba7	-0.029760195
106	0x3b91e34e	0.0044521457
107	0xbf0db579	-0.5535503
108	0x3de723ac	0.11286101
109	0xbd2e0d26	-0.042493008
110	0xbde8e3b8	-0.11371559
111	0x3db2fb07	0.08739286
112	0x3c4816d9	0.012212479
113	0x3e1b37c0	0.15157986
114	0x3d8693d2	0.06571163
115	0xbc0f1d7f	-0.00873506
116	0x3dba0219	0.09082431
117	0x3d67c783	0.056586754
118	0xbd33ab07	-0.043864276
119	0x3c6c889d	0.014436868
120	0x3db52925	0.08845738
121	0x3e54ff93	0.20800619
122	0xbd38285b	-0.04496036
123	0xbe835af0	-0.25655317
124	0x3cd06094	0.025436677
125	0xbde82fa9	-0.113372155
126	0x3e29087f	0.16507147
127	0x3dae89ce	0.08522378
128	0xbd831615	-0.06400696
129	0xbd6122fc	-0.054965004
130	0x3e3c016d	0.18359919
131	0xbd351547	-0.044209745
132	0x3ba509bf	0.005036562
133	0xbe94151d	-0.28922358
134	0xbee3ec66	-0.44516295
135	0x3e0d6222	0.13806966
136	0x3d3142a8	0.04327646
137	0x3c22e9f3	0.009943473
138	0xbeea27cd	-0.4573349
139	0xbca8ef72	-0.020621989
140	0x3c307c0a	0.010771761
141	0xbb8484a4	-0.0040441323
142	0x3d694bb9	0.05695698
143	0x3e277f09	0.16357054
144	0x3dea1fa2	0.11431815
145	0xbd5c2d0f	-0.05375391
146	0x3b19c80f	0.0023465191
147	0x3ee9ed9f	0.45689103
148	0xbcd2a7d9	-0.025714802
149	0xbdae19c6	-0.0850101
150	0xbdc4212b	-0.09576639
151	0xbceb98f1	-0.028759452
152	0x3df27ed6	0.11840598
153	0x3c4bd625	0.012441193
154	0xbd75533c	-0.05989383
155	0x3e667eb8	0.22509277
156	0x3cf39451	0.029733809
157	0xbe12df53	-0.14343004
158	0x3bd0cf65	0.0063723796
159	0x3e1d2833	0.15347366
160	0x3db12626	0.08649854
161	0xbe4beded	-0.1991498
162	0xbca10fe6	-0.019660901
163	0x3e6eb72c	0.23312062
164	0x3dce2405	0.10065464
165	0x3e64cf7f	0.22344778
166	0x3d02b7e8	0.031913668
167	0xbd4be2af	-0.04977673
168	0x3e115261	0.14191581
169	0x3e887b1c	0.26656425
170	0x3d0cff05	0.034422893
171	0xbf2d8126	-0.6777519
172	0x3de10579	0.10987372
173	0x3aa7dc29	0.0012806702
174	0xbdc7fd21	-0.097650774
175	0x3d280c35	0.041027267
176	0xbd06f954	-0.03295262
177	0x3d1d153f	0.03835034
178	0x3e070631	0.13185956
179	0xbd4deba9	-0.05027357
180	0x3e16c18e	0.14722273
181	0xbe86d632	-0.26335293
182	0x3e30aa0e	0.1725237
183	0x3dea4fe1	0.11441017
184	0xbd97afe1	-0.07406593
185	0x3d1fc50a	0.03900627
186	0xbe0eee0f	-0.13958
187	0x3dc929d5	0.09822432
188	0x3bc47a7e	0.0059960475
189	0x3dc3397f	0.09532451
190	0xbd0baede	-0.034102313
191	0xbe84b257	-0.25917313
192	0xbc6ad5a6	-0.014333164
193	0x3e326bf1	0.17423989
194	0x3d228869	0.039680872
195	0x3d826841	0.06367541
196	0xbc34e570	-0.01104103
197	0x3c585681	0.013204218
198	0x3e00535b	0.12531798
199	0xbc699375	-0.014256348
200	0xbdb1b1ad	-0.08676467
201	0x3e09085d	0.13382097
202	0x3c21ed40	0.009883225
203	0xbf103996	-0.5633787
204	0x3ae06a8d	0.0017121598
205	0xbd054d18	-0.032544225
206	0x3a8706af	0.0010301674
207	0x3ca62a49	0.020283835
208	0xbe616879	-0.2201251
209	0xbd4db6c2	-0.05022312
210	0x3c89e951	0.016834887
211	0xbe346578	-0.17616832
212	0xbd120dbc	-0.03565763
213	0xbe3816d7	-0.17977463
214	0xbc16a2da	-0.0091941
215	0x3e6ba997	0.23013912
216	0x3e369029	0.1782843
217	0xbe4a4e3b	-0.19756405
218	0x3d3b2f3b	0.04569934
219	0xbce59222	-0.028023783
220	0xbda4d54f	-0.08048498
221	0xbe208540	-0.15675831
222	0x3d481201	0.048845295
223	0xbe50a997	-0.20377193
224	0x3c9bbbcb	0.019010445
225	0x3d698499	0.05701122
226	0xbda0a9a2	-0.07844855
227	0xbd0eb055	-0.034836132
228	0x3ece96c5	0.40349403
229	0x3e29d25b	0.1658415
230	0xbec390a2	-0.38196284
231	0xbc70e6a6	-0.014703428
232	0xbe4f0376	-0.20216164
233	0x3d2fca35	0.04291745
234	0x3c9c43f0	0.019075364
235	0xbebaacf0	-0.36460066
236	0xbe8600f6	-0.26172608
237	0xbebcd5ea	-0.36881953
238	0x3d4758c2	0.04866863
239	0x3e9ca9ac	0.305982
240	0x3de5a175	0.11212436
241	0x3e42ddb5	0.19029887
242	0xbc79852f	-0.015229507
243	0xbe00c9af	-0.12576936
244	0x3d8204be	0.06348561
245	0x3d930f76	0.07180683
246	0x3cc6dda0	0.0242756
247	0xbc8d3555	-0.017237345
248	0xbcc8b5b8	-0.024500713
249	0x3e069f2b	0.13146655
250	0x3d8273ab	0.06369718
251	0x3ebd94d9	0.37027624
252	0x3ded38b3	0.1158308
253	0xbd62e854	-0.055397347
254	0xbdf4cbcb	-0.11952933
255	0x3c3a748e	0.011380328

bias f4 [12]
0	0x3f38fb62	0.7225858
1	0x3c872612	0.016497646
2	0xbefbe0c4	-0.4919492
3	0xbf0ba7e0	-0.5455303
4	0xbeee5d6b	-0.46555647
5	0xbeff4be3	-0.49862584
6	0x3f141b24	0.57853913
7	0xbe2fdba9	-0.17173637
8	0xbf6c8a3f	-0.92398447
9	0xbf59eb97	-0.85125107
10	0xbea4eb81	-0.32210925
11	0xbf43ab71	-0.76433474
