actor_model/actor_1700.pt (torch, 99279 bytes, 6 tensors)

weight f4 [128, 34]
00000000: ed71 623d 41f7 db3d d51e fdbd 95e8 d83d
00000010: 71c2 103e 105d 44bb cb83 013e 06e0 05be
00000020: 16e2 0dbe c983 04bd 29e1 ae3c 4db4 1d3e
00000030: b169 e2b6 009e 7f3d 4b23 8f3d af3c 903c
00000040: 1923 413c 60bf bcbd 7f5c a43a 9e0a 093e
00000050: 9bf6 86be d6db 953b 713f a53d 6b41 073e
00000060: b61c a4bc f9f2 123d fc8a 253d f1cf b93d
00000070: 95be cb3b f022 af3c 64f2 553d 9561 7cbc
00000080: 2f46 bbba 7fd6 a93c af08 38bd 1f5f 33bb
00000090: 3bbd 08be 5c3e 103d cb67 08be e07c efbd
000000a0: e9c9 8e3d 1156 7ebe d672 143c 5361 8cbc
000000b0: ac68 263e f1a8 9b3c 3316 843c 57bf f43c
000000c0: edb9 8f3d fe9d dfbc a290 443c 0490 7b3d
000000d0: d598 2d3e 128a 95bd 64bd 043e 2158 183d
000000e0: 7e75 2d3c dd34 4bbe 6ec7 913c 083b 343d
000000f0: 8fd8 dfbd 4cee b0bd bad3 aebd 0d09 ec3c
00000100: f884 5cbd 6b87 adbb b217 3cbd 7ce1 a63d
00000110: 5ae3 24bd fefb a5bd ceb5 e5bd 0383 2dbd
00000120: e77f b1be b9ce aebc 89f4 a83d 08f2 09be
00000130: 7d83 4fbd f227 e2bc 1aac bb3d 52bf 31be
00000140: 29c8 bf3c b439 4c3e 5c51 e0bc db00 ffba
00000150: aec0 65bd 9ecb 993d 9f9a 06bd f6d3 0cbe
00000160: fff2 eb3d ceda 6fbd 224c 03bd 65db c3bd
00000170: cec9 e5bb 3558 0fbe 9fd1 9bbd c06a 033d
00000180: af81 24bd 7b37 db3c 61b6 003d adef 053c
00000190: 60bd 923d e8ec 30bc 2795 2b3e 4ee8 10bd
000001a0: a31a 11be f3ae 86bd 5fd1 07bd 54ed f5bd
000001b0: eaa5 143e b88e 593e a12c edbb c735 79bd
000001c0: 982d 133e 6545 a6bd 78e5 eebb bfdd 463c
000001d0: af3d 75be 2a9a acbc 67d5 c53b 5500 853d
000001e0: cd7c babc 5941 2cbe 0b30 a6bd 5c09 333d
000001f0: 3640 96bd 1209 c0bd 19b3 983c 681e 7fbd
00000200: 1a37 4c3d e64f 74bc 6c89 33bd a173 f23b
00000210: d8b1 c6bc f53b 86bd 060e c03c 9294 6dbd
00000220: 1f8c 01bd 55af 59bc 6f1a 9e3d 7c0e 3cbb
00000230: 05d4 de3c a66f 92bd 526b 33bd 576d 043d
00000240: 3de3 d93c 44d3 3fbe 8a8f 873d b832 f4bd
00000250: 0515 76bd 97e7 833d 76e0 4fbe c308 823d
00000260: 2e7c 373e 3a4c 163d bfed 103e a9b1 843d
00000270: f926 393e d497 dabd 1b26 e13c 8602 c7bd
00000280: a60c 92bd 32b2 34bd 356c e03c b6d6 713d
00000290: 189f 0f3d c51e 64bd 632f f3bb a117 f03d
000002a0: 06b8 cbbd 99ad 283d 4e4e c73d 9ca5 bc3c
000002b0: 3ade 4b3e 0a5f 403c 548e 6cbe 0374 c9ba
000002c0: 4723 453e b7bb 92bd 0d93 2abe 0797 9dbd
000002d0: 7c6b 87bd cdda 123e b0d8 c2bd 00ad 24be
000002e0: 5ec1 3b3d df91 6c3d d416 303e 4702 3fbd
000002f0: 6e25 95bd 64b2 f9bc e43f 5fbe 8ea0 c6bc
00000300: 31a1 5cbd 62d7 60bd 5ecc 54bd 3780 993c
00000310: add9 823d c492 1fbd 4899 103c d98d 133e
00000320: 0a77 1e3d 0a63 47bd e8d4 ba3d 30a5 0f3d
00000330: 3b5c 603d c26c 853c b59d 3e3c 1a7d 853d
00000340: cef3 efbb 9b04 e9bd 89a8 903d c74b 493d
00000350: 67c7 edbd 29c2 e23d f49a cb3d 661c 61bc
00000360: 02b1 8bbd 1e1a 9a3d c1eb 583c bb65 6a3d
00000370: 8084 c03d 31a0 dcba c29a c8bd 49a8 233d
00000380: ac27 613e 91b0 24bd d346 c53b 1a36 e43d
00000390: 6dcd 5bbd ec1d 30bd 14f8 b03d 1cb0 06bc
000003a0: 8053 5abc 92bf 9abe 2b83 973c 21fc 4f3d
000003b0: 8209 85be 16af bebc 170c 35be 98ec 323c
000003c0: 0c14 c83d 36dd ab3d cb65 1d3d 213e d8bd
000003d0: c1d5 683d d3ed 343e 1643 9ebe 9290 99bd
000003e0: 0296 0a3e 6340 3c3c 2503 093e 9cc9 babd
000003f0: 9173 633e ab5e 0d3d 1250 b8bd b8e1 49bd
0.05528443 0.10740519 -0.12359396 0.105912365 0.14136674 -0.0029962696 0.12647931 -0.1307374
-0.13855776 -0.032352243 0.0213476 0.1540081 -6.747629e-06 0.06240654 0.069891535 0.017607061
0.011788153 -0.092161894 0.0012539773 0.13382956 -0.2636002 0.0045733256 0.08068741 0.13208549
-0.020033222 0.035876248 0.04041575 0.09072865 0.0062177875 0.021378964 0.052233115 -0.015404125
-0.0014287884 0.020732163 -0.044930156 -0.002736993 -0.13353436 0.03521572 -0.13320844 -0.1169374
0.06972105 -0.24837519 0.009060582 -0.017136252 0.16250867 0.019001456 0.016123867 0.029876394
0.070178844 -0.027297016 0.011997374 0.06141664 0.16952832 -0.073017254 0.12962872 0.03719342
0.010587094 -0.19844384 0.01779529 0.04400161 -0.10929977 -0.086392015 -0.085364774 0.02881291
-0.053837746 -0.005295684 -0.045921035 0.081484765 -0.04025588 -0.08104704 -0.11216317 -0.04236127
-0.34667894 -0.021338807 0.082497664 -0.13471234 -0.050662506 -0.027606938 0.09163685 -0.17358139
0.023410873 0.19943887 -0.027382545 -0.0019455211 -0.056091957 0.0750954 -0.032862302 -0.13752732
0.11520957 -0.058558278 -0.032055028 -0.095633306 -0.0070125824 -0.13998492 -0.076083414 0.032084227
-0.04016274 0.026759854 0.03142393 0.008174819 0.07165027 -0.01079867 0.16756116 -0.035377793
-0.14170317 -0.06576338 -0.033158656 -0.12008157 0.14516416 0.21245849 -0.007237986 -0.0608423
0.14372861 -0.08118705 -0.0072905384 0.012137829 -0.23949312 -0.021069605 0.0060374024 0.06494204
-0.022764588 -0.16821803 -0.08114632 0.043710098 -0.07336466 -0.0937673 0.018640088 -0.062284857
0.049857236 -0.014911627 -0.043832228 0.007399038 -0.024254724 -0.06554405 0.023444187 -0.058003016
-0.03162777 -0.013286431 0.077198856 -0.0028695157 0.027200708 -0.071502015 -0.04380352 0.032330837
0.026597613 -0.18732935 0.06619175 -0.11923736 -0.06007864 0.06440657 -0.20300469 0.063493274
0.17918465 0.03669379 0.14153193 0.064791985 0.18081273 -0.1067349 0.02748399 -0.09717278
-0.07131319 -0.044115253 0.027395347 0.059042655 0.035063833 -0.055693407 -0.0074214204 0.11723257
-0.09947209 0.04118118 0.09731732 0.023028187 0.19908991 0.011741409 -0.23101169 -0.0015369657
0.19251738 -0.0716471 -0.16657658 -0.07694822 -0.06612298 0.14341278 -0.09513986 -0.1608162
0.045838706 0.0577563 0.17196208 -0.04663303 -0.0728253 -0.030480571 -0.21801716 -0.02424648
-0.05386466 -0.054892905 -0.051952712 0.018737895 0.063891746 -0.038958326 0.008825608 0.1440958
0.038687743 -0.048678435 0.0912264 0.035069644 0.054775458 0.016287211 0.01163428 0.06518002
-0.007322765 -0.113778315 0.070633955 0.049144533 -0.116102986 0.11072189 0.09941664 -0.013739681
-0.06820871 0.07524513 0.013239802 0.057225924 0.09400272 -0.0016832409 -0.09795143 0.03995541
0.2198779 -0.04020745 0.006020406 0.111431316 -0.053662706 -0.042997286 0.08641067 -0.008220699
-0.013325572 -0.30224282 0.018495163 0.05077756 -0.25983816 -0.023276847 -0.17680393 0.010920666
0.09769449 0.08391802 0.038427155 -0.10558725 0.056844477 0.17668848 -0.30910558 -0.07498278
0.13533786 0.01148996 0.13380106 -0.09120485 0.22212054 0.03451411 -0.08999647 -0.049287528

bias f4 [128]
00000000: 9a81 e4bc efcd 643c 65ce 7b3d 8d84 353e
00000010: f947 edbd 668f 773e 3244 903e 6e61 c53e
00000020: 379f b5bd 4caa f73d 8d77 09bd 9439 c53c
00000030: fb1b e3bc 774e 423e 5354 db3d 679e 61be
00000040: 41f7 10be c831 5a3e 4cd5 8bbd b6ad 7b3d
00000050: affb 7b3d b6d3 2b3a c9bc 44bd eddc 71be
00000060: 87d5 85bd 10e8 8a3e 7b19 e33d aa89 64be
00000070: 3b7c 033e 0871 20be d144 c4bd 03f1 673b
00000080: db31 363d 81f6 903c 627a 1c3e f108 1fbe
00000090: bea6 92bd 52a0 99bd 5636 5e3e 51d0 f7bd
000000a0: fcd6 03bd 82a8 b9bd 527d 7dbe b4e9 6abe
000000b0: b5d9 5cbd ccd3 a6be d23d 7bbe 5d99 a93e
000000c0: 815b 43be 97e4 8b3e e001 cabc a3f3 8a3e
000000d0: f20d 4e3d 129b fc3d 140e 52be 0a4f 3b3c
000000e0: 1425 6abd b273 173d 6565 8cbc a6e9 80be
000000f0: 8bac 513d 5e49 123e cdee c83d 671f e0bd
00000100: 9759 90bd 2bfe 843e 72ef 5a3e fa9c 22be
00000110: 3646 1f3e 0fda 213d 30f2 17be 7c96 293e
00000120: 9b9f cabd 65b3 52be 6790 00be 854e 4b3b
00000130: c99e ad3d bf6c 3ebd 5129 0bbe 2c00 34be
00000140: 9124 60be f0b8 69be 477f c1bd 3a74 b23e
00000150: df7c 763e 964b aa3e 76a8 0ebc eb65 45bd
00000160: 3d0d 8a3e 25f2 09ba c229 8c3e c968 893d
00000170: 2d7e c5bd 655d bf3e cb7e 5bbd b9aa 473d
00000180: 988c 993d 7697 15be 7f49 0b3d 79f7 8ebd
00000190: dfa6 b1bc 8c9a 7ebe 5cf5 0fbe c359 2ebe
000001a0: f529 143e 51b7 35bd 7de6 80be a78b 5dbe
000001b0: b8b7 28be e25d 5cbe 75a1 82be d2ee 1fbe
000001c0: 14b5 e1bd aff6 863e ab50 993e 7b28 a6be
000001d0: 865e a73d 31f6 ccbd 47ad b43e 77d0 8bbe
000001e0: 2f4c b0bd 66ff 4f3d 4df7 42bd 6e0e 1a3e
000001f0: 514d 853e a934 05be a6e5 5bbe 4958 5b3e
-0.02789383 0.013965114 0.06147613 0.17726345 -0.11585993 0.24175796 0.2817703 0.38550895
-0.088682584 0.120930284 -0.033561278 0.024075307 -0.027723303 0.18975244 0.10709443 -0.22033082
-0.1415682 0.21308053 -0.068277925 0.06144496 0.06151932 0.000655468 -0.048031602 -0.23619433
-0.06534868 0.27130175 0.110888444 -0.2231814 0.12840359 -0.15668118 -0.09583438 0.0035391457
0.04448114 0.017695667 0.1528106 -0.15530755 -0.0716071 -0.07501282 0.21700415 -0.1210028
-0.032187447 -0.090653434 -0.24754837 -0.22940713 -0.05391856 -0.32583463 -0.24535301 0.3312482
-0.19077875 0.27322838 -0.024659097 0.27139005 0.050306268 0.12334265 -0.20513183 0.011432419
-0.057164267 0.03697557 -0.017138192 -0.2517826 0.05118994 0.142858 0.09811173 -0.109434895
-0.07048338 0.25975165 0.21380404 -0.15880194 0.15554127 0.039514598 -0.14838481 0.16561311
-0.098937236 -0.20576246 -0.12555085 0.0031022143 0.084775515 -0.046490427 -0.1358998 -0.1757819
-0.21888949 -0.22824454 -0.09448104 0.348543 0.24071072 0.33260792 -0.008707156 -0.0481929
0.26963225 -0.00052622176 0.2737561 0.06709439 -0.09643207 0.37375942 -0.053587716 0.0487468
0.07497519 -0.14608559 0.03400564 -0.069807954 -0.021686016 -0.24863642 -0.14058441 -0.17026429
0.1446913 -0.044364277 -0.2517585 -0.21635304 -0.16476333 -0.21520188 -0.25513807 -0.15618446
-0.11020866 0.2636008 0.29944357 -0.3245276 0.08172326 -0.10007895 0.3528845 -0.27307484
-0.08608281 0.050780676 -0.047599126 0.15044567 0.2603555 -0.1300837 -0.21474323 0.21420397

weight f4 [128, 128]
00000000: 193d 523d e8b9 aebd 7473 b5bd 8e93 28be
00000010: 5d4c babd 743b 3d3c 2ef1 b4bd 5aca 57be
00000020: f3e3 e6bc 6307 493d 8fa5 9f3b 2b83 423e
00000030: 4b6a 013b 9f87 e1bc dbb8 95bd 22b4 853d
00000040: 0f55 213d 872e 4ebd b11c 9f3d 6b46 6bbe
00000050: 3c01 5ebd baaf 05be 2cfb 71be 8dec a03d
00000060: 454a 913d 6341 ec3c 2f30 4abd 6091 773d
00000070: e685 c43d 29e6 69be 0131 613d 9538 92bc
00000080: 6177 5dbe b72f 8d3e c834 85bc 3a95 b33c
00000090: 5372 37bc ad19 4a3e cfdd 88be 9291 243e
000000a0: 93e7 8abe 35f9 f9bd 4c50 06be 5720 efbd
000000b0: ae11 c2bd 8913 8cbb f387 3f3e 60e1 d4bd
000000c0: 2a82 30be d043 083e bf10 9e3d 2d76 423d
000000d0: 8072 6c3e cb71 37be 8706 543c 2296 013e
000000e0: c677 01be 971c 233c 6be2 30bd 4e5a f53c
000000f0: ccdc 2b3d 8e79 e13d 7054 713e 5a7a 883c
00000100: 616b 913e d8fd 09be 29ce 04be 107b 72bd
00000110: 1d31 153d 7bfa 4bbd cfb8 f3bc 1ffa 38be
00000120: c98b 6dbd b497 923d 859b 923d a18b 38be
00000130: 1d23 3dbe 4673 38be 99fd 3abb a19e 1bbe
00000140: f99b 4c3e 3c76 093e f279 3b3e 8e03 793c
00000150: cdb1 383d 8eb5 48be 7984 8f3d 7d05 dfbb
00000160: 25a5 f4bd 1718 36be 9a8c ae3d e32f 5dbe
00000170: d8db 40be 50f3 3d3e 9566 a0bd b4d8 e9bd
00000180: 9b13 e13c e079 2bbd 7e64 db3d 1c44 f33d
00000190: eb54 593e 1bea b1bd 3ccd 52be feeb c9bd
000001a0: eda2 403c 31af 48be ec87 f2bc 50f9 bdbd
000001b0: 1255 1e3c 4e53 80be 4ff8 9bbd 8482 d23d
000001c0: 1607 f0bc c42c 0c3d cd9c c4bd e8aa efbd
000001d0: 9a9e 22bc 3c81 b73d fb5e 73bd 99f1 143e
000001e0: 98c0 ab3b dff2 3dbe cd02 a13d 5b71 39be
000001f0: 414d 31be 4856 72be 9b4a 9bbe d98c cbbd
00000200: 2b1c 2fbe b96b bebd dff2 57be b0cc 51bd
00000210: 22d6 84bd 6cd9 a53d f974 b13d 11c6 10bd
00000220: c2b5 0cbe 8fb0 e3bd bd69 4cbd 0b06 493c
00000230: 7660 ce3c 9ba8 82be 012b b1bd 7480 67bd
00000240: 7ec4 4b3e 1aaf 88bd 3ef2 c73d 8c36 21be
00000250: 7bc5 85be b315 80be 798e 15bd 9c08 e8bd
00000260: e793 743e 5792 973d 8847 62be 79a4 7a3c
00000270: f747 c9bd 8b5f 2f3c 70ee 243e 6e53 cdbb
00000280: 08a3 22bd 70d3 49bc c644 8abe e2b6 0d3e
00000290: 3ff5 b1bd 5483 df3d a23c 61be 17c0 85bd
000002a0: 30f5 9fbd e47f 65bd c3f0 963d 1803 223e
000002b0: 5d51 c5bc 5f6b 643d 6fd1 dfbd 82c9 7dbe
000002c0: 42a7 39bb e8bc babd 53aa b43c 9dcd 213d
000002d0: d78c 303e 8ea1 c2bd ea71 773c f077 f13a
000002e0: 2102 26be 3dc7 c3bb 3271 a03d b78c 543c
000002f0: 8be7 453d 8ced 67be 1dff 11bd 0cc3 15be
00000300: 2e34 e53d e408 233d 13c3 63be 3660 3e3d
00000310: 0f18 7f3d fda9 34be 188c fd3c 25fe f8bd
00000320: fa3d b43b c825 2dbe ff99 b93c 643e 733c
00000330: 9d13 dfbd f2df 16be 6ca4 51be 1b23 4f3e
00000340: 23ef b6bc f34a c73d 7f84 b03c 890c 0a3d
00000350: 8f8a d63d be10 813e beb3 b8bc ee98 813e
00000360: b737 983d 8801 e83c fe15 90bc cc5b c33d
00000370: 2f00 7ebe c78c b8bc 267e 20be 20cb 80bc
00000380: 6bf3 4cbd 9392 363d 28c3 4abe 94e0 c0be
00000390: f2d5 51be 43be f53d d4cb 5fbd ea97 89bd
000003a0: cf41 153e c218 d0bd 2bb4 47bd 204a 973d
000003b0: 51ec 9ebd a958 963d 1c7e 573e 4342 b6bd
000003c0: 0624 f7bd c69b c4be 1e08 81be 090e f43d
000003d0: 2f4c 863e a15d 573e e284 9fbd 2641 ad3d
000003e0: 5603 5ebe 24fe dd3b dd19 8dbd eb69 2e3d
000003f0: b13e 303d f160 3e3e 74a5 173e 6566 67be
0.0513278 -0.085315526 -0.088599116 -0.16462538 -0.090965964 0.011549819 -0.08835064 -0.21073285
-0.028184867 0.04907931 0.004872031 0.18995349 0.0019747193 -0.02753049 -0.07310649 0.06528498
0.03938776 -0.05033734 0.07769144 -0.22976081 -0.054200396 -0.13055316 -0.2363097 0.078576185
0.07094244 0.028839773 -0.049362358 0.060441375 0.095958516 -0.22841705 0.054978374 -0.017849246
-0.2162757 0.27575466 -0.01626052 0.021921743 -0.011196691 0.19736357 -0.26731727 0.16071156
-0.27129802 -0.122057356 -0.13116568 -0.1167609 -0.094760284 -0.0042747897 0.18704204 -0.10394549
-0.17237154 0.13307118 0.07718038 0.047475982 0.23090553 -0.17914502 0.012941009 0.12654927
-0.12643346 0.009955547 -0.04318468 0.029950287 0.041958615 0.11009513 0.23567367 0.016659904
0.28402236 -0.1347574 -0.12969269 -0.059199393 0.03642379 -0.049799424 -0.02975121 -0.18064164
-0.057994638 0.07157841 0.07158569 -0.18022014 -0.18470426 -0.18012723 -0.0028532504 -0.15197231
0.19981374 0.13424009 0.18308237 0.015198601 0.04509144 -0.19600508 0.07007689 -0.006806074
-0.11945561 -0.17782627 0.08522911 -0.21600299 -0.18833864 0.18549848 -0.07832066 -0.11418286
0.027475169 -0.041864276 0.10712527 0.11878225 0.212238 -0.0868723 -0.20586103 -0.09859465
0.0117575945 -0.1959808 -0.029605828 -0.09276068 0.009663837 -0.25063556 -0.076157205 0.102788
-0.029300254 0.03422238 -0.0960022 -0.1170252 -0.009925509 0.089601964 -0.059416752 0.14545287
0.005241465 -0.18549679 0.07861862 -0.18109648 -0.17314626 -0.23665726 -0.30330357 -0.09938974
-0.17100589 -0.0929789 -0.21088742 -0.051220596 -0.06486155 0.080981106 0.08664889 -0.03534514
-0.1374121 -0.1111766 -0.049905527 0.012269507 0.02519248 -0.2551926 -0.086507805 -0.056518987
0.19899175 -0.06674023 0.09763001 -0.15743464 -0.26127228 -0.25016555 -0.036512826 -0.11329767
0.23884545 0.07400959 -0.220976 0.015298002 -0.09828179 0.010703932 0.16106582 -0.006266049
-0.03970626 -0.012318477 -0.27005595 0.13839296 -0.08689355 0.10913721 -0.21995786 -0.06530779
-0.07810438 -0.05603017 0.073701404 0.15821493 -0.024086649 0.05576646 -0.10928618 -0.247839
-0.0028328453 -0.09118062 0.022053873 0.03950273 0.17241226 -0.0950347 0.015102843 0.0018422585
-0.1621175 -0.005974679 0.0783409 0.012973002 0.04831652 -0.2264921 -0.035643686 -0.14625186
0.11191593 0.0398034 -0.22242384 0.046478473 0.062278803 -0.1764297 0.030950591 -0.12157849
0.0055005522 -0.16908944 0.022656439 0.014846418 -0.10892413 -0.14733866 -0.20472878 0.20228235
-0.022330826 0.09731092 0.021547554 0.03370336 0.10475647 0.25208086 -0.022546645 0.2531199
0.07432502 0.028321043 -0.017588612 0.09538993 -0.24804758 -0.022528065 -0.15673122 -0.015721858
-0.05003683 0.044573378 -0.19801009 -0.3767134 -0.2049177 0.1199918 -0.054637745 -0.067184284
0.14575885 -0.10160972 -0.048755806 0.07387185 -0.077599175 0.07341129 0.210442 -0.08899357
-0.12067418 -0.38400096 -0.25201505 0.119167395 0.26229998 0.2103181 -0.07789017 0.08459692
-0.2168096 0.0067746807 -0.06889699 0.04258148 0.043028537 0.18591668 0.14809209 -0.22597654

bias f4 [128]
00000000: 853c a4bb 4388 5c3d d846 8abd d276 ab3d
00000010: 9cbe 36bd 074e 303d a3ee 72bd 623e 543e
00000020: d8e5 32be 3d92 ce3d 24ab cbbd f3db 383b
00000030: ca97 03be 5be8 9e3d 9626 303c be5c a03d
00000040: 9579 763d 8aca 823e 442c 5b3d 5fa9 9e3d
00000050: b1c1 e5bd 0431 71bd 1d78 6ebd f6e5 f93c
00000060: a204 8dbd 10c8 403e 4596 03be 93d1 a1bd
00000070: 1d95 613d 97c4 ec3d 6fdd a73d 65f1 f8bd
00000080: 444d 003d 41d3 48bd e5a7 8d3d 8269 7f3c
00000090: 77e4 f7bd 835f 2dbe d635 74bd 674e f7bd
000000a0: 7c43 8abd d2a3 143e c117 29be a215 81bd
000000b0: bdf9 023e 3c2d 87bb fff6 013e 99c7 96bd
000000c0: 3c66 9c3d f7fc 103d 25e0 74bc 5155 83bd
000000d0: fefb 8f3d a6d7 edbc 2268 2bbc 89a8 893d
000000e0: c4a8 0c3c 8e40 a83c cb7b 423e 4ee8 5a3d
000000f0: 5009 7d3d f69e 2e3e e56e a5bd 2c52 86bd
00000100: 2990 1dbd b59f 93bd 9209 f8bd f33e e9bd
00000110: 6376 0f3b c74b 0fbe 52b4 513e 8fed efbd
00000120: 495a 6abd 46f1 4a3c 32a2 4cbd 63db 193e
00000130: 2376 8ebc b8f8 9c3d 7f85 96bd 3715 0d3e
00000140: c9b4 71bd 715d 613e 4618 c6bc c15a 38bd
00000150: 21c2 8b3d 7820 1f3d 5007 383d 9348 5f3d
00000160: 21a7 8b3c 60d3 7fbd 5d82 333d 3746 c3bd
00000170: 468d 03be 59ca a3bd fb5e 303d 8b2c 4c3e
00000180: a53a 173e a74c 05bc fb9b acbd 591e 11be
00000190: 71e7 00bd 0b16 2e3d 9a60 67bd 26f2 0abe
000001a0: 41e4 b8bd a027 debb 832a 313d 8b47 1d3d
000001b0: 815b 0f3e a940 c6bd 8569 6a3e bd75 463e
000001c0: 717d 0b3d 8753 f03d 488e a1bb ce24 243e
000001d0: 40ed 30be 79aa 223b 1a51 bd3b 89fe f53c
000001e0: 5587 8f3c d7cb ec3d 7ea9 b03d 7975 21bd
000001f0: 6c6e 85bd ac5d 9c3d 4001 e5bd cf3d 6c3d
-0.0050120973 0.053840887 -0.067517936 0.083722726 -0.044615373 0.043043163 -0.059309613 0.20726922
-0.17470491 0.100864865 -0.09944752 0.0028207272 -0.12850872 0.07759162 0.010751387 0.07830189
0.060174543 0.2554515 0.053509012 0.07747149 -0.11218584 -0.058884636 -0.058220018 0.030505162
-0.06885649 0.18826318 -0.12850292 -0.07901301 0.055073846 0.11560934 0.08196532 -0.12155417
0.031323686 -0.049029592 0.06916789 0.01558912 -0.12104123 -0.16930966 -0.059621654 -0.12075501
-0.06751153 0.14515617 -0.16512968 -0.06302954 0.1279058 -0.0041252654 0.12691878 -0.07362289
0.07636687 0.035397496 -0.014946018 -0.06412757 0.070304856 -0.029033493 -0.010461839 0.06721599
0.008585159 0.020538595 0.18992536 0.0534442 0.06177646 0.17052826 -0.08077792 -0.06558642
-0.03846756 -0.07208196 -0.121112004 -0.1138896 0.0021890632 -0.1399375 0.20478943 -0.117152326
-0.05721501 0.012386626 -0.04995937 0.15025096 -0.017390316 0.07664627 -0.07349681 0.13777624
-0.0590103 0.22008301 -0.024181496 -0.045008425 0.068241365 0.038849324 0.04492885 0.05451257
0.017047467 -0.062457442 0.043825496 -0.09534877 -0.1284686 -0.07997579 0.04305933 0.19938867
0.14768465 -0.008135951 -0.084281884 -0.14171733 -0.03147072 0.04250149 -0.05648861 -0.13568935
-0.09027911 -0.006779626 0.043253433 0.038398307 0.1399975 -0.09680302 0.22891815 0.19380851
0.034055177 0.117346816 -0.0049302913 0.16029665 -0.17278004 0.0024820848 0.0057774903 0.030028598
0.017520586 0.11562317 0.08626078 -0.03941867 -0.06515202 0.07635054 -0.11181879 0.057676133

weight f4 [12, 128]
00000000: 7c90 70bd 3413 843e 9d18 e63d ea2d 223d
00000010: 3082 ffbc 2160 8fbb 8eb2 d43d d340 00be
00000020: bded 0e3d e964 2f3d 54df 353b 5b21 423d
00000030: 10d0 193e 41ac 84bc 5eda 1bbd 0678 2f3d
00000040: 324a b6bd b661 07bd 3bcc efbc e87a 3bbd
00000050: 6f72 223e 9666 293d fa2a f93c a458 2f3d
00000060: 3921 44bd ad55 9dbd b075 8cbd f41c 213e
00000070: d4b9 bebd 5f83 65bd ab70 d8bd 24db 5e3b
00000080: c9ef a8bd cb3d 2f3e c037 bdbc 6068 fbbd
00000090: 4ec0 743e 4832 2ebc f16d 2bbb d1b3 e63d
000000a0: e219 d73d 560a 6f3b 0341 483d 4a4a 0e3e
000000b0: a56d 50bd d04a 88bc 2ec2 1abd 0c49 1c3d
000000c0: e0ed 01bd f670 20bd dac3 1e3d deca 533e
000000d0: 6753 0bbe ed13 3fbd 205f c7bd 6fcf 773e
000000e0: d4d0 a0bc 5e50 6fbd 6613 b1bd 4d16 07bd
000000f0: 3ac1 09bc b7ef 303e f65d 353d 9552 693d
00000100: a527 58be 4801 fa3c ad55 b93d 33dc fa3d
00000110: b714 5fba d49f 123d dcef 4c3d 49e4 71bc
00000120: 1c03 f43c 8dbf 4a3d 9ec0 273b 5900 82bd
00000130: f3bb 283e 7c1a 3ebd 8122 1dbe 829d 08be
00000140: beeb 913d 06e5 3cbd dc03 d0bd a2a0 c1bd
00000150: 8882 f9bd fff2 193d 6b88 c23c 6c57 4ebd
00000160: 6a23 153d a2b3 983b 1d04 1ebd 259e 0abe
00000170: e1e0 28be 3b7c 193e 78cc c7bd f023 d8bd
00000180: 58ad 6abd d4fa 05bd a31b 06be cb40 3ebd
00000190: efd6 b73b af59 bc3c 0cfe 59bd 6155 c33d
000001a0: 6ab8 053e 5ca3 4cbc ca11 a73c 0ac0 5dbd
000001b0: 4714 bbbc 1505 c83c 48ff 82be 04df d9bb
000001c0: 784f 253e 3b55 cf3d df32 2a3d 7ec2 dabd
000001d0: 379c 75bc a1b4 33bd 7671 d03d c67c c03c
000001e0: 105e a93d b368 bb3c f357 bd3d 0fc4 a63d
000001f0: a397 073c 7089 85bd 7888 4d3d 6632 13bd
00000200: 08de 0bbd dd78 9c3d b835 8f3d 6fcd 6f3d
00000210: 79f4 8abc b0f9 b53d 281c 67be 5017 d63d
00000220: 5473 74bd ba8a d9bd 422c 32bd 7466 c83c
00000230: 9912 bc3d 5c0e af3b 5da4 c03d baeb f13d
00000240: cf9d 6e3c 3843 0bbe 4f56 13be e1f2 d73d
00000250: 3af7 21be c12b 3e3d a850 aabd fdb4 1abe
00000260: f7f5 9a3d da68 64bd ba99 1abc 8310 e93c
00000270: 4704 193d cc8c e8bd 23de 243d be89 bb3d
00000280: f555 31bd 18f4 41be 1e7b b3bc b546 ec3d
00000290: 3f0d 67bd 0619 683e 040b 253d dc20 fa3c
000002a0: eb22 b5bd d1e8 623d 681a 223e 783b 59be
000002b0: b49d a9bd 93e7 b33d 183d 1a3e 8471 073e
000002c0: 3a76 07be 8f56 073e be85 c93d 62f4 37bd
000002d0: 006b 5f3d bcd5 75bd 27be 473d d407 39bd
000002e0: daca b8bc 4ba7 e2bc 20eb 7bbe 3c37 fa3d
000002f0: 87fa 8bbc dd3d f93c fb71 b53d eae6 e7bd
00000300: eeb1 fbbb f824 e83d 9b1c a0bd 065b 2bbe
00000310: 2911 043d d9d0 d83d 5393 e03d 995a 3dbd
00000320: ac60 19be a3c8 863d 7d2f f63c fb6a 82be
00000330: 5b73 ac3c bda4 3c3d 1b5d 3f3e fe70 753e
00000340: 2784 853d e54d ecbc a204 41bd 733c 193d
00000350: a1ea 0c3e 1f1b 99bd d7cd 40bd 6c39 a73d
00000360: 84d0 7abd 3c2c 2f3d ed28 52bd 1e53 213d
00000370: cb64 203d 9c4b 4cbd 1a12 51bd bb54 b2bd
00000380: 7aa1 363c 6889 243d ea23 803d c3cf 81bd
00000390: 9c5f a7bd 23b0 72bc 25fb 49bd 175a adbd
000003a0: 7a93 f23b 6767 10be b1d4 3c3e b45c 94bd
000003b0: 95e3 34be 13b5 cebd aee7 b93d 8cdf 243e
000003c0: d341 383e cf6b 87bb ba23 dbbc f5a2 68be
000003d0: 5f74 843b 2664 a63d 2607 afbd 6fae 183d
000003e0: a36b 31bc ee07 923d ae67 1d3c aff6 173e
000003f0: 4df3 6a3d e1bf ea3d cd96 31bd 2b5c c1bd
-0.05873154 0.257959 0.11235163 0.03959457 -0.031190008 -0.004375473 0.10385619 -0.12524728
0.034894694 0.042820845 0.0027751522 0.04739509 0.15020776 -0.016195418 -0.038050048 0.042839073
-0.089008704 -0.03305217 -0.02927219 -0.04577151 0.15863965 0.0413576 0.030416 0.042809144
-0.047883246 -0.07682357 -0.068583846 0.15733701 -0.09312788 -0.05603349 -0.10568365 0.003400513
-0.082488604 0.17113416 -0.023097873 -0.12275767 0.23901483 -0.010632105 -0.002615806 0.11264766
0.10502984 0.0036474667 0.048890125 0.13895527 -0.050885815 -0.016637236 -0.03778284 0.0381556
-0.031720996 -0.039170228 0.038760997 0.20682856 -0.13606034 -0.046649862 -0.097349405 0.24200223
-0.019630827 -0.058426253 -0.08646278 -0.032980252 -0.008407885 0.17278944 0.04427906 0.056963522
-0.21108873 0.03051819 0.090495445 0.12249031 -0.00085098617 0.035796955 0.050033435 -0.0147639
0.029786639 0.049499083 0.0025596987 -0.063477226 0.16477947 -0.046411976 -0.15345193 -0.13341334
0.071250424 -0.04611685 -0.10156986 -0.094544664 -0.121831 0.037585255 0.02374669 -0.05037634
0.036410727 0.004660086 -0.03857814 -0.1353689 -0.16492034 0.14988796 -0.09755796 -0.105537295
-0.05729422 -0.03270991 -0.1309648 -0.04644851 0.005610339 0.022991983 -0.053220794 0.09537769
0.1305863 -0.01249012 0.020394225 -0.05413822 -0.022836817 0.024416486 -0.2558539 -0.0066489
0.16143596 0.10123678 0.04155242 -0.10681628 -0.014990858 -0.043873433 0.10177891 0.023496997
0.08269894 0.022877073 0.092452906 0.08142864 0.008275899 -0.06520355 0.050178975 -0.035936736
-0.034147292 0.0764024 0.06992668 0.058545526 -0.016962277 0.08885515 -0.22569335 0.10453665
-0.059680298 -0.10622163 -0.04349924 0.024462916 0.09183235 0.005342288 0.0940635 0.118125394
0.014563992 -0.1359986 -0.14388393 0.10544372 -0.15816966 0.046428446 -0.08316165 -0.15108104
0.07566445 -0.055764057 -0.009436065 0.028450256 0.037357595 -0.1135498 0.04025091 0.091571316
-0.043294866 -0.1894077 -0.021909293 0.11536924 -0.056409117 0.22665796 0.04029371 0.030533247
-0.08844551 0.055397812 0.15830386 -0.21214092 -0.082820326 0.08784404 0.15062368 0.13226897
-0.13228694 0.13216613 0.098399624 -0.044910796 0.054545403 -0.060018286 0.048765328 -0.04517348
-0.022557665 -0.027667662 -0.24601412 0.12217566 -0.017087234 0.030425007 0.08859631 -0.1132334
-0.007681123 0.11335176 -0.07817956 -0.16733941 0.032242928 0.105867095 0.109656 -0.04622898
-0.14978284 0.06581237 0.030051941 -0.25472245 0.0210511 0.046055544 0.1868786 0.23968884
0.06519347 -0.028845737 -0.04712356 0.037411164 0.13761379 -0.07475876 -0.047071304 0.08165249
-0.061234012 0.042766795 -0.05130856 0.039385907 0.039158624 -0.049876794 -0.051042654 -0.08707567
0.011146897 0.040170103 0.0625685 -0.063384555 -0.08172533 -0.014812502 -0.049311776 -0.08464449
0.0074028345 -0.14101945 0.1844051 -0.07244244 -0.1766494 -0.10093131 0.090773925 0.16100901
0.1799386 -0.004132725 -0.026750434 -0.22718413 0.004042193 0.081245705 -0.08546285 0.037275728
-0.010828885 0.07130419 0.009607239 0.14840196 0.057360936 0.11462379 -0.043356705 -0.09441408

bias f4 [12]
00000000: ab94 82bd b5ef 9dbd 67d8 013e 8f85 8d3d
00000010: 2397 34be cc32 343d 33be a8bd 2946 5cbc
00000020: b4e3 4fbd 5981 8b3b 819d 43be 4bca 00bc
-0.063760124 -0.07711736 0.12680207 0.0691024 -0.17635779 0.043993756 -0.082394026 -0.013444462
-0.050754264 0.004257363 -0.19103052 -0.00786073
