actor_model/actor_1000.pt (torch, 99203 bytes, 6 tensors)

weight f4 [128, 34]
0.081458166 -0.04322037 -0.11104806 0.49542344 -0.05811854 0.03621302 -0.01861787 0.07923154
-0.27413437 -0.018014502 0.22322614 0.19474444 0.1470147 0.16968325 0.121686034 0.07685307
0.00043098757 -0.026625816 0.12574111 0.0073082205 -0.05068591 0.073383324 0.20009078 -0.1573167
-0.056628007 -0.24312934 0.27345812 -0.06394555 0.047119055 0.018264646 -0.27995023 0.056750435
0.18732716 0.107838735 0.052038513 0.13874556 0.12212819 0.095919415 -0.14151184 -0.08167762
-0.04188296 0.38651064 0.18364978 -0.0058690296 -0.25243145 0.039948527 0.07930803 0.056800924
0.15894975 0.020146903 0.14665471 0.10124058 0.06636637 -0.019396221 -0.09284212 -0.038016245
0.060215708 -0.02734987 -0.04714809 -0.16802369 0.041701183 0.040483903 0.19593711 0.11601331
0.203944 -0.12893358 -0.062723994 -0.00957705 0.16815607 -0.033398665 -0.09540988 -0.20989469
-0.06611185 -0.09982827 -0.015944127 0.08313098 -0.08935187 0.029103523 0.16267018 0.16861612
-0.06801289 0.045269113 0.14981747 0.22544996 -0.029861156 0.061787426 0.049308624 -0.15697844
0.23023507 -0.0772238 -0.024167022 -0.012347214 0.017570324 -0.086690575 0.12021349 0.07109103
0.095464505 0.06508378 0.08889874 -0.24287458 0.06915639 0.091098964 -0.29223743 0.18204321
-0.020284344 0.1275077 -0.14202961 -0.1011652 0.06332059 0.028102145 0.18543543 0.07998549
0.33676514 -0.085026406 -0.19131358 0.0021542027 0.1678748 -0.021619745 -0.023742372 0.103937894
0.09747712 0.06954854 0.16121046 -0.053108763 -0.08850616 -0.07749834 -0.023790222 -0.09201647
0.020393642 -0.019688707 0.017220018 0.031889133 -0.051758822 0.23004909 -0.15903544 -0.114259936
-0.04784173 0.058861393 -0.07050812 0.2138782 -0.050452773 -0.013026196 0.034078076 -0.123542406
0.032057565 0.1717978 0.21559522 -0.293745 0.051916264 -0.07893362 -0.038229194 0.21487759
-0.0018100202 0.13211586 0.18656372 -0.09838221 -0.10905393 -0.0067699063 -0.026875643 -0.03783377
-0.10925928 0.0127301095 -0.10257922 -0.05534924 0.0881202 -0.16129197 0.08866459 0.0060875528
-0.14775035 0.024487454 0.056233007 -0.021164304 0.09541699 -0.0494111 0.07597571 0.06845676
0.0929362 0.12704065 0.016467664 0.14679118 -0.27905706 0.046692517 -0.11117158 -0.11425222
0.23235162 -0.14384957 0.028685171 -0.02735422 0.08474033 -0.27481952 0.09794371 -0.09607493
0.054500032 -0.14899123 -0.029355705 0.17521888 0.09512144 0.1923449 -0.1734421 0.007050178
-0.054161143 0.04762627 0.04200298 0.26447853 0.21727061 -0.08047312 0.1746268 -0.17156638
-0.11417163 0.15617014 0.031099563 -0.14336003 -0.08436464 -0.13978623 -0.17443714 0.06691306
0.06866414 0.11395658 -0.13302475 0.15150572 -0.03680537 -0.1347784 0.0038912199 -0.15635747
0.12859833 -0.04790746 -0.10077853 -0.12314388 -0.35092378 0.10574289 0.1616503 -0.05419224
0.0006356997 0.14266634 0.016424308 -0.0021757528 -0.014403247 -0.062672034 -0.18662299 -0.077528924
-0.16824532 0.33846518 0.09641403 0.1295873 -0.16422993 0.17692587 0.016759891 0.11860663
0.17373206 -0.2035281 0.1579442 0.009414165 -0.014675254 0.13349259 0.08611977 0.072190136
00000000: 8ad3 a63d d807 31bd 2a6d e3bd 24a8 fd3e
00000010: b50d 6ebd 1b54 143d 8184 98bc 2544 a23d
00000020: 575b 8cbe 2693 93bc 6595 643e 166b 473e
00000030: 068b 163e 72c1 2d3e 8736 f93d 2465 9d3d
00000040: 2cf6 e139 621e dabc 47c2 003e cc79 ef3b
00000050: 079c 4fbd ff49 963d 99e4 4c3e a117 21be
00000060: c5f2 67bd e6f6 78be b402 8c3e e2f5 82bd
00000070: e9ff 403d bd9f 953c a355 8fbe 2573 683d
00000080: b1d2 3f3e 8eda dc3d 5626 553d 5113 0e3e
00000090: 581e fa3d 6671 c43d 7be8 10be 9946 a7bd
000000a0: 778d 2bbd b9e4 c53e b00e 3c3e fd50 c0bb
000000b0: b23e 81be 11a1 233d 406c a23d 16a8 683d
000000c0: b9c3 223e 1e0b a53c a72c 163e 3957 cf3d
000000d0: 17eb 873d d3e4 9ebc 0224 bebd ecb6 1bbd
000000e0: bfa4 763d d60c e0bc 5b1e 41bd 670e 2cbe
000000f0: dcce 2a3d 73d2 253d bda3 483e 6398 ed3d
00000100: b2d6 503e 2a07 04be 7075 80bd 0fe9 1cbc
00000110: 1b31 2c3e 0acd 08bd 4166 c3bd a2ee 56be
00000120: a665 87bd c472 ccbd 429d 82bc 9340 aa3d
00000130: 1dfe b6bd 836a ee3c 0393 263e b4a9 2c3e
00000140: 584a 8bbd 1b6c 393d c069 193e 5bdc 663e
00000150: 629f f4bc d014 7d3d d7f7 493d f5be 20be
00000160: bec2 6b3e 8327 9ebd ebf9 c5bc f84b 4abc
00000170: a4ef 8f3c d48a b1bd 7e32 f63d 2d98 913d
00000180: e582 c33d a54a 853d 8b10 b63d 1db4 78be
00000190: dea1 8d3d 1892 ba3d 25a0 95be 8969 3a3e
000001a0: 5a2b a6bc 6191 023e 3670 11be b32f cfbd
000001b0: 3aae 813d 7836 e63c c9e2 3d3e 6fcf a33d
000001c0: 7b6c ac3e 5322 aebd b5e7 43be 862d 0d3b
000001d0: 5fe7 2b3e e41b b1bc 5d7f c2bc 64dd d43d
000001e0: 16a2 c73d 776f 8e3d 5b14 253e 9388 59bd
000001f0: b842 b5bd 73b7 9ebd b6e3 c2bc 2273 bcbd
00000200: 9110 a73c 364a a1bc ff10 8d3c 2e9e 023d
00000210: 0f01 54bd fd91 6b3e 30da 22be 1d01 eabd
00000220: b1f5 43bd a518 713d 9066 90bd e302 5b3e
00000230: 91a7 4ebd d36b 55bc 7495 0b3d cd03 fdbd
00000240: cb4e 033d c3eb 2f3e fec4 5c3e bf65 96be
00000250: 26a6 543d f3a7 a1bd 3796 1cbd df08 5c3e
00000260: 333e edba 6149 073e 8f0a 3f3e 9d7c c9bd
00000270: ab57 dfbd 17d6 ddbb 4f2a dcbc 95f7 1abd
00000280: 54c3 dfbd f391 503c 0e15 d2bd e2b5 62bd
00000290: 5d78 b43d b929 25be c895 b53d 187a c73b
000002a0: de4b 17be ea99 c83c 9554 663d c360 adbc
000002b0: fc69 c33d 4b63 4abd 2799 9b3d 0f33 8c3d
000002c0: 5655 be3d f216 023e 32e7 863c 6d50 163e
000002d0: 91e0 8ebe a740 3f3d edad e3bd 11fd e9bd
000002e0: 95ed 6d3e 4d4d 13be 2afd ea3c f515 e0bc
000002f0: 578c ad3d 25b5 8cbe b696 c83d efc2 c4bd
00000300: 6d3b 5f3d 2891 18be 607b f0bc 946c 333e
00000310: 08cf c23d 10f6 443e ce9a 31be 2e05 e73b
00000320: 13d8 5dbd c413 433d 510b 2c3d bb69 873e
00000330: 307c 5e3e 17cf a4bd 5ed1 323e 19af 2fbe
00000340: d1d2 e9bd 11eb 1f3e 83c4 fe3c f9cc 12be
00000350: 5ec7 acbd 1f24 0fbe a69f 32be b709 893d
00000360: c99f 8c3d 1162 e93d a437 08be 5124 1b3e
00000370: 3ac1 16bd 5903 0abe d603 7f3b 2c1c 20be
00000380: 48af 033e 9d3a 44bd f964 cebd dc32 fcbd
00000390: 48ac b3be ba8f d83d a887 253e aff8 5dbd
000003a0: 16a5 263a 2017 123e 458c 863c 1397 0ebb
000003b0: 99fb 6bbc 325a 80bd 191a 3fbe 7cc7 9ebd
000003c0: 8048 2cbe 4f4b ad3e b874 c53d 88b2 043e
000003d0: e42b 28be 0e2c 353e 0a4c 893c 08e8 f23d
000003e0: d1e6 313e ac69 50be 20bc 213e df3d 1a3c
000003f0: 7a70 70bc 48b2 083e 905f b03d 6cd8 933d

bias f4 [128]
0.06485948 0.058193862 -0.2450169 0.17679974 0.0006043849 -0.13584675 -0.16004446 -0.0035248133
0.06088193 0.1670288 -0.16505241 -0.080531 0.21762834 -0.17688723 0.1520111 -0.08035189
0.023905395 0.12041787 -0.114523105 0.15160963 0.007914041 0.08140464 -0.08967022 -0.019071385
-0.10374013 -0.025858736 0.09121699 -0.14230795 -0.123458594 -0.11063084 -0.20064099 -0.11052003
0.1354589 -0.042230617 -0.16416107 -0.054111425 0.16401938 0.1242433 -0.0058734356 -0.13713613
-0.09568331 0.1771467 0.07532613 -0.029578993 -0.059178323 0.14907628 0.14582151 -0.1020176
0.1631674 0.19292578 -0.14428867 -0.11577779 0.17967656 0.12609774 -0.05120797 -0.13843393
0.07762647 -0.020545697 -0.15349293 0.09365463 -0.08012758 -0.1485874 0.06300052 -0.034844067
0.011466675 0.08269796 0.14962696 -0.07138227 0.08293712 -0.07692963 0.20620781 -0.20259665
-0.061207786 0.08955705 0.24232444 0.18892466 0.008150808 -0.061559763 -0.08639367 -0.10188932
-0.08954906 -0.0209933 -0.02666844 -0.032542117 0.13465655 -0.06531439 -0.10501423 -0.22695862
0.19695818 -0.14637809 -0.15425088 -0.07235106 -0.068807825 -0.029996604 -0.071253136 -0.22018182
0.00067364506 -0.03830137 -0.13681513 -0.117284626 0.15637878 0.07268997 0.04288553 0.073657416
0.22347492 0.26133662 -0.03381563 -0.12200519 -0.033737153 0.08315631 0.215067 8.604011e-05
-0.09663612 -0.050657805 0.23344539 -0.10916277 0.0632086 -0.04962507 -0.06314334 -0.12523971
0.20043539 0.20200744 -0.028482039 -0.15499662 0.20275095 0.20534816 0.043302074 -0.006961051
00000000: 0cd5 843d b05c 6e3d b6e5 7abe fe0a 353e
00000010: 966f 1e3a 691b 0bbe b2e2 23be 8e00 67bb
00000020: 555f 793d 9909 2b3e 8003 29be 70ed a4bd
00000030: f7d9 5e3e ed21 35be cca8 1b3e 888f a4bd
00000040: 3fd5 c33c a59d f63d 178b eabd 8e3f 1b3e
00000050: e5a9 013c 7ab7 a63d 05a5 b7bd 983b 9cbc
00000060: b575 d4bd b3d5 d3bc f9cf ba3d 2db9 11be
00000070: dcd7 fcbd 6c92 e2bd d574 4dbe 5358 e2bd
00000080: bdb5 0a3e 03fa 2cbd d719 28be f1a3 5dbd
00000090: b2f4 273e 4573 fe3d f375 c0bb 6a6d 0cbe
000000a0: 9cf5 c3bd f265 353e 9644 9a3d a54f f2bc
000000b0: f864 72bd 74a7 183e 3c52 153e 9aee d0bd
000000c0: 5b15 273e 568e 453e 69c0 13be e81c edbd
000000d0: 22fd 373e c41f 013e 73bf 51bd a0c1 0dbe
000000e0: a0fa 9e3d 734f a8bc 402d 1dbe 00ce bf3d
000000f0: ee19 a4bd 4c27 18be 6b06 813d a7b8 0ebd
00000100: b9de 3b3c 8c5d a93d cf37 193e de30 92bd
00000110: f0da a93d 488d 9dbd 2428 533e 7f75 4fbe
00000120: 04b5 7abd b069 b73d e623 783e 7775 413e
00000130: f78a 053c 1726 7cbd 2aef b0bd 59ab d0bd
00000140: 7f65 b7bd 24fa abbc c677 dabc e24a 05bd
00000150: 68e3 093e 8dc3 85bd b311 d7bd d767 68be
00000160: 68af 493e 23e4 15be f1f3 1dbe cb2c 94bd
00000170: 1eeb 8cbd 70bb f5bc 2aed 91bd 5877 61be
00000180: 8e97 303a e6e1 1cbd 4419 0cbe ec32 f0bd
00000190: c221 203e 7bde 943d bda8 2f3d b3d9 963d
000001a0: 9cd6 643e eacd 853e 4282 0abd dbdd f9bd
000001b0: f82f 0abd db4d aa3d 863a 5c3e 6f70 b438
000001c0: 28e9 c5bd 8f7e 4fbd 4f0c 6f3e bb90 dfbd
000001d0: 8373 813d a843 4bbd 4c51 81bd d73e 00be
000001e0: ef3e 4d3e 0adb 4e3e 2a53 e9bc 6fb7 1ebe
000001f0: f29d 4f3e ca46 523e 845d 313d 8719 e4bb

weight f4 [128, 128]
0.006872418 -0.23203756 -0.04554432 0.050288107 -0.014882214 -0.13302392 0.14845729 0.24698141
0.041184157 -0.3156319 -0.10920861 -0.08354004 -0.23821609 0.14713584 0.26403967 -0.15424338
-0.13639215 -0.10270114 0.14289391 -0.16022395 0.1676447 -0.106097504 -0.01691109 -0.07238579
-0.0016372246 0.0946913 0.15039548 0.09674283 -0.05478216 -0.059501197 -0.13907723 0.056571834
0.03478463 0.055836838 0.14616267 0.056750774 -0.020799765 -0.26343903 -0.06941941 0.20000336
-0.017316468 0.13222162 -0.14115196 0.17410411 0.1854334 -0.17978051 -0.042849705 -0.03309002
0.008470822 -0.07520524 -0.11010042 0.1173176 -0.15853329 -0.12177833 -0.2159449 -0.052169487
0.0075931223 -0.031168912 0.1966913 0.009271974 -0.104626894 -0.062937334 -0.04207074 -0.12562096
-0.041300602 0.016946068 0.013136359 -0.17516835 -0.21911387 0.09291953 0.06560843 0.10139119
-0.10983286 0.041755542 0.0063869865 0.0038038208 -0.12714161 -0.0748941 0.043657128 -0.029389035
0.14495653 0.01781879 -0.18294723 0.0017534712 0.07863501 0.04813216 -0.13820767 -0.18071483
0.06158964 -0.14148623 0.2574061 0.042228136 -0.15778638 0.051094167 0.039391913 -0.1373205
-0.11776474 0.04084165 -0.085909255 -0.121773764 0.10916247 0.15969685 -0.0921216 -0.1334999
-0.13716038 -0.040203225 -0.24268934 -0.11675384 0.23789997 -0.04516817 -0.00740603 0.04979168
0.112752214 -0.029398374 -0.08748563 -0.22306843 -0.32840157 0.009810255 -0.1405914 -0.07938848
-0.3143173 0.0033696957 -0.022872968 0.07875155 -0.116273545 0.02071254 -0.06102529 -0.036554657
0.20230108 0.037844695 0.0706159 0.020674013 -0.10940221 0.101989314 -0.15629101 0.027447006
0.013397372 -0.10009816 0.056866407 0.03842933 -0.14757854 -0.21551633 0.23148863 0.008854578
-0.19140078 0.15895897 -0.24300376 0.084513 -0.13237874 -5.5579858e-05 0.100512035 -0.07638455
0.06126415 -0.22441517 0.025037631 -0.040258653 -0.002443203 0.15938026 -0.0019571315 0.12702708
-0.1063977 -0.1784767 -0.15379913 0.15738451 -0.06647874 -0.0037093111 -0.26256356 0.07583066
0.006145931 0.036694594 -0.17278202 0.052835807 0.12266071 -0.18960129 0.100508355 0.13591859
-0.18726197 -0.022846987 -0.112799086 0.096284226 -0.08651541 0.0122675365 0.07537125 0.014722659
0.019857379 -0.056759134 -0.15693155 -0.1718771 -0.057893865 0.0008762879 -0.080754794 -0.071954764
0.030366933 -0.11546897 -0.15933089 -0.005250164 -0.10912488 0.06330917 0.07722534 -0.16481535
0.07066056 0.27263248 0.015412732 -0.32284573 0.058359545 -0.014146711 -0.07006637 0.09404796
0.18835123 -0.11730797 -0.16833054 0.0056694825 -0.06516836 -0.019707592 0.102861606 0.05436293
0.14054401 -0.036685895 0.0138235465 0.15932275 -0.02226974 0.06861867 -0.02435572 -0.16500743
0.36087987 -0.11726109 0.12657121 -0.06446076 -0.22524649 -0.05631773 0.24844915 0.08259401
-0.24895488 -0.015237697 0.11844739 0.21989714 0.18647444 0.02330529 -0.16444603 -0.1056858
-0.1450411 -0.17586537 -0.13995333 -0.021035766 0.1652567 0.13502888 -0.0062141465 0.06564484
-0.15665975 0.010201013 -0.06323096 0.2472682 -0.10644529 -0.052588854 0.05907203 0.07936263
00000000: 0532 e13b 419b 6dbe ae8c 3abd e7fa 4d3d
00000010: 88d4 73bc 6c37 08be 3005 183e b2e8 7c3e
00000020: b8b0 283d 819a a1be c4a8 dfbd 0a17 abbd
00000030: ebee 73be c7aa 163e 3530 873e faf1 1dbe
00000040: 62aa 0bbe fa54 d2bd c852 123e bf11 24be
00000050: 0dab 2b3e a649 d9bd 2089 8abc 003f 94bd
00000060: 2498 d6ba 83ed c13d 4601 1a3e 1b21 c63d
00000070: 4263 60bd 87b7 73bd 436a 0ebe deb7 673d
00000080: 547a 0e3d 2bb5 643d abab 153e 8073 683d
00000090: 4564 aabc 7be1 86be c32b 8ebd aecd 4c3e
000000a0: 44db 8dbc 1b65 073e 248a 10be 5948 323e
000000b0: 41e2 3d3e 6218 38be 2c83 2fbd 6789 07bd
000000c0: 34c9 0a3c 3405 9abd 547c e1bd 3644 f03d
000000d0: 8d56 22be eb66 f9bd a920 5dbe acaf 55bd
000000e0: bacf f83b f255 ffbc 7269 493e 7ae9 173c
000000f0: a046 d6bd 4ae5 80bd 5e52 2cbd c8a2 00be
00000100: d22a 29bd 7bd2 8a3c e239 573c 555f 33be
00000110: 635f 60be 984c be3d b65d 863d 2fa6 cf3d
00000120: 0df0 e0bd dc07 2b3d ed49 d13b 8649 793b
00000130: 6931 02be 1462 99bd d1d1 323d 46c1 f0bc
00000140: 7c6f 143e b6f8 913c 8556 3bbe bbd4 e53a
00000150: 640b a13d 3a26 453d 5086 0dbe 4f0d 39be
00000160: 6b45 7c3d c4e1 10be bbca 833e 69f7 2c3d
00000170: c192 21be 1e48 513d 6a59 213d bf9d 0cbe
00000180: a42e f1bd 9349 273d 31f1 afbd 8664 f9bd
00000190: 9390 df3d 9287 233e 40aa bcbd 33b4 08be
000001a0: c573 0cbe 23ac 24bd 8e83 78be a31c efbd
000001b0: 0d9c 733e 4202 39bd 48ae f2bb 5cf2 4b3d
000001c0: a2ea e63d dcd4 f0bc aa2b b3bd 0d6c 64be
000001d0: 4024 a8be 31bb 203c 31f7 0fbe 6d96 a2bd
000001e0: 32ee a0be 1dd6 5c3b 1760 bbbc 7e48 a13d
000001f0: d320 eebd 58ad a93c a8f5 79bd 56ba 15bd
00000200: 0428 4f3e 0a03 1b3d 129f 903d 8c5c a93c
00000210: 440e e0bd c6df d03d c00a 20be 8bd8 e03c
00000220: a780 5b3c 4400 cdbd c0ec 683d 1368 1d3d
00000230: d41e 17be 50b0 5cbe 5b0b 6d3e cb12 113c
00000240: 91fe 43be 24c6 223e fad5 78be 2715 ad3d
00000250: 4b8e 07be 6b1e 69b8 41d9 cd3d 816f 9cbd
00000260: 1ef0 7a3d 17cd 65be b81b cd3c 42e6 24bd
00000270: 251e 20bb 9434 233e 3843 00bb 6313 023e
00000280: 0ae7 d9bd 99c2 36be 857d 1dbe 6829 213e
00000290: 0126 88bd ea17 73bb bb6e 86be 1b4d 9b3d
000002a0: ce63 c93b 124d 163d c5ed 30be 5c6a 583d
000002b0: 8a35 fb3d d726 42be 53d7 cd3d 3e2e 0b3e
000002c0: 9ac1 3fbe 9b29 bbbc 3503 e7bd aa30 c53d
000002d0: fe2e b1bd c7fd 483c 3e5c 9a3d 4f37 713c
000002e0: f1ab a23c 447c 68bd aab2 20be 8d00 30be
000002f0: 1e22 6dbd afb6 653a c562 a5bd 055d 93bd
00000300: 13c4 f83c ff7a ecbd a327 23be 9109 acbb
00000310: dd7c dfbd 3da8 813d 5228 9e3d 5bc5 28be
00000320: 7cb6 903d 7c96 8b3e af85 7c3c 094c a5be
00000330: 6b0a 6f3d 9bc7 67bc f57e 8fbd 389c c03d
00000340: 25df 403e 293f f0bd d75e 2cbe 11c7 b93b
00000350: fd76 85bd d171 a1bc 1ba9 d23d aaab 5e3d
00000360: c5ea 0f3e f343 16bd 287c 623c 8125 233e
00000370: 086f b6bc f287 8c3d a685 c7bc b5f7 28be
00000380: 3fc5 b83e 9526 f0bd e29b 013e 0104 84bd
00000390: 04a7 66be 6cad 66bd 7469 7e3e 0c27 a93d
000003a0: 07ee 7ebe 89a7 79bc 8c94 f23d b72c 613e
000003b0: 28f3 3e3e bcea be3c 8a64 28be cc71 d8bd
000003c0: a785 14be 0d16 34be ed4f 0fbe 3353 acbc
000003d0: 0d39 293e 0345 0a3e 0aa0 cbbb cd70 863d
000003e0: 6a6b 20be 2622 273c 3c7f 81bd e033 7d3e
000003f0: fdff d9bd 6967 57bd 83f5 713d e088 a23d

bias f4 [128]
-0.019328829 -0.035132427 0.07280414 0.0041143955 -0.032297727 0.16059813 -0.06736432 0.058761157
0.00035259922 -0.0067481804 -0.10850124 0.08206737 0.079631 -0.011299933 0.05689352 0.028423576
-0.0060819946 -0.06874047 -0.052595973 0.02007649 -0.106818914 -0.08759136 0.017009579 -0.043574437
0.021966524 -0.019434117 -0.0767654 0.06252692 0.020834165 -0.08494694 -0.04154255 -0.07442855
-0.083330706 0.13224044 0.09266751 -0.034398608 0.08564947 0.028119657 -0.118820876 0.054538667
0.020226054 0.013760664 -0.0815374 0.15217306 -0.023660144 -0.0019461822 0.09046162 0.16254315
-0.02052961 -0.029503437 -0.06297414 -0.019534657 0.09828115 -0.02832163 0.019996783 -0.05401307
0.060757 -0.12744816 0.06145546 -0.028207695 -0.029857816 0.06773923 0.0822716 -0.0498024
-0.043525167 -0.071402855 -0.03827676 -0.031117119 -0.0033827648 0.023616064 -0.11238691 -0.02755336
0.085492946 -0.055238172 0.103992745 -0.0047633797 -0.0063856672 -0.0152166 0.012602123 -0.08153849
-0.0719101 0.04722709 0.0010737949 0.0017900318 0.104546726 0.004311162 -0.03610114 0.04004167
-0.03575303 -0.040851824 0.05751033 -0.05661127 -0.10855914 0.03071067 -0.06283177 -0.07356743
-0.06442263 0.03223948 -0.016964016 -0.02648259 0.15919346 0.07571164 -0.02224142 -0.08872041
-0.032809436 -0.09654196 -0.09755897 0.051912814 -0.040224068 -0.018789053 -0.042427473 -0.07833984
0.10452535 0.018049225 -0.0699151 0.09868413 -0.031899754 -0.10164975 -0.041255884 -0.03510564
-0.09613705 -0.069428585 0.022180602 -0.040605914 0.17555311 -0.072836526 0.015653843 0.0005008984
00000000: 7e57 9ebc 05e7 0fbd 561a 953d 0dd2 863b
00000010: 9f4a 04bd d673 243e 4ef6 89bd 8aaf 703d
00000020: 11dd b839 d71f ddbb e635 debd f012 a83d
00000030: 9415 a33d 5b23 39bc 2e09 693d 8fd8 e83c
00000040: 784b c7bb cec7 8cbd e06e 57bd 7377 a43c
00000050: e0c3 dabd 1963 b3bd ac57 8b3c 1c7b 32bd
00000060: 24f3 b33c 4c34 9fbc 2e37 9dbd 1d0e 803d
00000070: 69ac aa3c a9f8 adbd 8528 2abd ff6d 98bd
00000080: 4aa9 aabd 0a6a 073e 77c8 bd3d 8ee5 0cbd
00000090: fd68 af3d 325b e63c 5c58 f3bd f063 5f3d
000000a0: 1cb1 a53c 6874 613c 15fd a6bd 41d3 1b3e
000000b0: ebd2 c1bc 0a17 ffba f143 b93d b671 263e
000000c0: b62d a8bc 31b1 f1bc 96f8 80bd 2507 a0bc
000000d0: a147 c93d c302 e8bc 4bd0 a33c cf3c 5dbd
000000e0: 55dc 783d c581 02be b8b8 7b3d d313 e7bc
000000f0: 6198 f4bc deba 8a3d 037e a83d 9afd 4bbd
00000100: 7247 32bd a93b 92bd 18c8 1cbd 54e9 febc
00000110: 60b1 5dbb 7a76 c13c 1c2b e6bd 96b7 e1bc
00000120: ed16 af3d 6c41 62bd 26fa d43d 2016 9cbb
00000130: dc3e d1bb 0c4f 79bc 2379 4e3c a7fd a6bd
00000140: 9a45 93bd 3171 413d 94be 8c3a 809f ea3a
00000150: 981c d63d a644 8d3b cade 13bd bc02 243d
00000160: c571 12bd 3e54 27bd f48f 6b3d 38e1 67bd
00000170: 4154 debd f194 fb3c f1ad 80bd 85aa 96bd
00000180: 03f0 83bd 8c0d 043d 1ff8 8abc 04f2 d8bc
00000190: 9c03 233e b40e 9b3d a333 b6bc 0cb3 b5bd
000001a0: 3063 06bd cbb7 c5bd ffcc c7bd 88a2 543d
000001b0: fec1 24bd 80eb 99bc 6ec8 2dbd a370 a0bd
000001c0: 6311 d63d f8db 933c a62f 8fbd e81a ca3d
000001d0: 51a9 02bd be2d d0bd eefb 28bd eeca 0fbd
000001e0: 80e3 c4bd 9330 8ebd 18b4 b53c 6352 26bd
000001f0: 32c4 333e 512b 95bd 7d3c 803c b94e 033a

weight f4 [12, 128]
-0.14439406 0.027074091 -0.20877294 0.17178708 -0.011503434 0.07142408 0.13380782 -0.0062403954
-0.10451388 0.23109953 0.029303908 0.21165355 0.14523092 0.049679127 -0.095500894 -0.1256435
-0.048673425 -0.2312086 -0.10460254 0.05456371 -0.0931872 0.14051746 0.044878144 0.22690244
0.079505295 0.07204738 0.031548023 -0.041152444 0.07833753 -0.18628946 0.067201436 -0.21909703
0.017518856 -0.0011481997 -0.059064157 -0.14451373 0.08182225 0.23579895 0.076201275 -0.10877555
-0.0721894 -0.13938037 -0.2055897 0.15366478 -0.1575803 -0.014770712 0.16308956 -0.18141988
0.103465855 0.1464886 -0.051158473 -0.038829375 0.030304827 0.010890978 0.0071194796 0.20657378
-0.091921814 -0.031539775 0.06701295 -0.22960643 0.113118745 -0.06145642 -0.098237075 0.011309351
0.09195877 0.027809339 0.060916044 0.09849607 -0.040268496 0.12598492 -0.00125305 -0.20641626
0.016860344 0.013511001 0.12918699 -0.09344179 0.16334847 -0.25078157 0.051295165 -0.051025752
0.057755765 -0.062430058 -0.12958057 -0.25725165 -0.031565193 0.042225383 0.0649664 0.038889796
-0.016310222 0.17775802 -0.045937117 -0.15933797 0.019520206 -0.24279839 -0.13143502 0.103491805
-0.037437677 -0.021970665 0.122724965 0.08914467 -0.1516991 0.11741027 -0.008381794 -0.29214758
-0.06173503 0.012824332 0.19666912 0.14691894 -0.10048857 0.096966065 0.08554896 -0.088176765
-0.24894054 0.05902228 -0.17093667 -0.039845828 0.15973864 -0.019552983 -0.01732939 0.12760426
-0.049756657 -0.056625225 0.15058811 -0.16821331 -0.01919092 0.05682339 0.10314824 -0.08085636
-0.16965957 -0.014626263 -0.044489816 -0.07716122 0.014500132 -0.07599253 0.199444 -0.16153157
-0.018977694 -0.046112593 -0.06070849 -0.14653209 0.06189211 -0.15707956 0.060440887 -0.09767853
-0.05749214 0.11711668 0.19840083 0.049747363 -0.016600974 0.07738889 -0.10227621 0.15640354
-0.03483937 0.16220793 -0.110218115 0.12023066 -0.083401375 0.043429 -0.0036325473 0.03605706
0.12867323 -0.090866454 0.022617701 0.064296864 0.04294774 -0.0806293 0.227935 0.02794794
0.015479878 0.0643433 -0.053423658 -0.007105586 0.040707286 -0.0251881 -0.21045008 -0.04860499
0.09935219 -0.05830333 0.055248577 0.053375334 0.26379716 0.22217293 -0.08087283 -0.19296873
-0.13723639 0.16909297 -0.14037609 0.14733282 0.32311532 0.12599671 -0.21667175 -0.115221255
-0.078347735 -0.033883546 -0.05106048 -0.14074604 0.07253175 0.16860975 0.045451984 0.11552172
0.05042992 -0.011808458 -0.1341666 0.033250686 0.022903575 0.021575654 -0.09414025 0.09261605
-0.10856833 0.033607513 0.046187505 -0.07881615 0.039851762 -0.052259166 -0.05834896 0.13698031
-0.019105248 -0.14629006 -0.07248995 0.29154432 0.071553014 0.06127226 -0.12921526 0.15218455
0.18512739 -0.20466773 -0.071227714 -0.008847707 -0.13616776 -0.04718689 0.059925023 -0.04161837
-0.20710966 0.06638611 0.015480508 0.07675667 -0.029052524 0.0011559727 -0.059235543 -0.026094088
-0.047303226 -0.049553648 0.1353546 -0.17177981 -0.014173634 0.17538968 -0.123073936 0.06912031
0.013774426 -0.033958577 -0.24575594 -0.010360948 -0.13475884 -0.0079085985 0.23537832 -0.21761328
00000000: 09dc 13be 7cca dd3c 93c8 55be f4e8 2f3e
00000010: e678 3cbc ca46 923d eb04 093e 3b7c ccbb
00000020: 600b d6bd 5ba5 6c3e c00e f03c b5bb 583e
00000030: 6ab7 143e 577c 4b3d f995 c3bd b1a8 00be
00000040: c95d 47bd f2c1 6cbe db39 d6bd 327e 5f3d
00000050: eed8 bebd cfe3 0f3e 25d2 373d 1d59 683e
00000060: acd3 a23d 948d 933d 8038 013d 778f 28bd
00000070: 6d6f a03d aac2 3ebe e8a0 893d f95a 60be
00000080: b483 8f3c 307f 96ba 42ed 71bd 68fb 13be
00000090: 6c92 a73d 4875 713e 6a0f 9c3d b7c5 debd
000000a0: 09d8 93bd bab9 0ebe 1b86 52be 4d5a 1d3e
000000b0: bb5c 21be db00 72bc f300 273e 22c6 39be
000000c0: e8e5 d33d 1c01 163e 8c8b 51bd 8d0b 1fbd
000000d0: d441 f83c 1370 323c 864a e93b 1488 533e
000000e0: 8141 bcbd da2f 01bd 163e 893d f31d 6bbe
000000f0: cdaa e73d bab9 7bbd 8530 c9bd db4a 393c
00000100: e154 bc3d 69d0 e33c 1a83 793d 4fb8 c93d
00000110: 94f0 24bd 3102 013e 623d a4ba c95e 53be
00000120: b41e 8a3c 3f5d 5d3c 9849 043e 695e bfbd
00000130: d244 273e 7166 80be e11a 523d 6100 51bd
00000140: 4f91 6c3d a9b6 7fbd c5b0 04be 7db6 83be
00000150: 814a 01bd 86f4 2c3d 1b0d 853d e84a 1f3d
00000160: 049d 85bc 3306 363e 8f28 3cbd 7e29 23be
00000170: d7e8 9f3c 24a0 78be e796 06be 83f3 d33d
00000180: 4058 19bd d3fb b3bc 3a57 fb3d 7b91 b63d
00000190: 0257 1bbe cc74 f03d cb53 09bc 5e94 95be
000001a0: dfdd 7cbd 261d 523c a163 493e eb71 163e
000001b0: f4cc cdbd 2596 c63d 4b34 af3d 0596 b4bd
000001c0: 45ea 7ebe 59c1 713d 060a 2fbe 6135 23bd
000001d0: 8792 233e 942d a0bc 5df6 8dbc b1aa 023e
000001e0: a3cd 4bbd daef 67bd c533 1a3e 1c40 2cbe
000001f0: 4736 9dbc a5bf 683d 623f d33d 0598 a5bd
00000200: 3dbb 2dbe fea2 6fbc f43a 36bd b406 9ebd
00000210: f691 6d3c f9a1 9bbd 0c3b 4c3e 8868 25be
00000220: 1c77 9bbc 8fe0 3cbd 77a9 78bd 820c 16be
00000230: 9582 7d3d 77d9 20be dd90 773d ae0b c8bd
00000240: e17c 6bbd dfda ef3d 9629 4b3e e4c3 4b3d
00000250: c4fe 87bc 117e 9e3d 3176 d1bd 4028 203e
00000260: bab3 0ebd d619 263e 09ba e1bd 7e3b f63d
00000270: 57ce aabd 9be2 313d 0810 6ebb 91b0 133d
00000280: eac2 033e 3118 babd c248 b93c 13ae 833d
00000290: f8e9 2f3d f920 a5bd cb67 693e 14f3 e43c
000002a0: 509f 7d3c 6cc6 833d c4d2 5abd fad5 e8bb
000002b0: afbc 263d 4657 cebc 3a80 57be 0716 47bd
000002c0: 2979 cb3d 79cf 6ebd 554c 623d 18a0 5a3d
000002d0: 6c10 873e 4d81 633e a7a0 a5bd 9899 45be
000002e0: b287 0cbe b526 2d3e c0be 0fbe 6ade 163e
000002f0: 5f6f a53e 4805 013e 33df 5dbe 1ff9 ebbd
00000300: c774 a0bd 79c9 0abd cb24 51bd bb1f 10be
00000310: 878b 943d 09a8 2c3e dc2b 3a3d a796 ec3d
00000320: 9b8f 4e3d 4378 41bc f862 09be df31 083d
00000330: 47a0 bb3c 6dbf b03c 9acc c0bd 7cad bd3d
00000340: 1359 debd 08a8 093d 1c2f 3d3d 5d6a a1bd
00000350: 9a3b 233d b50d 56bd 52ff 6ebd 9144 0c3e
00000360: 9c82 9cbc 10cd 15be 9c75 94bd 4c45 953e
00000370: 638a 923d 9ff8 7a3d 0151 04be 44d6 1b3e
00000380: 0992 3d3e 6b94 51be d6df 91bd f9f5 10bc
00000390: 906f 0bbe 0a47 41bd f173 753d 0678 2abd
000003a0: 8e14 54be 71f5 873d f5a1 7d3c 9a32 9d3d
000003b0: 8fff edbc 0284 973a f8a0 72bd 45c3 d5bc
000003c0: 07c1 41bd c4f8 4abd 659a 0a3e 0ce7 2fbe
000003d0: 8838 68bc 5a99 333e 300e fcbd f38e 8d3d
000003e0: 21ae 613c 2618 0bbd 72a7 7bbe f7c0 29bc
000003f0: 39fe 09be 1193 01bc 0407 713e 04d6 5ebe

bias f4 [12]
-0.038290862 0.01383693 0.054900456 -0.020271704 0.060152363 -0.061750315 0.12848102 0.061656255
-0.041682817 -0.03919273 0.001411425 -0.03592693
00000000: e1d6 1cbd 4ab4 623c 4ddf 603d d810 a6bc
00000010: 5362 763d e6ed 7cbd 8790 033e 458b 7c3d
00000020: 9abb 2abd 8e88 20bd 90ff b83a 1e28 13bd
