actor_model/actor_100.pt (torch, 89964 bytes, 6 tensors)

weight f4 [128, 16]
-0.08448261 0.027808862 0.03940939 -0.11044396 -0.1827272 0.079157285 0.054938458 0.060501
-0.15644044 0.050302677 0.008325989 0.054347966 0.08153711 -0.14892186 -0.08179218 -0.04903933
-0.12227369 0.07064383 0.19919679 -0.10832008 0.041394986 0.22745958 -0.002389296 -0.028213248
-0.07847466 -0.09851437 -0.064814515 -0.03469279 -0.10194042 -0.15070255 -0.04695153 -0.15875712
-0.07181993 0.08906182 -0.16346227 0.31342322 0.0651015 0.03543424 -0.25487983 0.11161644
0.03580568 -0.12419109 0.107757896 -0.034702715 -0.32390416 0.13183902 -0.18077365 0.07352626
-0.09166809 0.24314614 0.11513188 0.11422973 0.40809894 -0.101665854 0.25427714 0.086098805
0.040939435 0.05821582 0.10631855 -0.09697778 -0.03325375 0.013965338 0.0891667 0.06765441
-0.024259701 -0.12881432 0.13945359 0.17111927 0.15828958 0.18388426 -0.1097395 0.11598836
0.1366686 -0.026422169 0.17206667 -0.25773457 0.32561094 -0.10086581 -0.17828181 -0.09284383
0.009942135 -0.029152753 0.023097059 -0.10662426 -0.0760187 -0.0377968 -0.0005403289 -0.26345366
-0.14365926 -0.0031137208 0.018628094 -0.104811035 0.11303464 -0.19225886 -0.21281154 -0.2321719
-0.15183888 -0.17169692 -0.08163947 0.13704449 -0.07111652 0.13402538 -0.097519 0.065992765
-0.031304587 0.13308099 0.20382786 -0.05583386 -0.054046914 0.14145677 -0.14445108 -0.14078167
0.16957894 0.2193619 -0.04360865 -0.04512616 -0.038017735 -0.013945511 0.011582942 -0.081577025
0.2036543 0.14582387 -0.09198955 0.008952336 -0.13818076 -0.03702877 -0.18289334 -0.035342924
0.08552062 -0.08404222 0.029196216 0.057255358 -0.047136895 -0.08961914 -0.0058549093 0.05781759
0.03205871 -0.13649459 -0.031079354 0.0723473 -0.12653252 -0.049460936 0.2087566 -0.11486696
-0.15325804 0.15136479 -0.06674631 0.08611886 0.015490259 -0.20333074 -0.09816704 -0.07381951
0.06258713 -0.07622476 -0.07102635 0.001878016 0.088814326 -0.21136083 -0.0052637784 0.12709075
0.1250903 -0.00399465 -0.16556801 -0.029442837 0.10920932 -0.06881683 0.077584915 -0.03192235
0.18825105 0.07021148 -0.08652532 0.07213521 0.04088966 0.41554248 -0.19104435 -0.1555171
0.06487618 0.15379171 -0.08271953 -0.11735295 0.03154869 0.008775303 0.026189948 0.20658019
-0.22423407 -0.18037675 -0.044766586 -0.055358715 -0.14792728 -0.10232433 0.10462329 -0.10450561
-0.11716588 0.086264536 0.23334411 -0.07059299 0.09313766 -0.002820606 -0.014085013 0.010768435
0.0030095733 0.027928317 -0.01645839 -0.18484719 0.09409657 0.16656621 0.045139752 -0.091219336
-0.082229726 0.121108346 0.20311962 -0.039382156 -0.1809167 -0.11658456 0.08275252 0.103951335
0.17870252 -0.048324954 -0.113206744 -0.107682556 -0.1542321 -0.06067577 -0.12198693 0.015799621
0.018149512 -0.04834145 -0.059145577 -0.062322587 -0.10223088 0.06877422 0.23209517 0.06209136
0.0043351166 -0.0076090423 0.032758705 0.115258515 0.041690413 0.13954945 -0.10134782 0.09597922
-0.03887384 -0.007063052 -0.08753031 0.15249436 0.20185292 -0.10421731 0.00990114 0.017358413
-0.0063047432 -0.1234382 -0.13216467 0.07431184 -0.031891696 -0.04579892 -0.0008990039 -0.21763802
00000000: 3805 adbd 69cf e33c be6b 213d 7130 e2bd
00000010: d71c 3bbe 371d a23d 2607 613d e6cf 773d
00000020: ec31 20be 2e0a 4e3d bb69 083c f99b 5e3d
00000030: eefc a63d f97e 18be a982 a7bd 77dd 48bd
00000040: a16a fabd b6ad 903d 3efa 4b3e ebd6 ddbd
00000050: ca8d 293d 2aeb 683e bc95 1cbb 781f e7bc
00000060: 53b7 a0bd e7c1 c9bd 79bd 84bd 071a 0ebd
00000070: 24c6 d0bd c551 1abe 3f50 40bd 3a91 22be
00000080: 5416 93bd 0b66 b63d a762 27be 0279 a03e
00000090: ef53 853d 7e23 113d 9c7f 82be 2997 e43d
000000a0: faa8 123d e657 febd 2cb0 dc3d 6f24 0ebd
000000b0: c4d6 a5be cf00 073e ba1c 39be f094 963d
000000c0: 7bbc bbbd 4dfb 783e 43ca eb3d 47f1 e93d
000000d0: 58f2 d03e 3036 d0bd 9d30 823e 9254 b03d
000000e0: 1cb0 273d b673 6e3d 8abd d93d 499c c6bd
000000f0: 1635 08bd dfce 643c 089d b63d 658e 8a3d
00000100: 48bc c6bc e7e7 03be eccc 0e3e e439 2f3e
00000110: aa16 223e 284c 3c3e 1abf e0bd 4e8b ed3d
00000120: daf2 0b3e 4e73 d8bc 3f32 303e c9f5 83be
00000130: 7ab6 a63e bc92 cebd 828f 36be e824 bebd
00000140: 56e4 223c c1d1 eebc 0b36 bd3c d25d dabd
00000150: b1af 9bbd d1d0 1abd dca4 0dba 66e3 86be
00000160: 6a1b 13be 910f 4cbb f299 983c 2ba7 d6bd
00000170: b57e e73d 82df 44be 45eb 59be 78be 6dbe
00000180: a77b 1bbe 51d1 2fbe 9832 a7bd 6455 0c3e
00000190: 8aa5 91bd f33d 093e 0bb8 c7bd 3727 873d
000001a0: 3d39 00bd 6246 083e 40b8 503e 0cb2 64bd
000001b0: 4c60 5dbd 0bda 103e fcea 13be 1229 10be
000001c0: 1aa6 2d3e 68a0 603e fc9e 32bd 35d6 38bd
000001d0: 7cb8 1bbd b67b 64bc 61c6 3d3c db11 a7bd
000001e0: c18a 503e da52 153e 0465 bcbd d2ac 123c
000001f0: 427f 0dbe 7bab 17bd 6448 3bbe bec3 10bd
00000200: 6f25 af3d 541e acbd e72c ef3c 9884 6a3d
00000210: 9e12 41bd 3d8a b7bd 8ada bfbb 23d2 6c3d
00000220: fe4f 033d 3dc5 0bbe 219a febc d22a 943d
00000230: be91 01be 8d97 4abd 4ac4 553e 5e3f ebbd
00000240: adef 1cbe 5fff 1a3e 4ab2 88bd 165f b03d
00000250: dbca 7d3c ef35 50be cd0b c9bd af2e 97bd
00000260: ae2d 803d ba1b 9cbd 4376 91bd c327 f63a
00000270: 49e4 b53d f96e 58be c67b acbb 1424 023e
00000280: ac17 003e 8ee5 82bb a98a 29be 1b32 f1bc
00000290: 23a9 df3d d7ef 8cbd d7e4 9e3d 03c1 02bd
000002a0: e2c4 403e 09cb 8f3d 3034 b1bd a0bb 933d
000002b0: eb7b 273d fcc1 d43e 21a1 43be e03f 1fbe
000002c0: cddd 843d 937b 1d3e db68 a9bd be56 f0bd
000002d0: 3339 013d 4ac6 0f3c 4d8c d63c c289 533e
000002e0: 9e9d 65be afb4 38be 2b5d 37bd d2bf 62bd
000002f0: 407a 17be 6b8f d1bd bc44 d63d 0a07 d6bd
00000300: aaf4 efbd 76ab b03d c2f1 6e3e 0f93 90bd
00000310: f5be be3d ebd9 38bb d4c4 66bc 176e 303c
00000320: 433c 453b edc9 e43c bfd3 86bc 9548 3dbe
00000330: b4b5 c03d 5590 2a3e 76e4 383d 34d1 babd
00000340: 0f68 a8bd a707 f83d 97fe 4f3e 2f4f 21bd
00000350: 3a42 39be e3c3 eebd 277a a93d 70e4 d43d
00000360: cbfd 363e 63f0 45bd f0d8 e7bd ac88 dcbd
00000370: 05ef 1dbe 2887 78bd 49d4 f9bd 356e 813c
00000380: 49ae 943c af01 46bd a242 72bd f845 7fbd
00000390: 6c5e d1bd 80d9 8c3d 5baa 6d3e 8353 7e3d
000003a0: 980d 8e3b 4655 f9bb fe2d 063d a80c ec3d
000003b0: 91c3 2a3d 0de6 0e3e 728f cfbd c190 c43d
000003c0: 2d3a 1fbd 2d71 e7bb 1743 b3bd 7b27 1c3e
000003d0: 88b2 4e3e e36f d5bd 6438 223c 3b33 8e3c
000003e0: 0598 cebb 2bcd fcbd 2d56 07be ce30 983d
000003f0: dea0 02bd a697 3bbd 21ab 6bba 80dc 5ebe

bias f4 [128]
-0.07442741 0.11711536 0.11381894 0.07499972 0.26696995 0.27879137 0.14915596 -0.1818156
-0.0988831 0.16491392 -0.060143992 -0.23933107 -0.18864265 0.04006379 -0.07775005 0.15852548
-0.16517438 0.18120368 0.22120966 -0.028184853 0.152111 0.030754372 -0.23759657 -0.061433583
-0.248486 -0.16903871 0.25215134 0.04775859 0.099473216 -0.05132306 0.16548556 -0.21647571
-0.02108828 0.24280497 -0.24423032 -0.17558146 0.25929755 0.24986334 -0.13851957 -0.1474473
-0.007814833 -0.21610972 -0.007291465 0.090298116 0.0825108 0.108674 -0.19952545 0.0068692514
0.16949828 0.055014454 0.161669 -0.21664381 -0.21175957 -0.2543897 -0.21230592 0.03296938
-0.06886981 0.016465874 -0.17471394 -0.036953013 -0.049774587 0.22755969 0.29139772 0.25221547
0.07782192 0.07116881 -0.068499885 0.21724585 0.05472101 0.07651845 -0.05157765 0.12828267
-0.12850907 0.109695904 0.14138517 0.119542226 0.26993614 0.10550015 0.016854532 0.21761844
-0.21897545 -0.14940284 0.22806446 -0.011080612 0.049180865 -0.22747333 0.024708504 0.2238851
-0.059924167 -0.07877171 -0.2549384 -0.19846465 -0.29421338 -0.17075855 -0.015805623 0.26184994
-0.21877094 -0.035457235 -0.18060917 0.12651403 -0.19295788 -0.037944205 0.06821291 0.204968
0.0880224 -0.24245465 -0.24054368 -0.2205951 -0.045123965 -0.23606868 -0.093599916 0.07999843
-0.14319216 0.08905219 -0.098412804 0.008379084 -0.18964149 0.10719804 0.25506452 0.2441326
-0.19937795 -0.19366933 -0.080900386 0.09231879 -0.042670235 0.18014714 -0.16279025 0.22296906
00000000: 666d 98bd 2eda ef3d e819 e93d 7499 993d
00000010: 49b0 883e bebd 8e3e 57bc 183e de2d 3abe
00000020: 3983 cabd 32df 283e 8c59 76bd 3413 75be
00000030: 8a2b 41be ee19 243d 6b3b 9fbd 8154 223e
00000040: 7923 29be 758d 393e c984 623e ece3 e6bc
00000050: fcc2 1b3e 98f0 fb3c 844c 73be c8a1 7bbd
00000060: 1d73 7ebe 7c18 2dbe fb19 813e 839e 433d
00000070: 9db8 cb3d 2138 52bd 0c75 293e cfab 5dbe
00000080: 54c1 acbc dea1 783e 8317 7abe a0cb 33be
00000090: a6c2 843e 2ddc 7f3e 13d8 0dbe 6dfc 16be
000000a0: c909 00bc de4b 5dbe 3eed eebb 38ee b83d
000000b0: 6cfb a83d 7990 de3d 6650 4cbe 7517 e13b
000000c0: f590 2d3e d656 613d 8f8c 253e e0d7 5dbe
000000d0: 80d7 58be 5e3f 82be b966 59be e70a 073d
000000e0: 9d0b 8dbd 71e3 863c 36e8 32be 0b5c 17bd
000000f0: 70e0 4bbd 6805 693e 1532 953e 6322 813e
00000100: 1961 9f3d f4c0 913d ab49 8cbd b275 5e3e
00000110: 2323 603d b5b5 9c3d 1643 53bd 885c 033e
00000120: e297 03be 3fa8 e03d 46c7 103e 8ed2 f43d
00000130: 1235 8a3e 7610 d83d 8412 8a3c 5ed7 5e3e
00000140: 1a3b 60be 0ffd 18be bb89 693e 758b 35bc
00000150: e071 493d c5ee 68be 7d69 ca3c 2342 653e
00000160: 0b73 75bd 1053 a1bd 4987 82be 513a 4bbe
00000170: 23a3 96be 54db 2ebe cb7a 81bc 3211 863e
00000180: 7d05 60be 9b3b 11bd 9cf1 38be e58c 013e
00000190: c096 45be 626b 1bbd 36b3 8b3d 22e3 513e
000001a0: 1745 b43d 0846 78be 1551 76be afe3 61be
000001b0: e8d3 38bd fdbb 71be 50b1 bfbd 38d6 a33d
000001c0: f7a0 12be ff60 b63d a78c c9bd 6d48 093c
000001d0: 6131 42be a58a db3d d197 823e e5fd 793e
000001e0: bc29 4cbe 4151 46be 1aaf a5bd a211 bd3d
000001f0: fcc6 2ebd 7e78 383e 7db2 26be 0052 643e

weight f4 [128, 128]
0.00028648897 -0.12706581 -0.038815044 -0.032917663 -0.026231386 -0.017042544 0.015390774 0.008899035
0.055350125 0.08194995 -0.14229442 -0.17772612 0.041747544 0.10387828 0.24170022 0.09722833
-0.07399579 -0.07815288 0.17789236 -0.045679897 0.13667226 -0.12871985 -0.03762688 -0.09274648
-0.030633563 -0.1626696 -0.09992448 -0.030752795 -0.054784637 -0.043626525 -0.051603787 0.11035514
0.12681076 0.07434482 0.07127327 -0.12509118 0.13999788 0.08261001 -0.13328901 0.236911
-0.10673493 0.1615445 -0.02778949 -0.028310502 0.12954423 0.049979888 -0.04282032 -0.058540706
-0.10873472 0.0883068 -0.16963165 -0.033841994 -0.16762143 -0.018122582 0.13458328 -0.054352477
0.038529087 0.09971945 0.20541146 0.037182845 -0.1448581 0.1520646 0.13372342 0.1130406
0.025536012 -0.010421684 -0.005446737 0.01946167 0.1583804 0.03836407 -0.06884644 -0.05500131
-0.030548723 -0.17177248 0.21202295 6.087491e-05 0.072464034 -0.029874863 0.042878117 -0.1079942
-0.0015096064 0.116946094 -0.25404084 -0.18156658 0.31834593 -0.13332103 -0.008079095 -0.05935063
0.094290085 -0.067392334 0.21268164 -0.0027651314 0.17548831 0.16182092 0.25811306 0.20710142
-0.14871635 -0.14092332 -0.15491834 -0.027618494 -0.032856382 -0.09326652 -0.00022242477 -0.3208333
0.02211717 -0.060063507 -0.16546398 -0.09260141 0.10366061 -0.29624972 0.22921804 0.190896
-0.3512252 -0.047386583 -0.017487507 0.15562557 -0.04349898 -0.0415909 -0.010333254 -0.024596548
0.16232237 -0.011362602 -0.21008356 0.023491044 0.13720544 0.1583351 -0.07703245 0.20373331
-0.15391912 0.038328867 -0.09924424 0.25502986 -0.009893012 -0.07287283 -0.1186568 0.110295385
0.13371757 -0.089484744 -0.0193662 -0.031265616 -0.12938926 -0.008625079 0.15481548 -0.03698377
0.21739498 0.16431619 -0.01853464 -0.114408955 0.124357246 0.10981431 -0.112794034 0.3073782
-0.049657546 0.004787221 -0.0071252384 0.2276183 -0.036188293 -0.23442648 -0.0015813945 0.06253991
0.010125029 -0.07515749 0.08431439 0.15925336 0.2088719 0.13951157 0.098375455 -0.14886568
-0.030157546 -0.07475917 -0.035828277 0.23494896 -0.085164465 0.12668325 0.046902485 0.05633177
-0.26328325 -0.07939221 -0.15046874 -0.09557157 -0.11416273 -0.14398466 0.021009402 -0.119970836
-0.26529256 -0.09111043 0.21647899 -0.11175414 -0.15210645 0.101639204 0.14340855 0.16588536
-0.15794952 0.100669436 0.035206746 -0.08153139 0.08482924 0.17838281 -0.07366496 0.03501296
-0.11132887 -0.086406924 -0.022729369 -0.08542606 0.02278718 0.06537654 -0.04325636 0.08908841
0.17966932 0.013876016 0.008951473 0.27751288 0.010028747 0.06723165 -0.13431175 -0.07462671
-0.14096999 0.09393885 0.103645936 0.030922474 -0.064744614 0.08041234 -0.049913183 0.029446166
-0.11227809 0.07384935 -0.009532407 -0.05284685 0.008359207 0.15920298 -0.1891351 0.0012454628
-0.052384738 -0.035036564 0.07523154 -0.0017824561 -0.13216045 0.15269044 0.27564466 -0.09431162
0.28032273 -0.03633478 0.048439562 0.04258574 -0.20655628 0.21102966 0.1280843 0.018217545
0.042983457 -0.10443317 -0.018969752 -0.04763123 -0.105036244 -0.09556503 -0.051373355 0.15893379
00000000: e633 9639 8a1d 02be 86fc 1ebd acd4 06bd
00000010: 34e3 d6bc ce9c 8bbc 9629 7c3c 42cd 113c
00000020: d0b6 623d 60d5 a73d a1b5 11be d6fd 35be
00000030: 79ff 2a3d 23be d43d 4380 773e a61f c73d
00000040: 1b8b 97bd 9e0e a0bd 6a29 363e d81a 3bbd
00000050: d0f3 0b3e 23cf 03be a51e 1abd def1 bdbd
00000060: 3df3 fabc dc92 26be 35a5 ccbd 49ed fbbc
00000070: db65 60bd bab1 32bd 7e5e 53bd e001 e23d
00000080: aeda 013e 1942 983d b8f7 913d e717 00be
00000090: 9b5b 0f3e 702f a93d ea7c 08be cc98 723e
000000a0: d897 dabd ec6b 253e c9a6 e3bc 6deb e7bc
000000b0: 3ea7 043e b6b7 4c3d 5c64 2fbd 61c8 6fbd
000000c0: 4fb0 debd 32da b43d ebb3 2dbe e79d 0abd
000000d0: f4a4 2bbe cf75 94bc 33d0 093e b4a0 5ebd
000000e0: add0 1d3d b639 cc3d 6257 523e 0a4d 183d
000000f0: af55 14be d3b6 1b3e cbee 083e d581 e73d
00000100: e630 d13c b6bf 2abc 8b7a b2bb 156e 9f3c
00000110: 792e 223e a523 1d3d 5dff 8cbd 0e49 61bd
00000120: 5141 fabc 20e5 2fbe 8b1c 593e f053 7f38
00000130: 0668 943d 21bc f4bc f7a0 2f3d 102c ddbd
00000140: fcdd c5ba 6f81 ef3d a411 82be 97ec 39be
00000150: 3dfe a23e 4f85 08be 2e5e 04bc a519 73bd
00000160: 291b c13d fe04 8abd 37c9 593e 3537 35bb
00000170: 35b3 333e 62b4 253e 6527 843e 6512 543e
00000180: 1949 18be 344e 10be eaa2 1ebe 2e40 e2bc
00000190: 6a94 06bd 8402 bfbd b23a 69b9 4344 a4be
000001a0: 112f b53c 2705 76bd 646f 29be cfa5 bdbd
000001b0: 044c d43d 0bae 97be 22b8 6a3e 3e7a 433e
000001c0: cad3 b3be 6f18 42bd f641 8fbc 4f5c 1f3e
000001d0: fd2b 32bd 385b 2abd cf4c 29bc b37e c9bc
000001e0: d637 263e 352a 3abc 2520 57be 4a70 c03c
000001f0: 957f 0c3e 9922 223e 30c3 9dbd 779f 503e
00000200: f99c 1dbe bbfe 1c3d 9040 cbbd 4693 823e
00000210: 4d16 22bc 5a3e 95bd 5602 f3bd 8ce2 e13d
00000220: 42ed 083e c743 b7bd dda5 9ebc 6010 00bd
00000230: 9e7e 04be 3450 0dbc f387 1e3e 4b7c 17bd
00000240: ca9c 5e3e 8142 283e f5d5 97bc 3e4f eabd
00000250: 03af fe3d 53e6 e03d 8f00 e7bd ad60 9d3e
00000260: b665 4bbd 1fde 9c3b d57a e9bb c614 693e
00000270: 2d3a 14bd 7f0d 70be cb46 cfba ed14 803d
00000280: 73e3 253c 2cec 99bd 06ad ac3d 5013 233e
00000290: 84e2 553e 1fdc 0e3e 1279 c93d 3f70 18be
000002a0: f50c f7bc 561b 99bd acc0 12bd 7696 703e
000002b0: b56a aebd 41b9 013e d21c 403d 24bc 663d
000002c0: 10cd 86be 6298 a2bd 7a14 1abe 07bb c3bd
000002d0: 26ce e9bd b770 13be e91b ac3c 45b3 f5bd
000002e0: 6dd4 87be 1b98 babd abac 5d3e 5bdf e4bd
000002f0: cbc1 1bbe 3728 d03d b1d9 123e dadd 293e
00000300: 85bd 21be c72b ce3d f334 103d eef9 a6bd
00000310: f4ba ad3d fca9 363e a8dd 96bd c069 0f3d
00000320: 6400 e4bd 1df6 b0bd f132 babc dcf3 aebd
00000330: 2eac ba3c 23e4 853d 952d 31bd fc73 b63d
00000340: 3cfb 373e 3b58 633c 33a9 123c 2b16 8e3e
00000350: 9d4f 243c bfb0 893d 0589 09be e3d5 98bd
00000360: 705a 10be 0363 c03d 5244 d43d 2151 fd3c
00000370: d398 84bd 3aaf a43d c471 4cbd 1639 f13c
00000380: 0ef2 e5bd 543e 973d d02d 1cbc f075 58bd
00000390: 0ef5 083c 1b06 233e a2ac 41be cc3e a33a
000003a0: 6191 56bd 8082 0fbd fe12 9a3d 4da1 e9ba
000003b0: 1255 07be e25a 1c3e 4c21 8d3e 7326 c1bd
000003c0: 7686 8f3e c7d3 14bd 9068 463d 636e 2e3d
000003d0: 7d83 53be 2918 583e 8828 033e f63c 953c
000003e0: 6c0f 303d 0fe1 d5bd 7466 9bbc f718 43bd
000003f0: 3e1d d7bd 99b7 c3bd de6c 52bd 8abf 223e

bias f4 [128]
-0.01213486 0.043509554 -0.037512444 0.022971032 0.040819213 -0.004088459 0.019633489 -0.058211893
-0.04340842 -0.04270695 -0.04875586 0.0971905 -0.016066235 -0.012561442 0.08340457 0.08459857
0.008127772 0.061802734 0.0363713 -0.07073447 0.021574415 0.04722309 0.072242506 0.06622409
-0.05110249 -0.07460489 -0.08424953 -0.0655285 -0.0042756195 0.048206963 0.05368142 -0.06594806
0.01976299 -0.07083088 -0.008020843 0.007096183 -0.015824031 0.0015147344 -0.049261395 0.093775645
0.0018841284 0.052397486 0.0565858 0.08735757 0.0034765215 -0.059348118 -0.026874516 0.07455693
-0.066002205 0.052069567 -0.07897789 -0.07851619 -0.08666253 0.13029197 0.03392296 -0.060341317
0.08507463 -0.012812944 0.09723117 0.03268158 0.054110195 -0.030260557 -0.008051657 -0.026019895
0.040564537 0.026611721 0.0674281 -0.064008 -0.0077179675 0.059567127 -0.017708978 -0.038355723
-0.06297892 -0.0763993 -0.03775569 -0.0006979415 0.03225553 0.10383804 0.07839848 0.063396275
-0.047514424 0.0825924 -0.082767166 -0.058594517 -0.03426609 0.038377058 0.06861255 -0.08699592
-0.004071856 -0.059309814 0.042896185 -0.056890022 -0.050095104 0.0015506514 -0.034164242 0.032237504
-0.003266884 -0.00019879613 0.026434993 -0.061782394 0.10005975 0.0791943 -0.018718202 0.040625203
0.038210012 0.07513579 0.09341027 -0.08402359 0.07554187 0.047357578 -0.038349904 -0.112229094
0.051797375 -0.004234158 -0.05691024 0.0011444236 -0.00013486951 0.1036286 -0.023047585 -0.037043598
0.0493989 -0.06828045 0.013514967 -0.024016405 0.089936666 -0.032112718 -0.04663502 -0.053719115
00000000: 4bd1 46bc 1337 323d a6a6 19bd bf2d bc3c
00000010: 0c32 273d 7bf8 85bb 69d6 a03c 986f 6ebd
00000020: 07cd 31bd 7ced 2ebd 3ab4 47bd d00b c73d
00000030: 569d 83bc 82ce 4dbc 04d0 aa3d 0442 ad3d
00000040: 592a 053c dd24 7d3d 13fa 143d 3cdd 90bd
00000050: d4bc b03c 006d 413d e1f3 933d 7fa0 873d
00000060: d850 51bd 73ca 98bd 058b acbd ce33 86bd
00000070: 7f1a 8cbb aa74 453d 0ce1 5b3d c70f 87bd
00000080: fee5 a13c c80f 91bd db69 03bc 1987 e83b
00000090: 66a1 81bc 0d8a c63a 51c6 49bd 720d c03d
000000a0: dcf4 f63a bf9e 563d 83c6 673d 87e8 b23d
000000b0: 5ad6 633b 0317 73bd f227 dcbc 4eb1 983d
000000c0: 2a2c 87bd e646 553d 29bf a1bd 19cd a0bd
000000d0: 207c b1bd 426b 053e cdf2 0a3d 7528 77bd
000000e0: 9c3b ae3d 62ed 51bc 2321 c73d 1fdd 053d
000000f0: a7a2 5d3d fde4 f7bc 19eb 03bc ad27 d5bc
00000100: 0027 263d d300 da3c be17 8a3d a016 83bd
00000110: 01e7 fcbb a9fc 733d 6b12 91bc e41a 1dbd
00000120: 18fb 80bd 3c77 9cbd b6a5 1abd 10f6 36ba
00000130: 601e 043d 0aa9 d43d 628f a03d e8d5 813d
00000140: 7c9e 42bd 3426 a93d d581 a9bd ce00 70bd
00000150: 995a 0cbd 4331 1d3d bd84 8c3d eb2a b2bd
00000160: 346d 85bb d9ee 72bd e9b3 2f3d 8305 69bd
00000170: 8630 4dbd 3a3f cb3a ceef 0bbd 790b 043d
00000180: 3819 56bb ee73 50b9 338e d83c 890f 7dbd
00000190: 20ec cc3d 9f30 a23d ea56 99bc 9d66 263d
000001a0: 1a82 1c3d cbe0 993d e24d bf3d 8f14 acbd
000001b0: b2b5 9a3d 05fa 413d ca14 1dbd 5ed8 e5bd
000001c0: 7c29 543d b1be 8abb b61a 69bd 7c00 963a
000001d0: c26b 0db9 3b3b d43d 4ace bcbc 07bb 17bd
000001e0: 8056 4a3d 9fd6 8bbd e16d 5d3c 0dbe c4bc
000001f0: b730 b83d a088 03bd 5d04 3fbd 9308 5cbd

weight f4 [12, 128]
0.054114595 0.16922894 -0.12283568 0.19362076 -0.17000282 0.10575644 -0.044484787 -0.0018264431
-0.13459592 -0.11129474 -0.0035351056 -0.0632886 -0.039598074 0.120410465 -0.08111744 -0.13048539
0.20888834 -0.06994931 -0.044235595 0.026310071 -0.08317614 -0.21220359 0.021072986 0.15717153
-0.124088086 -0.18515831 -0.017551774 0.09319854 0.110885225 -0.0042998614 -0.055922765 0.08749368
0.009847225 0.18357371 -0.030545043 -0.080204315 0.0019226859 -0.12583593 -0.25600192 0.01885653
-0.088522516 -0.096237645 0.08088618 -0.097609945 0.092267625 0.2747872 -0.040587135 0.030101003
-0.0834959 0.03600995 0.007734925 -0.017865842 0.22977573 0.18564656 0.0013800266 0.06862073
0.07106436 -0.14894941 -0.053384762 0.2531441 0.016971517 -0.07932698 0.08770525 0.23080471
0.1801336 0.057268888 0.04576486 -0.013119917 -0.02820904 0.2708365 0.16338462 0.038765717
0.19478424 -0.011049835 0.025991699 -0.142952 -0.105236314 0.14452922 0.1161622 0.13365054
0.011638249 0.04160389 0.005078366 0.18312462 0.14932637 0.08901161 0.054772068 0.14087597
0.09638739 0.1843551 0.00500927 -0.020956933 -0.06482781 -0.0542462 0.05003116 -0.0014443103
-0.24607538 0.040796373 -0.13539031 0.023966819 0.06615596 0.24845387 0.0873929 -0.061617102
-0.4353642 0.15633251 0.13152656 -0.1376199 -0.080150835 -0.02534439 -0.0568052 -0.047121614
0.09384734 -0.026874205 -0.12248895 0.08506676 0.051136065 -0.01535302 -0.0050038164 -0.035320446
0.05903871 -0.2006407 -0.06285054 0.20320523 0.06781907 0.019689757 0.20248385 -0.028288586
-0.021096315 0.20827195 0.11809905 -0.010152666 -0.23335439 0.1765893 0.13095012 0.03584541
-0.2910504 0.18984337 0.23800406 -0.009135178 0.056021124 -0.1739376 -0.14315505 -0.07828987
-0.19990514 -0.019058192 -0.16114876 -0.11376789 -0.10089704 -0.030279767 -0.021517407 0.038513966
-0.15364729 0.052044574 0.10194576 0.19704872 -0.00456926 0.09312645 0.027102849 -0.17710242
0.16875431 -0.1404266 0.21174224 -0.029954635 -0.0070447195 0.09188679 -0.2884377 -0.2838747
0.11281743 0.11001579 0.055063445 0.08311813 0.052518003 0.12838835 0.08547321 0.029811474
-0.113520876 0.0959441 0.13693787 0.02408949 -0.025122462 -0.1289514 0.031150775 -0.105165705
-0.35012802 -0.077104375 0.07178519 0.1270806 -0.11547346 -0.005399358 0.066756375 0.12724333
-0.11773762 -0.03972284 -0.06126708 0.13659333 -0.08063698 -0.2026887 -0.00013718008 -0.16631764
0.1328915 -0.100133255 -0.050781157 -0.04525405 0.017673917 -0.16739573 -0.078237176 0.15030736
0.027147748 -0.07876397 0.016553434 -0.06720869 0.1979969 0.08658191 -0.14532596 0.18108122
-0.14489728 0.046313122 0.044928685 -0.06287772 -0.046925705 -0.0852606 0.0013716461 0.019262195
0.05244529 -0.17501217 -0.22933584 0.07029598 0.104503565 -0.14402692 0.100633144 0.09551869
0.06684761 0.16573861 0.03360451 0.1075993 0.0073394226 0.007270282 0.014795053 0.055826396
0.11430746 0.016395167 0.07285723 0.045934197 0.2071627 -0.19570668 0.05033884 0.054268513
0.12695865 0.121789806 -0.07122004 -0.30166152 -0.064429544 -0.15253666 -0.21561013 0.07561437
00000000: 44a7 5d3d 5a4a 2d3e 4691 fbbd 8544 463e
00000010: 3815 2ebe d596 d83d ae35 36bd 4365 efba
00000020: 83d3 09be 7fee e3bd 3bad 67bb 749d 81bd
00000030: 9731 22bd c399 f63d e620 a6bd f69d 05be
00000040: d3e6 553e 9541 8fbd 6230 35bd 3888 d73c
00000050: 4158 aabd e64b 59be 41a1 ac3c 93f1 203e
00000060: e521 febd 249a 3dbe bdc8 8fbc e0de be3d
00000070: cb17 e33d dae5 8cbb 450f 65bd e32f b33d
00000080: 4156 213c bffa 3b3e 9939 fabc 2942 a4bd
00000090: a202 fc3a 22db 00be af12 83be 0279 9a3c
000000a0: 4b4b b5bd 3e18 c5bd a7a7 a53d b9e7 c7bd
000000b0: cff6 bc3d e8b0 8c3e b23e 26bd 6196 f63c
000000c0: e6ff aabd 2b7f 133d 4175 fd3b 635b 92bc
000000d0: 544a 6b3e 221a 3e3e 02e2 b43a 0689 8c3d
000000e0: 318a 913d 3286 18be fba9 5abd 1a9c 813e
000000f0: da07 8b3c 2f76 a2bd cf9e b33d 1258 6c3e
00000100: f174 383e c892 6a3d ef73 3b3d ecf4 56bc
00000110: a516 e7bc 15ab 8a3e 4c4e 273e cdc8 1e3d
00000120: 8575 473e 5e0a 35bc 8bec d43c 0262 12be
00000130: 2386 d7bd 78ff 133e 73e6 ed3d b0db 083e
00000140: 5bae 3e3c d768 2a3d 6c68 a63b 0585 3b3e
00000150: 03e9 183e b84b b63d ad58 603d ca41 103e
00000160: c066 c53d 95c7 3c3e cd24 a43b e0ad abbc
00000170: 71c4 84bd 4331 5ebd 79ed 4c3d 034f bdba
00000180: 2ffb 7bbe 191a 273d c2a3 0abe 1056 c43c
00000190: c77c 873d b16a 7e3e 0cfb b23d 3762 7cbd
000001a0: 0ee8 debe a115 203e e6ae 063e 3bec 0cbe
000001b0: 1f26 a4bd 0a9f cfbc 92ac 68bd 9802 41bd
000001c0: 0933 c03d 4b27 dcbc 7ddb fabd 7b37 ae3d
000001d0: 0d74 513d 3c8b 7bbc 0ef7 a3bb 2cac 10bd
000001e0: 93d2 713d c174 4dbe c9b7 80bd 0815 503e
000001f0: b9e4 8a3d 6a4c a13c ed57 4f3e 77bd e7bc
00000200: 2ed2 acbc 3e45 553e eadd f13d 5e57 26bc
00000210: 74f4 6ebe d3d3 343e ca17 063e a3d2 123d
00000220: 8f04 95be 4d66 423e 56b7 733e b7ab 15bc
00000230: 6876 653d b31c 32be 3d97 12be 7056 a0bd
00000240: efb3 4cbe ed1f 9cbc 2e04 25be 24ff e8bd
00000250: 1ba3 cebd 460d f8bc 4645 b0bc d2c0 1d3d
00000260: b755 1dbe b12c 553d f0c8 d03d 24c7 493e
00000270: bbb9 95bb 15b9 be3d cb06 de3c 565a 35be
00000280: eecd 2c3e fecb 0fbe f5d2 583e 6c63 f5bc
00000290: 64d7 e6bb 242f bc3d 1bae 93be 0658 91be
000002a0: d30c e73d f54f e13d 358a 613d d739 aa3d
000002b0: 1e1d 573d 3c78 033e 940c af3d 3137 f43c
000002c0: a27d e8bd 577e c43d 7139 0c3e 5257 c53c
000002d0: 9fcd cdbc d60b 04be e92f ff3c 1e61 d7bd
000002e0: fb43 b3be e6e8 9dbd 1d04 933d 6b21 023e
000002f0: 597d ecbd 19ed b0bb 91b7 883d 134c 023e
00000300: 6c20 f1bd 6bb4 22bd 31f3 7abd 1fdf 0b3e
00000310: 0025 a5bd a08d 4fbe ffd7 0fb9 2c4f 2abe
00000320: b614 083e aa12 cdbd e7ff 4fbd 505c 39bd
00000330: e4c8 903c c969 2bbe d03a a0bd 2cea 193e
00000340: f464 de3c 014f a1bd 119b 873c b6a4 89bd
00000350: b3bf 4a3e db51 b13d 54d0 14be 5b6d 393e
00000360: f45f 14be d4b2 3d3d 2407 383d 09c6 80bd
00000370: 2b35 40bd 1c9d aebd cec8 b33a c0cb 9d3c
00000380: dfd0 563d 6436 33be 04d7 6abe 57f7 8f3d
00000390: f705 d63d cb7b 13be c018 ce3d 4e9f c33d
000003a0: 66e7 883d 62b7 293e e2a4 093d 065d dc3d
000003b0: 8a7f f03b 8c3b ee3b f366 723c 38aa 643d
000003c0: 081a ea3d 284f 863c 2c36 953d 7f25 3c3d
000003d0: 7522 543e 5567 48be 1930 4e3d a948 5e3d
000003e0: 7301 023e ef6c f93d d0db 91bd 6173 9abe
000003f0: a3f3 83bd 9232 1cbe e7c8 5cbe b5db 9a3d

bias f4 [12]
0.0021699003 -0.059493285 0.041697662 -0.001054904 -0.038646936 0.017993016 0.024216918 0.061891064
0.09065124 -0.05874398 0.045434996 0.04111931
00000000: e334 0e3b 3baf 73bd 2bcb 2a3d b444 8aba
00000010: 404c 1ebd 1766 933c 8f62 c63c 7c81 7d3d
00000020: 5ba7 b93d 879d 70bd 0c1a 3a3d b96c 283d
