actor_model/actor_19000.pt (torch, 98288 bytes, 6 tensors)

weight f4 [128, 32]
0	0x3e3e2a9f	0.18570946
1	0x3ea73b0f	0.32662246
2	0x3e2133b0	0.15742373
3	0xbdd86111	-0.10565389
4	0xbe03fa4c	-0.1288845
5	0x3d7b6ffb	0.06138609
6	0xbeb13be1	-0.34615996
7	0x3e820f3c	0.25402248
8	0xbe18379a	-0.1486496
9	0xbec88a51	-0.39168027
10	0x3d1f63c7	0.038913514
11	0xbe3577d6	-0.17721495
12	0xbeb8dac2	-0.361044
13	0x3e99fed8	0.30077243
14	0x3defbad6	0.11705558
15	0xbe1ac154	-0.15112811
16	0x3e2dceb4	0.16973382
17	0x3d8fdd62	0.07024647
18	0xbd7d5db1	-0.06185693
19	0x3d45b984	0.048272625
20	0xbcf32fc2	-0.029685859
21	0xbe967c65	-0.2939178
22	0xbc128689	-0.0089432085
23	0xbe19a402	-0.1500397
24	0xbe8e681d	-0.27813807
25	0x3c9dd8a1	0.019268336
26	0x3e9065b8	0.28202605
27	0xbdd0c48c	-0.10193738
28	0xbd82287a	-0.063553765
29	0x3c3152d4	0.01082297
30	0xbdb1c1ee	-0.08679567
31	0x3dd60eaa	0.10452016
32	0x3e7cd203	0.24689488
33	0x3e6432d3	0.22285013
34	0x3e7b99e8	0.2457043
35	0xbcff5146	-0.031166684
36	0x3c9a767d	0.018855328
37	0xbc917752	-0.017757092
38	0xbe86fd3c	-0.26365077
39	0xbe686e57	-0.22698341
40	0x3dbcf15b	0.092257224
41	0x3e29e232	0.16590193
42	0x3dfdebd9	0.123985
43	0xbddce393	-0.10785594
44	0x3c903668	0.017604068
45	0x3e4ff9c2	0.20310119
46	0x3dae2c35	0.085045256
47	0xbd93f5d5	-0.07224623
48	0xbe0ecc6d	-0.1394517
49	0xbde3e6a0	-0.111279726
50	0xbd2ae5e3	-0.041723143
51	0xbd9cb434	-0.076515585
52	0xbcfbcb40	-0.030736566
53	0xbd8d31bb	-0.06894251
54	0xbd6357dc	-0.05550371
55	0xbd226dee	-0.03965562
56	0x3ce7af50	0.028281838
57	0x3d953f07	0.07287412
58	0x3ce50d49	0.027960436
59	0x3e1a641a	0.15077248
60	0xbd3d692b	-0.046242874
61	0xbd5d759a	-0.05406723
62	0x3dcfd0c8	0.10147244
63	0xbc7a6df5	-0.015285005
64	0x3dbcab3e	0.09212349
65	0xbc41eeec	-0.011836749
66	0xbc81bc24	-0.015836783
67	0xbd8fc45d	-0.07019875
68	0x3d1f2207	0.03885081
69	0xbe1e343b	-0.15449612
70	0xbe99db5c	-0.3005017
71	0xbe3adca9	-0.18248238
72	0x3e073a4d	0.13205834
73	0x3e84000c	0.25781286
74	0x3e906fe4	0.28210366
75	0x3eda638f	0.42654082
76	0x3e32e546	0.17470273
77	0xbeee6e6f	-0.4656863
78	0xbedcdf7f	-0.43139264
79	0xbe861bb5	-0.26193014
80	0xbc871790	-0.016490728
81	0xbca928b7	-0.020649297
82	0xbaf1f395	-0.0018459434
83	0xbca1bb03	-0.019742494
84	0x3c35bc07	0.0110921925
85	0x3daa80e6	0.08325367
86	0xbd9418a0	-0.07231259
87	0x3cfeda33	0.031109905
88	0xbb952fe1	-0.0045528268
89	0x3e03963a	0.12850276
90	0xbda61b62	-0.081106916
91	0xbc9f758d	-0.019465232
92	0x3e0efc58	0.13963449
93	0x3da83551	0.08213294
94	0x3e481ceb	0.19542281
95	0x3e25dfa2	0.1619859
96	0x3d5ce798	0.053931803
97	0x3dcdd673	0.100506686
98	0xbe2269f1	-0.15860726
99	0x3b882679	0.004154977
100	0xbd50daed	-0.050990034
101	0xbd8ca5fc	-0.068675965
102	0xbc51af30	-0.012798116
103	0xbea42424	-0.32058823
104	0x3de29b53	0.11064782
105	0x3e2c14fa	0.16804877
106	0x3c87bf0e	0.016570594
107	0xbd27996f	-0.04091781
108	0xbe21d606	-0.158043
109	0x3d3f70b1	0.04673833
110	0xbc5d2317	-0.013497136
111	0x3ce00976	0.027348261
112	0x3e0f7d29	0.14012589
113	0xbd9a4907	-0.0753346
114	0x3e02ba0b	0.12766282
115	0x3cc5140d	0.024057413
116	0x3ea4ff69	0.32226112
117	0x3eb2961a	0.34880143
118	0x3e4b4f9e	0.1985459
119	0x3d17ce8e	0.03706222
120	0xbd545fe9	-0.05184928
121	0xbea5dede	-0.32396597
122	0xbddca9bd	-0.107745625
123	0xbe12231b	-0.14271204
124	0x3db29df4	0.087215334
125	0xbd2b1e8f	-0.04177719
126	0x3e6cf76d	0.2314126
127	0x3cad60b3	0.021164274
128	0x3db1d6b0	0.086835265
129	0x3eabe441	0.3357258
130	0xbeee210b	-0.46509585
131	0x3d08e41e	0.033420675
132	0xbe8da3a0	-0.27663898
133	0xbd6a9356	-0.057269417
134	0x3d2a7493	0.04161508
135	0xbe21c789	-0.15798773
136	0xbe3ee13d	-0.18640609
137	0x3e0f6d68	0.14006579
138	0xbe50bbda	-0.2038416
139	0xbca9a717	-0.020709557
140	0xbe26b33f	-0.16279314
141	0xbd68949f	-0.05678236
142	0xbd9f0867	-0.077652745
143	0xbd9d51d2	-0.076816216
144	0xbe34b8f6	-0.17648682
145	0xbe1b25cc	-0.15151137
146	0x3d8c95d5	0.06864516
147	0x3e21bdd2	0.15795067
148	0xbd8c267b	-0.06843277
149	0x3d2d03b6	0.042239867
150	0x3e0e8dbc	0.13921255
151	0x3e9b4aa4	0.30330384
152	0x3d8af264	0.067845136
153	0x3ea22b52	0.31673676
154	0xbdb99ca3	-0.09063079
155	0x3de07d41	0.1096139
156	0x3d2b15ff	0.041769024
157	0x3e2b3afb	0.16721718
158	0x3e3b5b61	0.18296577
159	0xbe2a3efe	-0.16625592
160	0x3e182248	0.14856827
161	0x3d904e1e	0.0704615
162	0x3df9fd44	0.1220651
163	0xbd9115f3	-0.070842646
164	0x3ec007b5	0.3750588
165	0xbd7353bd	-0.05940603
166	0xbe30781b	-0.17233317
167	0x39f0328c	0.00045814028
168	0x3e1532d8	0.14570177
169	0xbbeece5c	-0.0072877835
170	0xbcf5341d	-0.029932076
171	0xbd9fd028	-0.078033745
172	0xbe498a1c	-0.19681591
173	0x3d08cc7b	0.033398133
174	0xbd405f2b	-0.04696576
175	0x3e8b73fc	0.27236927
176	0x3e99063e	0.29887575
177	0xbe3dc134	-0.18530732
178	0x3b2de212	0.0026532453
179	0x3c57af4f	0.013164355
180	0x3d9c1258	0.07620686
181	0x3e4c6355	0.19959767
182	0xbd3de547	-0.046361234
183	0xbd83d06c	-0.06436238
184	0xbe5c6213	-0.21521787
185	0x3d1bd5bb	0.038045626
186	0x3c73e799	0.01488676
187	0x3e19f842	0.15036109
188	0x3e9edee2	0.3102942
189	0xbd7e2653	-0.062048268
190	0x3e40f753	0.18844347
191	0x3d2917ef	0.04128259
192	0x3e65621e	0.2240071
193	0x3d1d82a3	0.038454663
194	0xbd17bd48	-0.037045747
195	0xbd6b7fc5	-0.057494897
196	0x3d203a3b	0.039118033
197	0x3d453e5e	0.04815518
198	0x3e0b0abc	0.13578314
199	0x3e3aec6c	0.1825425
200	0xbe07993d	-0.1324205
201	0xbdc2523c	-0.09488341
202	0x3da475ca	0.08030279
203	0x3e10170a	0.14071289
204	0x3e0d380d	0.13790913
205	0x3e5016bd	0.20321174
206	0xbd92d26e	-0.071690425
207	0xbd3a5ab3	-0.045496654
208	0xbd99d09f	-0.075104944
209	0x3d0890ea	0.033341326
210	0xbd29ba8c	-0.04143767
211	0xbd919d1f	-0.071100466
212	0xbc8320bb	-0.016006818
213	0x3d3a58f3	0.045494985
214	0xbbb9db83	-0.00567192
215	0x3d14327a	0.03618095
216	0xbd295d2d	-0.041348625
217	0x3e0b2878	0.13589656
218	0x3d9db43a	0.07700391
219	0x3d952eee	0.07284342
220	0x3e3a5c72	0.18199328
221	0x3d4a6f20	0.049422383
222	0x3d879b50	0.066214204
223	0x3dec06fa	0.11524768
224	0x3da7df9f	0.08196949
225	0x3d277592	0.04088361
226	0xbcc77876	-0.024349432
227	0x3d07a9b1	0.033120815
228	0x3c41fd60	0.011840194
229	0x3e472208	0.19446576
230	0x3dbee732	0.09321441
231	0x3e4a57c1	0.19760038
232	0xbded7e0d	-0.11596308
233	0xbe91a3e6	-0.28445357
234	0x3baab480	0.0052095056
235	0xbe65716f	-0.22406553
236	0xbea0ce17	-0.31407234
237	0xbf0d89fc	-0.5528867
238	0x3ec1fd2e	0.37888473
239	0x3e51e2b8	0.20496643
240	0xbdc40d7c	-0.095728844
241	0xbe2ceb1c	-0.16886562
242	0xbd1a7a0a	-0.03771404
243	0xbda33554	-0.07969156
244	0x3d9bb4b6	0.07602827
245	0x3cbea065	0.023269841
246	0xbd0e7660	-0.03478086
247	0x3d20e472	0.039280362
248	0x3d862344	0.06549695
249	0xbe235e4f	-0.15953945
250	0xbd1c3b40	-0.038142443
251	0xbcccb004	-0.024986275
252	0x3dbc988e	0.09208785
253	0x3e0d1b8d	0.13780041
254	0xbdbc6563	-0.091990255
255	0x3e164af0	0.14677024

bias f4 [128]
0	0xbf1f072e	-0.6212033
1	0x3ec9a8b6	0.3938653
2	0xbde968fb	-0.113969766
3	0xbf7b0c0f	-0.98065275
4	0xbe40ac3b	-0.188157
5	0xbde51714	-0.111860424
6	0x3ef7fd6d	0.48435536
7	0xbeb8dd4d	-0.3610634
8	0x3e4cbf71	0.19994904
9	0xbef3e4b2	-0.47635418
10	0xbf3de960	-0.74184227
11	0x3e10fad6	0.14158186
12	0x3d0a79a3	0.033807408
13	0x3e1dafe9	0.15399136
14	0x39856126	0.00025440118
15	0xbf3b31e0	-0.7312298
16	0x3d7c18e1	0.061547164
17	0xbd332277	-0.04373404
18	0xbf078fce	-0.52953804
19	0x3e8ee7d9	0.2791126
20	0xbd8fb725	-0.07017354
21	0x3e712983	0.23550992
22	0xbf06a6ec	-0.5259845
23	0xbecb0d0d	-0.39658394
24	0xbe70c53b	-0.23512737
25	0x3e961cf5	0.29318967
26	0xbe78e7a2	-0.24307111
27	0xbee3200d	-0.4436039
28	0xbe57e212	-0.21082333
29	0x3e096db8	0.1342076
30	0xbe787cdc	-0.2426638
31	0x3e98d6da	0.2985142
32	0xbd241aa3	-0.040064465
33	0xbeeed7c3	-0.46648988
34	0x3d13435e	0.03595292
35	0xbed5da5e	-0.41768163
36	0xbf3e4280	-0.7432022
37	0xbe8fce29	-0.28086975
38	0xbf09b5de	-0.5379313
39	0xbf081b5e	-0.5316676
40	0x3dc90f6b	0.09817394
41	0xbe3b2ca3	-0.18278746
42	0xbf186e33	-0.5954315
43	0xbcaf6b93	-0.0214136
44	0xbdff29f5	-0.124591745
45	0xbf24aae9	-0.6432329
46	0x3e8544da	0.26029092
47	0xbf2f0842	-0.68371975
48	0xbec59938	-0.3859346
49	0xbedc8d4f	-0.4307656
50	0x3e9e9d8a	0.30979568
51	0xbf0e347a	-0.5554882
52	0x3eeaa0a0	0.45825672
53	0x3e83abab	0.2571691
54	0xbf1284cc	-0.5723388
55	0x3e2a62d7	0.16639267
56	0x3e582ea8	0.21111548
57	0x3eb83944	0.3598119
58	0xbf608dc7	-0.87716335
59	0xbf1a805d	-0.60352117
60	0xbf089d93	-0.5336544
61	0x3e62551a	0.22102776
62	0xbeec0711	-0.4609914
63	0x3ecb9886	0.39764804
64	0x3ea194b2	0.31558758
65	0xbe8a5571	-0.27018312
66	0xbeadaa94	-0.33919203
67	0xbe6b0189	-0.22949804
68	0xbedbd600	-0.42936707
69	0x3ca579cd	0.02019968
70	0x3eab52cc	0.33461607
71	0x3ed2a61b	0.41142353
72	0xbedb01f1	-0.4277492
73	0xbe7a7997	-0.24460445
74	0xbd2c5f64	-0.04208316
75	0x3e9fb16a	0.31190044
76	0xbee0ec99	-0.4393051
77	0xbeac9120	-0.33704472
78	0xbdd034f7	-0.10166352
79	0x3e233ab1	0.15940358
80	0x3ed64c01	0.4185486
81	0xbeaf163e	-0.34196657
82	0xbd8919ba	-0.0669436
83	0xbe531f7d	-0.2061748
84	0xbed7b377	-0.42129108
85	0xbe3eab50	-0.18620038
86	0x3e33dd5b	0.17564909
87	0x3e8713ce	0.26382297
88	0xbed32838	-0.41241622
89	0xbf774699	-0.965921
90	0x3e251853	0.1612256
91	0xbe8e2494	-0.27762282
92	0xbf066e4a	-0.5251204
93	0xbe132262	-0.14368585
94	0x3cbfb821	0.02340323
95	0xbf0cbaa9	-0.5497232
96	0xbe5f8f24	-0.21831948
97	0xbcd93c6f	-0.026518075
98	0x3d8941c1	0.06701995
99	0xbf7b5250	-0.98172474
100	0xbb41c31a	-0.0029565752
101	0xbee4a2c1	-0.4465542
102	0xbf1126f6	-0.56700075
103	0xbd8b0282	-0.06787588
104	0xbd80f98c	-0.06297597
105	0xbf4617c8	-0.7738004
106	0xbeadd522	-0.3395167
107	0xbfa275ff	-1.269226
108	0xbf39da7a	-0.72598994
109	0xbd83abc1	-0.06429244
110	0xbf3121fe	-0.6919249
111	0x3ecc0bc9	0.3985274
112	0xbeef9292	-0.46791512
113	0xbeca3444	-0.39493
114	0x3ee21bc0	0.44161797
115	0xbe1b93cf	-0.15193103
116	0x3ed3abf6	0.41342133
117	0xbe025347	-0.1272708
118	0xbf2f4d14	-0.68476987
119	0x3d93de23	0.072201036
120	0xbf0af6c0	-0.5428276
121	0x3df13ef4	0.117795855
122	0x3e92262d	0.2854475
123	0x3eeddca3	0.46457395
124	0xbea1a037	-0.31567547
125	0x3efa0df0	0.48838758
126	0xb99c0b71	-0.00029763163
127	0xbf4584a3	-0.7715551

weight f4 [128, 128]
0	0x3ea18f66	0.31554717
1	0xbeb1642e	-0.34646744
2	0x3f211176	0.6291727
3	0xbeb88805	-0.36041275
4	0x3d771568	0.06032315
5	0xbf06c791	-0.52648264
6	0xbeb58a9e	-0.3545732
7	0xbe5219b7	-0.20517622
8	0x3dafd2e0	0.08585143
9	0xbf56c705	-0.8389743
10	0xbe97221c	-0.2951821
11	0x3e374ec6	0.17901143
12	0xbf3d250a	-0.7388464
13	0xbecd3949	-0.40082768
14	0xbea71c5a	-0.32638818
15	0x3df550f1	0.11978329
16	0xbe146482	-0.14491466
17	0xbeafe7eb	-0.34356627
18	0x3e452d65	0.19255598
19	0xbe18e52e	-0.14931175
20	0xbe2e6d4c	-0.17033881
21	0x3e59c26f	0.21265577
22	0x3e105c65	0.14097746
23	0xbe535d34	-0.20641023
24	0xbe1516f6	-0.1455954
25	0x3de4c235	0.111698546
26	0x3ee54d8f	0.44785735
27	0x3d835b83	0.06413939
28	0xbeb8cdae	-0.3609442
29	0xbef22a37	-0.47297832
30	0xbea2a6cd	-0.31767884
31	0xbc627252	-0.013821201
32	0xbed45fb9	-0.4147928
33	0xbdbc599d	-0.0919678
34	0x3e089faa	0.13342157
35	0xbec3f86b	-0.38275465
36	0x3e43f772	0.19137362
37	0x3e706a62	0.23478082
38	0xbeaf869b	-0.34282383
39	0x3ef9b664	0.48771966
40	0xbe44412f	-0.1916549
41	0x3e7b22cf	0.24524997
42	0x3e2a8660	0.16652822
43	0xbe7c2c7e	-0.24626347
44	0xbe90fd46	-0.28318232
45	0xbe910937	-0.28327343
46	0xbe9513a1	-0.29116538
47	0xbda57cd5	-0.080804504
48	0xbeab8e03	-0.33506784
49	0x3daf9440	0.08573198
50	0xbf024f5f	-0.5090236
51	0xbd8f6302	-0.07001306
52	0xbe0cacf9	-0.13737859
53	0xbda644e2	-0.08118607
54	0x3e79bd9a	0.24388734
55	0x3d427df3	0.047483396
56	0xbf0bbfbe	-0.5458945
57	0xbef6bcec	-0.4819101
58	0x3da7c074	0.081910044
59	0xbe4a103b	-0.19732754
60	0xbed4dc3c	-0.41574275
61	0xbe75ca52	-0.2400296
62	0xbe96869e	-0.2939958
63	0xbe61c607	-0.22048198
64	0xbdb06d35	-0.086145796
65	0xbe8a83b9	-0.2705362
66	0x3ea23d93	0.31687602
67	0xbd6d49bb	-0.057931643
68	0xbe8425ed	-0.25810185
69	0x3e0d21b0	0.13782382
70	0xbeefff5a	-0.46874505
71	0x3a51b531	0.0007999717
72	0x3df80b25	0.12111501
73	0xbe7d8e89	-0.24761404
74	0xbe9f8e35	-0.31163183
75	0xbdc1ae56	-0.0945708
76	0x3e16a57d	0.14711566
77	0xbe96c96d	-0.2945055
78	0xbe76d7ed	-0.24105807
79	0xbf0c16ae	-0.54722106
80	0xbef3b08e	-0.47595638
81	0x3d93e65a	0.072216704
82	0xbd5fe771	-0.05466408
83	0xbe29f7b3	-0.16598396
84	0xbef488a2	-0.47760493
85	0x3cc467e2	0.023975316
86	0xbf15c157	-0.5849814
87	0xbf052047	-0.52002376
88	0x3f0174d2	0.5056888
89	0x3f16ecfa	0.5895535
90	0xbe727a73	-0.23679523
91	0xbe497222	-0.19672444
92	0xbedb9aaf	-0.42891452
93	0xbea36fda	-0.31921273
94	0x3d7228c2	0.0591209
95	0x3e41cc80	0.18925667
96	0xbe0e5456	-0.13899359
97	0xbc8f2bb5	-0.017476896
98	0xbd0a4cc6	-0.033764623
99	0xbdd6b279	-0.1048326
100	0xbd81593f	-0.063158505
101	0xbe750e3a	-0.23931208
102	0x3e8bad9d	0.27280894
103	0x3d4993c5	0.04921319
104	0x3e0aa1a9	0.13538231
105	0xbf37e3b0	-0.718318
106	0xbef8baec	-0.4858011
107	0x3f0b804c	0.5449264
108	0xbe820bc7	-0.2539961
109	0xbe255b70	-0.16148162
110	0x3e2334f9	0.15938176
111	0xbe46d463	-0.19416957
112	0xbd99ade2	-0.07503869
113	0x3e790ab0	0.24320483
114	0xbefad5d6	-0.4899127
115	0x3cba5365	0.022744844
116	0xbec5e773	-0.38653144
117	0x3d8def81	0.06930447
118	0xbc2fb6d7	-0.010724745
119	0x3d3079ff	0.043085095
120	0xbf05fde8	-0.52340555
121	0xbedd8042	-0.43261915
122	0x3d28b118	0.041184515
123	0xbe317103	-0.17328267
124	0xbb40b1e4	-0.0029402906
125	0xbe8e029d	-0.2773637
126	0x3e9e422f	0.3090987
127	0x3f19f47e	0.6013869
128	0xbe20bef3	-0.15697841
129	0x3d9257f1	0.0714568
130	0x3e862cc4	0.26206028
131	0xbe89f38d	-0.26943627
132	0x3ea49944	0.32148182
133	0xbe8029b7	-0.25031826
134	0xbe441d5e	-0.19151828
135	0xbe9edb3d	-0.3102664
136	0x3eb93073	0.36169776
137	0x3e814297	0.25246117
138	0xbe19baea	-0.15012708
139	0xbbb463bf	-0.0055050547
140	0xbe38a0f1	-0.18030144
141	0x3d126d49	0.035748754
142	0x3d43efb9	0.04783604
143	0xbee8b86e	-0.4545321
144	0xbe46bf29	-0.1940886
145	0x3d707d01	0.058712963
146	0x3da85063	0.082184575
147	0x3d9ed17b	0.07754799
148	0x3d830423	0.063972734
149	0x3dcc6f05	0.09982113
150	0x3da63bec	0.08116898
151	0xbda69e23	-0.08135631
152	0x3e1e121b	0.15436594
153	0x3e3c570d	0.18392582
154	0xbe707b49	-0.2348453
155	0xbe2e5916	-0.17026171
156	0x3edc8017	0.43066475
157	0x3d58a6cb	0.05289344
158	0xbda2edef	-0.079555385
159	0x3e0fd4a2	0.14045957
160	0x3cb07cc8	0.021543875
161	0xbd1fc626	-0.03900733
162	0xbe05a178	-0.13049877
163	0xbe99786c	-0.29974687
164	0xbe958b59	-0.29207876
165	0xbe155f7c	-0.14587206
166	0xbd76b524	-0.060231343
167	0xbde385e8	-0.11109525
168	0xbe0cac23	-0.1373754
169	0xbdfe7310	-0.1242429
170	0xbdb6e6e1	-0.089307554
171	0xbd10dcff	-0.03536701
172	0xbcc38a32	-0.023869608
173	0xbe752e52	-0.23943451
174	0xbe06593a	-0.13119975
175	0x3e5e6d6f	0.21721433
176	0x3d809b84	0.06279662
177	0xbe9e04aa	-0.30862933
178	0xbcabd47b	-0.020975342
179	0xbe44421c	-0.19165844
180	0x3d7067a8	0.058692604
181	0x3e965dff	0.29368588
182	0x3c0ba51c	0.008523252
183	0x3d3ba7b4	0.04581423
184	0xbce29b10	-0.02766183
185	0xbc30152d	-0.010747236
186	0x3ddd8a4c	0.10817394
187	0x3e819022	0.25305277
188	0x3d57e6fa	0.05271051
189	0x3e14373e	0.14474198
190	0x3e51cd76	0.20488533
191	0xbe2cc9ae	-0.1687381
192	0x3c61971d	0.013768938
193	0xbd7610ce	-0.06007462
194	0xbdfff408	-0.12497717
195	0xbeb38d17	-0.3506858
196	0xbddb4bae	-0.10707794
197	0x3e1e964a	0.15487018
198	0xbdef6747	-0.116896205
199	0x3e6ba95a	0.23013821
200	0xbdebda4b	-0.115162455
201	0xbeaa660c	-0.3328098
202	0xbdf3aca9	-0.11898167
203	0xbeb617f1	-0.3556514
204	0x3d129054	0.035782173
205	0xbea839c9	-0.32856587
206	0x3ddef101	0.108858116
207	0x3e0c1fb2	0.13683966
208	0x3d7d3939	0.06182215
209	0x3d976043	0.07391407
210	0xbe9c51e4	-0.30531228
211	0x3dbef09a	0.09323235
212	0x3d9ed938	0.07756275
213	0x3dbb3dcd	0.09142647
214	0xbdd54d9d	-0.10415194
215	0x3e2a9829	0.16659607
216	0xbe679bb4	-0.2261799
217	0xbea9839f	-0.3310823
218	0x3e18e24a	0.14930072
219	0xbdfe199e	-0.1240723
220	0xbecfb455	-0.4056727
221	0xbd3bf0b0	-0.045883834
222	0x3e5593a7	0.20857106
223	0x3e632730	0.22182918
224	0xbe9a691e	-0.30158323
225	0xbd85ee39	-0.06539578
226	0x3e313170	0.17304015
227	0xbea472a4	-0.32118714
228	0xbda736bb	-0.08164736
229	0x3d314adc	0.043284282
230	0x3e357d2c	0.1772353
231	0x3df3b22f	0.1189922
232	0x3d8af2d3	0.06784596
233	0xbeb412c2	-0.3517056
234	0xbe488722	-0.19582799
235	0x3e8f1ca1	0.2795153
236	0x3eaaa77c	0.33330905
237	0x3dcbb24d	0.099461176
238	0x3e1ea0e0	0.15491056
239	0x3d62ed5a	0.055402137
240	0xbe359660	-0.17733145
241	0x3dd1a599	0.10236663
242	0xbd491a11	-0.049097124
243	0x3d1511ee	0.036394052
244	0x3df6bdf7	0.12047952
245	0xbdce400b	-0.10070809
246	0xbebc6a81	-0.36800006
247	0xbde947df	-0.113906614
248	0x3ea7532b	0.3268064
249	0xbd4b792e	-0.049676113
250	0x39ede4fb	0.00045374766
251	0xbd433bbd	-0.047664393
252	0x3d16dc7f	0.036831375
253	0x3db6c0bc	0.0892348
254	0xbd5c63d8	-0.053806156
255	0xbc389540	-0.011266053

bias f4 [128]
0	0xbeb3cb4f	-0.3511605
1	0x3e6faaf2	0.23405054
2	0x3ec794cd	0.38980713
3	0xbe6ac6e8	-0.22927439
4	0xbe136f22	-0.14397863
5	0x3e8ae0b7	0.2712457
6	0x3ebfba87	0.37446997
7	0x3e836ac6	0.256674
8	0x3e3d93ba	0.18513384
9	0xbc156539	-0.009118372
10	0x3c6fdbb2	0.014639782
11	0xbe421995	-0.18955071
12	0x3e261b7f	0.16221426
13	0x3cb79dc6	0.0224141
14	0x3eb1a914	0.3469931
15	0x3dfb7a45	0.122791804
16	0xbe06f1f0	-0.1317823
17	0xbec9f47d	-0.39444342
18	0x3e644c6d	0.22294779
19	0xbe73b68a	-0.23800102
20	0x3d38bb26	0.045100354
21	0x3c3c1d1b	0.011481549
22	0x3ec64e96	0.3873183
23	0xbd55ed32	-0.05222816
24	0x3d9de3cc	0.077094644
25	0xbe94c8c9	-0.29059437
26	0xbec0a1ba	-0.37623388
27	0xbe2921c1	-0.16516782
28	0x3ef07b65	0.46969143
29	0xbcb4ba5a	-0.022061516
30	0xbe57321c	-0.21015209
31	0x3ed7113d	0.4200534
32	0x3daacf1d	0.08340285
33	0xbeaeda97	-0.34151146
34	0xbe256e1d	-0.16155286
35	0xbea55123	-0.32288465
36	0xbc563cce	-0.01307602
37	0x3de780b6	0.113038465
38	0x3e918fd7	0.28430054
39	0x3ea91213	0.33021602
40	0xbed57296	-0.41688985
41	0xbd1cd40d	-0.038288165
42	0x3ecddeae	0.40208954
43	0x3ee6a69e	0.45048994
44	0x3d5fe797	0.05466422
45	0x3e29b0f3	0.16571407
46	0x3e2caeab	0.16863506
47	0xbc07828f	-0.008270874
48	0xbe452a6e	-0.19254467
49	0xbdc32a78	-0.09529585
50	0x3e91bc41	0.2846394
51	0xbe6a6724	-0.22890908
52	0xbdb277cc	-0.08714256
53	0x3d188ea1	0.037245397
54	0xbe8b7ea3	-0.27245054
55	0x3d5a5ac6	0.053309225
56	0xbb83cf3a	-0.004022506
57	0xbce6b0ef	-0.02816054
58	0x3d0bb81c	0.034111127
59	0x3ec9883b	0.39361748
60	0xbc95ee66	-0.018302154
61	0x3db54c2c	0.08852419
62	0x3de32d47	0.1109262
63	0x3e8830ba	0.26599675
64	0x3ec43ebc	0.38329113
65	0xbb57cca9	-0.0032928383
66	0x3e32603e	0.17419526
67	0x3e922ef6	0.28551453
68	0x3e1b85f8	0.15187824
69	0xbeedaaac	-0.46419275
70	0x3db835f1	0.089946635
71	0xbdec5f36	-0.115415975
72	0x3d3e40a3	0.04644836
73	0xbe9e0059	-0.3085964
74	0x3d826e9b	0.063687526
75	0xbb97dca5	-0.004634457
76	0x3e02a0e5	0.12756689
77	0x3e0e6b7d	0.13908191
78	0x3e01fced	0.1269414
79	0xbe80a504	-0.25125897
80	0x3e6eb264	0.23310238
81	0xbec7e116	-0.39038914
82	0x3e2a3a74	0.1662386
83	0x3e87b1bd	0.2650279
84	0xbdceea02	-0.10103227
85	0x3de5002f	0.11181676
86	0x3ddb0e9f	0.10696148
87	0x3e35f12e	0.17767784
88	0x3e52d78b	0.20590036
89	0xbd0bd0a5	-0.034134526
90	0x3a8a3f84	0.0010547494
91	0x3e0f6c0f	0.14006065
92	0x3eb7aea8	0.3587544
93	0x3ea06ab5	0.3133141
94	0xbf25474c	-0.64561915
95	0x3e45b470	0.19307113
96	0x3e812473	0.2522312
97	0x3e3a5f30	0.18200374
98	0x3d8ac50c	0.06775865
99	0x3d94583d	0.072433926
100	0xbbb14792	-0.005410143
101	0xbdbdeb67	-0.09273415
102	0x3d859edb	0.0652444
103	0x3e139b8d	0.14414807
104	0x3dc16d37	0.09444659
105	0x3dd7b7a5	0.10533074
106	0x3e1487e8	0.14504969
107	0x3e6a9d93	0.22911672
108	0x3e6632eb	0.22480361
109	0xbdf30251	-0.11865676
110	0x3e4c71de	0.19965312
111	0xbe838a2c	-0.25691354
112	0xbe62b4e6	-0.2213932
113	0x3e13d657	0.14437233
114	0xbc85770a	-0.016292114
115	0x3eaae634	0.33378756
116	0x3ea79fb0	0.3273902
117	0x3e3e5b7a	0.18589583
118	0xbe747cf7	-0.23875795
119	0x3dbd712b	0.09250101
120	0xbec93fd1	-0.393065
121	0xbde6a468	-0.11261827
122	0xbda20fa3	-0.07913139
123	0xbb7e71af	-0.0038825085
124	0x3e0d5624	0.13802391
125	0xbe791f19	-0.24328269
126	0x3e94eb21	0.2908564
127	0x3e5824e7	0.21107827

weight f4 [12, 128]
0	0xbc453e20	-0.012038738
1	0xbd9b85c4	-0.07593873
2	0x3e385985	0.18002899
3	0xbf5a8bef	-0.8536977
4	0x3d754569	0.059880648
5	0xbda251d0	-0.07925761
6	0x3e1d790d	0.15378208
7	0xbcfcc419	-0.030855225
8	0xbe28b4a6	-0.16475162
9	0x3e1c82d4	0.15284282
10	0xbde2127f	-0.11038684
11	0xbeef60d9	-0.46753576
12	0xbe1063a1	-0.14100505
13	0x3ecc4c55	0.39901987
14	0x3e274a69	0.16336979
15	0x3eba5415	0.36392274
16	0xbdf07c09	-0.11742408
17	0xbceb65ab	-0.028735003
18	0x3e566f70	0.20940948
19	0x3e84177d	0.2579917
20	0x3e4e93fd	0.2017364
21	0x3daad607	0.08341604
22	0x3d05e7b3	0.03269167
23	0x3ea64796	0.3247649
24	0x3b8bf3eb	0.0042710206
25	0xbe8dad93	-0.2767149
26	0x3cc28db3	0.023749208
27	0x3dc9a39a	0.09845658
28	0x3ebb1a37	0.36543438
29	0xbd899ec1	-0.06719733
30	0x3e0be1eb	0.136604
31	0x3e9eaf62	0.3099318
32	0x3ed788e2	0.4209662
33	0x3db7940a	0.08963783
34	0x3efb3888	0.49066567
35	0xbeccdcdf	-0.4001226
36	0x3e820f6a	0.25402385
37	0xbe086b25	-0.13322122
38	0x3e9a44c8	0.301306
39	0x3d8e5da6	0.06951456
40	0xbf3abc0e	-0.729432
41	0x3d93e74b	0.0722185
42	0x3dbf4c09	0.093406744
43	0xbdd8b84a	-0.10582025
44	0x3d858ea7	0.065213494
45	0x3c8ba2c7	0.017045392
46	0x3e3df631	0.18550946
47	0x3e5bc305	0.21461113
48	0x3d180981	0.03711844
49	0x3e6ee5da	0.23329869
50	0x3b5276e9	0.0032114333
51	0x3e9b519c	0.303357
52	0xbd122f17	-0.03568944
53	0x3d6d7bc7	0.05797937
54	0xbecc23e5	-0.39871135
55	0xbc8c0157	-0.017090483
56	0x3e3095b4	0.17244607
57	0xbe4a4c6a	-0.19755712
58	0x3b4e01ed	0.0031434253
59	0x3e1fbb54	0.15598804
60	0x3d83afc2	0.064300075
61	0x3e183311	0.1486323
62	0x3dbe28ff	0.09285163
63	0x3e0cf757	0.13766228
64	0x3e398e63	0.18120722
65	0x3d7741e2	0.060365565
66	0x3e5424bb	0.20717137
67	0xbd43787d	-0.04772233
68	0xbda4d3d6	-0.08048217
69	0x3ed2ea83	0.41194543
70	0xbdb4c951	-0.088274606
71	0xbe3c2246	-0.1837245
72	0x3e292b9b	0.1652054
73	0xbd432c85	-0.04764988
74	0x3eee46b6	0.46538323
75	0xbe39da58	-0.18149698
76	0xbd6dd404	-0.058063522
77	0x3dffe73c	0.12495276
78	0xbd76a5ea	-0.06021682
79	0xbe8e376f	-0.27776667
80	0xbd5c9646	-0.05385425
81	0xbe133915	-0.14377244
82	0xbe8cf786	-0.27532595
83	0x3e564512	0.20924786
84	0xbe56bcac	-0.2097041
85	0xbd5596aa	-0.052145638
86	0x3e2cb373	0.1686533
87	0x3d67d84a	0.056602754
88	0x3e08e4d7	0.13368545
89	0x3e7766eb	0.24160354
90	0x3e54d421	0.20784046
91	0x3c93126f	0.017953126
92	0x3df96ddf	0.121791594
93	0x3e516c25	0.2045141
94	0xbe9d8c7e	-0.3077125
95	0xbe0685f0	-0.1313703
96	0x3c5581c8	0.013031431
97	0x3e25ac62	0.1617904
98	0xbda7a0d5	-0.08184973
99	0x3d204955	0.039132435
100	0x3e816381	0.25271228
101	0xbc95459d	-0.01822167
102	0x3cd7967d	0.026316876
103	0x3e197e18	0.14989507
104	0xbe8ac3b3	-0.27102432
105	0x3e3fff87	0.1874982
106	0x3d84062e	0.06446491
107	0x3d165f77	0.036712136
108	0x3e590a9e	0.21195456
109	0xbd1f2a54	-0.038858727
110	0x3e3ba05f	0.18322895
111	0xbc3f2261	-0.011665911
112	0x3e38d0af	0.18048356
113	0xbc8021c4	-0.0156411
114	0xbaf9a2fc	-0.0019045766
115	0x3dbddb77	0.09270375
116	0x3dcc5729	0.09977562
117	0xbe084d26	-0.1331068
118	0xbe6b8cb3	-0.23002891
119	0x3dc8f6a0	0.09812665
120	0xbe471927	-0.19443189
121	0xbe3d5b3f	-0.18491839
122	0xbe112c50	-0.1417706
123	0xbe5daa1e	-0.21646926
124	0x3c7556af	0.01497428
125	0xbe93eb0a	-0.28890258
126	0x3a5c7cc2	0.00084109243
127	0x3de9be16	0.11413209
128	0xbc10c24c	-0.0088353865
129	0xbdb56e1f	-0.088588946
130	0xbdb2c688	-0.08729273
131	0xbc779189	-0.015110382
132	0x3ec8f5e5	0.39250103
133	0x3c33436c	0.010941368
134	0x3d9d54b3	0.07682171
135	0x3d58111e	0.0527507
136	0x3d9edbc6	0.07756762
137	0xbc083973	-0.008314478
138	0x3e8cf1a7	0.27528116
139	0x3e322324	0.17396218
140	0xbd0daba2	-0.03458751
141	0x3d98792b	0.07444986
142	0x3b71531c	0.0036823219
143	0x3c531b09	0.012884864
144	0xbdc000f5	-0.093751825
145	0xbe516414	-0.20448333
146	0xbad947d8	-0.0016577197
147	0x3dd80170	0.10547149
148	0xbcc559e8	-0.024090722
149	0xbe1892cc	-0.14899749
150	0xbdae2242	-0.08502628
151	0xbe106325	-0.1410032
152	0xbc8d47e3	-0.017246192
153	0x3dd4b8d9	0.103868194
154	0xbe6d8bd5	-0.23197873
155	0xbd097eed	-0.03356831
156	0xbe03f30e	-0.12885687
157	0x3ca1580e	0.019695308
158	0x3e80889d	0.25104228
159	0xbe0af968	-0.13571703
160	0x3c30dfda	0.010795558
161	0xbc537c2c	-0.012908023
162	0xbe1b20fa	-0.15149298
163	0xbd40e46c	-0.04709284
164	0x3db9c2d8	0.090703666
165	0x3d60fe02	0.05492974
166	0xbb854e44	-0.004068168
167	0x3d3cf465	0.04613151
168	0x3c605b9f	0.013693719
169	0x3d894b29	0.06703789
170	0xbcdafef5	-0.026732901
171	0x3e10a03a	0.14123622
172	0x3d25f7a4	0.04051937
173	0xbc4a95da	-0.012364829
174	0x3c2908cd	0.01031704
175	0x3d25edfd	0.040510166
176	0x3dae34a4	0.08506134
177	0xbd38cd3e	-0.04511761
178	0x3ddb6ff5	0.107147135
179	0xbde9658d	-0.113963224
180	0x3d60a159	0.054841373
181	0x3cb74477	0.022371514
182	0xbda8870b	-0.082288824
183	0xbdec3cce	-0.11535035
184	0xbdac99f5	-0.084278025
185	0xbd1fdf0e	-0.03903108
186	0xbe0089a6	-0.12552509
187	0x3e8bda6e	0.27315086
188	0x3d546e2f	0.05186289
189	0xbc5d0e4a	-0.013492176
190	0xbdb5628d	-0.08856688
191	0xbdeb3bb8	-0.11486
192	0xba96d7ce	-0.0011508407
193	0x3cc73c53	0.024320757
194	0xbea1b150	-0.3158059
195	0x3e08f3fa	0.1337432
196	0xbd4dadac	-0.050214455
197	0x3b622e85	0.003451259
198	0xbce4596b	-0.027874669
199	0x3d2aa827	0.04166427
200	0x3cdff1ed	0.027337039
201	0xbd7db495	-0.061939795
202	0xbc236068	-0.0099717155
203	0x3d0e068f	0.034674224
204	0x3da969c6	0.08272128
205	0x3e6fe233	0.23426132
206	0xbe8d5218	-0.27601695
207	0x3e51aca1	0.20476009
208	0x3e2a1a71	0.16611649
209	0xbdb8002f	-0.0898441
210	0xbd14225c	-0.03616558
211	0xbe17f683	-0.1484013
212	0xbd563d57	-0.052304592
213	0x3ddcb543	0.107767604
214	0x3d964831	0.07337988
215	0xbdf349f9	-0.118793435
216	0xbd48ead4	-0.049052075
217	0x3dee328c	0.11630735
218	0x3cde143d	0.02710926
219	0x3ce2e8ae	0.027698841
220	0x3cb78387	0.022401584
221	0x3d1972f9	0.037463162
222	0xbd57e2fe	-0.05270671
223	0x3d0fa142	0.035065897
224	0xbd17d88a	-0.037071742
225	0xbdc815e8	-0.09769803
226	0xbdabee23	-0.0839503
227	0xbd2d98f3	-0.042382192
228	0x3edcea6c	0.431476
229	0x3b9fbd81	0.0048748855
230	0xbbbc0ea2	-0.005739049
231	0xbad037d3	-0.0015885778
232	0xbcec6e7d	-0.028861279
233	0xbd1e0ab4	-0.038584426
234	0xbd1ff762	-0.039054282
235	0x3cfa7b39	0.030576335
236	0xbb683071	-0.0035429264
237	0x3e50863d	0.20363708
238	0x3e14c5f3	0.14528637
239	0x3e25f251	0.16205718
240	0xbc35ece5	-0.011103843
241	0x3c76e1f1	0.015068517
242	0xbe0f451d	-0.13991208
243	0x3e025969	0.1272942
244	0xba0b9a2e	-0.0005325404
245	0xbc8f9365	-0.017526338
246	0xbe04ece7	-0.12980996
247	0x3e0bfb01	0.13669969
248	0x3e1173a2	0.14204267
249	0xbdf71b85	-0.12065796
250	0x3db99fcb	0.09063681
251	0xbd620384	-0.055179134
252	0x3e6e9e46	0.23302564
253	0xbd0851d6	-0.03328117
254	0xbdf3e4a3	-0.11908843
255	0x3c55a0ba	0.0130388085

bias f4 [12]
0	0x3ee01a3d	0.43770018
1	0xba8cfad9	-0.0010755911
2	0xbea22abd	-0.31673232
3	0xbead2164	-0.33814538
4	0x3e0d48b4	0.13797265
5	0xbe9470fc	-0.2899245
6	0x3eb816fc	0.35955036
7	0x3d4e52c5	0.050371904
8	0xbe760e1a	-0.24028817
9	0xbec98709	-0.39360836
10	0x3d8bbed5	0.06823508
11	0xbecf6fc8	-0.4051497
