actor_model/actor_1200.pt (torch, 99279 bytes, 6 tensors)

weight f4 [128, 34]
0.20706563 0.18669164 -0.15782504 -0.09508677 -0.05818387 -0.23304647 -0.03541325 -0.20880453
-0.08487402 -0.056697786 -0.14486867 0.019170158 -0.06283279 -0.07000024 0.032601114 0.028554663
0.1371427 -0.09151782 -0.024386305 -0.04885438 0.021505607 0.025747485 0.040215466 0.05404076
-0.0009261421 0.11945146 -0.03747388 0.14576738 -0.06345186 -0.12808914 -0.023069464 0.009893659
0.12568335 0.0471359 -0.01709229 0.05924178 0.23847775 0.2119305 0.036278248 0.026784958
0.07101113 0.0488399 -0.12226378 -0.07502052 0.276634 -0.012239601 0.017517244 0.14882031
-0.023881778 -0.07225179 -0.045201108 -0.05583289 0.12889066 0.095639534 0.11263343 0.05449142
0.050630108 0.07872217 -0.0016429907 0.20670155 0.0133210905 0.0040947115 -0.011546953 -0.0859108
0.016796386 0.13986515 -0.08250874 -0.006779633 0.05284456 -0.0038593907 -0.087893546 0.024508955
0.07086652 -0.062177084 0.03418562 -0.015488453 0.09390346 -0.0037657567 -0.021349533 -0.0518719
0.042017043 0.14847149 -0.16634497 0.03740514 -0.16870785 0.14876832 0.06419356 0.07294208
-0.06027097 -0.1350653 -0.014126377 -0.04712527 -0.009462898 0.17993619 -0.23670809 -0.008477033
0.09181627 -0.105982564 -0.063319735 0.042343717 0.0661323 0.01898055 -0.16288471 0.09241373
-0.25706828 -0.050271876 -0.06758334 -0.10617055 0.07476287 0.04886941 -0.35007855 -0.06567591
-0.06363068 0.008019705 -0.029998988 0.046114855 0.0725108 -0.022621136 0.053153064 -0.011678063
0.15119636 -0.1886226 0.044016745 -0.15695351 -0.10905871 -0.01741417 -0.0038333426 -0.03193191
0.07572906 -0.058183044 -0.2209734 0.17860207 0.036448743 -0.05253928 -0.024983564 -0.15165819
0.080559306 -0.06292104 0.009766723 -0.22544694 -0.051510114 -0.03651984 0.05129467 -0.028261885
0.26148602 -0.054927424 -0.0011612582 -0.02581211 -0.05904516 -0.11788942 -0.2731535 -0.013060453
-0.06248592 -0.045132935 -0.06633656 0.20217583 -0.24333532 0.0066621 0.1259989 0.16898806
0.038264073 0.092936456 0.1714709 -0.040499248 0.016266681 0.036682572 -0.04109254 0.023414413
0.07793068 -0.097055435 -0.123913445 -0.16526385 -0.08349321 -0.041340698 -0.10744677 -0.14724648
0.09868242 -0.020616755 -0.040453836 -0.08582363 -0.10984397 -0.19692135 0.20213151 0.085362144
0.13385637 0.033640135 -0.0816999 0.1786146 -0.38401347 -0.1187104 0.18501943 -0.030618474
-0.04905019 -0.061263613 -0.021682529 -0.235837 0.06448705 0.024114622 -0.11802256 0.12791507
-0.1513117 0.011723419 0.039157633 0.06474419 0.220705 -0.08779806 -0.017052295 0.047553416
0.020043474 0.083846025 -0.10872315 -0.23655097 0.04198953 0.04538894 -0.110537186 0.18636848
-0.22233321 -0.09167413 0.0015714531 -0.07188245 0.16385043 0.0065803737 -0.11600839 0.14136189
-0.18510422 -0.18627347 -0.002373509 -0.073303655 0.055261888 0.079022 -0.0039029885 0.06611778
0.14732456 -0.016897157 0.063364 -0.06890895 0.02937953 0.096481174 0.11684829 0.093411155
-0.12189422 0.2578143 -0.105404764 -0.14608902 -0.03769111 -0.19449425 0.16639578 -0.03859889
-0.03762697 -0.34800395 0.022792619 0.019421581 -0.110916734 0.03986355 0.24549997 -0.049233872
00000000: 0309 543e 182c 3f3e e39c 21be dabc c2bd
00000010: 3652 6ebd bca3 6ebe 7c0d 11bd dbd0 55be
00000020: 6ed2 adbd f03b 68bd 7458 14be bc0a 9d3c
00000030: 7aae 80bd 495c 8fbd bf88 053d 78eb e93c
00000040: 236f 0c3e b26d bbbd cac5 c7bc 881b 48bd
00000050: 872c b03c 64ec d23c f9b8 243d d859 5d3d
00000060: 58c8 72ba f8a2 f43d 367e 19bd 0b44 153e
00000070: 0cf3 81bd cd29 03be 2cfc bcbc 0319 223c
00000080: 23b3 003e 9311 413d 2105 8cbc 82a7 723d
00000090: 8333 743e 4f04 593e 8098 143d 216c db3c
000000a0: 496e 913d 590c 483d 6f65 fabd 5ca4 99bd
000000b0: f9a2 8d3e 9c88 48bc 5380 8f3c 5a64 183e
000000c0: b8a3 c3bc bff8 93bd cc24 39bd 07b1 64bd
000000d0: eafb 033e a9de c33d 5bac e63d 6532 5f3d
000000e0: 8461 4f3d 1739 a13d 9f59 d7ba 92a9 533e
000000f0: b440 5a3c ee2c 863b 6e2f 3dbc 00f2 afbd
00000100: 9398 893c cf38 0f3e 58fa a8bd af27 debb
00000110: 8a73 583d d5ed 7cbb 8801 b4bd 01c7 c83c
00000120: 7722 913d 66ad 7ebd 3806 0c3d 48c3 7dbc
00000130: 7550 c03d eaca 76bb 37e5 aebc a177 54bd
00000140: 101a 2c3d e908 183e 5656 2abe 2236 193d
00000150: c0c1 2cbe b956 183e ea77 833d a862 953d
00000160: b1de 76bd 8f4e 0abe 5272 67bc 6d06 41bd
00000170: 450a 1bbc 3141 383e 9b63 72be 41e3 0abc
00000180: 2b0a bc3d 630d d9bd c7ad 81bd 9b70 2d3d
00000190: 5f70 873d 197d 9b3c 40cb 26be 6943 bd3d
000001a0: 749e 83be e2e9 4dbd 2269 8abd f26f d9bd
000001b0: 471d 993d 4a2b 483d 7f3d b3be 1781 86bd
000001c0: cd50 82bd 1565 033c 70c0 f5bc eee2 3c3d
000001d0: 8b80 943d f64f b9bc 07b7 593d 5955 3fbc
000001e0: 38d3 1a3e 4826 41be e74a 343d 6cb8 20be
000001f0: 2c5a dfbd 29a8 8ebc d138 7bbb 09cb 02bd
00000200: d617 9b3d 5851 6ebd da46 62be 76e3 363e
00000210: 474b 153d 6e33 57bd 55aa ccbc 494c 1bbe
00000220: 47fc a43d bfdc 80bd 9b04 203c 90db 66be
00000230: 45fc 52bd d495 15bd 5c1a 523d 7885 e7bc
00000240: 7fe1 853e 94fb 60bd 5c35 98ba eb73 d3bc
00000250: 56d9 71bd 0270 f1bd c7da 8bbe 83fb 55bc
00000260: 3cf1 7fbd 50dd 38bd 76db 87bd 2e07 4f3e
00000270: e52c 79be bf4d da3b db05 013e 350b 2d3e
00000280: caba 1c3d 7855 be3d 1196 2f3e 8ae2 25bd
00000290: b441 853c 7740 163d a750 28bd 95cf bf3c
000002a0: 1f9a 9f3d 00c5 c6bd 55c6 fdbd ed3a 29be
000002b0: 7dfe aabd dd54 29bd 0d0d dcbd c8c7 16be
000002c0: 021a ca3d 78e4 a8bc ecb2 25bd 4dc4 afbd
000002d0: e0f5 e0bd c0a5 49be 90fb 4e3e 59d2 ae3d
000002e0: a511 093e 3dca 093d 4752 a7bd bfe6 363e
000002f0: 6a9d c4be 701e f3bd bc75 3d3e 98d3 fabc
00000300: dae8 48bd 8eef 7abd 8f9f b1bc 417f 71be
00000310: c911 843d 078c c53c d0b5 f1bd 2bfc 023e
00000320: 74f1 1abe 9513 403c c163 203d 9a98 843d
00000330: 7e00 623e 78cf b3bd 41b1 8bbc 5fc7 423d
00000340: 3632 a43c 77b7 ab3d 3eaa debd 6b3a 72be
00000350: 37fd 2b3d c1e9 393d 5261 e2bd 61d7 3e3e
00000360: 51ab 63be a5bf bbbd 37f9 cd3a 1b37 93bd
00000370: 68c8 273e 2da0 d73b cf95 edbd 2cc1 103e
00000380: f68b 3dbe 79be 3ebe e08c 1bbb 3a20 96bd
00000390: 4a5a 623d 49d6 a13d 48c9 7fbb c268 873d
000003a0: 40dc 163e e86b 8abc fcc4 813d 2320 8dbd
000003b0: 57ad f03c ec97 c53d 284e ef3d 594e bf3d
000003c0: ada3 f9bd 3c00 843e 74de d7bd 5c98 15be
000003d0: fe61 1abd 8029 47be a863 2a3e df19 1ebd
000003e0: bd1e 1abd 932d b2be 96b7 ba3c 021a 9f3c
000003f0: 5028 e3bd f647 233d 5864 7b3e 75a9 49bd

bias f4 [128]
0.19579002 0.1085284 -0.036778 0.026179658 -0.026255066 -0.007954095 -0.123547286 0.11337791
-0.10815476 -0.0032167614 0.16182819 0.30786255 -0.28825286 0.0023231928 0.1909945 0.14352168
-0.21068881 0.013089708 -0.1427197 -0.06647938 -0.14863813 -0.10860324 -0.017864987 -0.14070433
-0.15396379 0.18898462 -0.018888 -0.07299458 0.13087599 -0.2709473 0.05080265 0.1139744
0.070702724 0.055979338 0.102744855 -0.077416964 0.10737772 -0.10790793 0.043158952 -0.12142193
-0.029617669 -0.16870429 0.07035223 -0.18166208 0.030043667 -0.118633874 -0.14145906 0.21474351
-0.00080181134 -0.017637849 0.09079925 0.027769312 0.17690231 -0.03470074 -0.21754266 0.0314204
-0.12485638 0.07123777 -0.055389903 -0.17949162 -0.14434937 0.22892848 0.1529629 0.013454481
0.026916847 0.18001203 -0.20153518 0.039164875 0.08437829 0.19834504 -0.15294847 -0.11308964
-0.17895576 0.11614855 0.085355654 0.008070591 0.07384344 -0.16947256 -0.045113154 -0.027777083
0.24836347 -0.048488364 -0.022347288 0.3013692 -0.034035936 -0.19812645 -0.12146438 -0.22989547
-0.22234902 0.023890859 -0.075615756 -0.067548595 0.19957916 -0.057890862 -0.20202398 0.11449701
0.20925508 0.2396998 0.10031344 -0.2870545 0.010353829 0.24847613 0.09469873 0.00085502776
0.15895048 -0.012306256 -0.036337666 -0.16509108 -0.0061410465 -0.07232262 0.043871563 0.13614349
0.067942895 -0.019671382 0.037712898 -0.06704052 -0.065275334 -0.1743871 0.26129565 0.17767428
-0.035320796 0.27231082 0.1908928 -0.07509721 0.044506468 -0.27221614 0.26574108 -0.08566826
00000000: 2e7d 483e 2344 de3d 87a4 16bd b976 d63c
00000010: dd14 d7bc e451 02bc 5c06 fdbd ad32 e83d
00000020: 3e80 ddbd 4dd0 52bb 4ab6 253e 29a0 9d3e
00000030: e195 93be b540 183b 1094 433e 59f7 123e
00000040: cfbe 57be 3776 563c 1d25 12be 5726 88bd
00000050: 9834 18be 606b debd 9859 92bc cc14 10be
00000060: afa8 1dbe 2f85 413e 02bb 9abc 2f7e 95bd
00000070: 5b04 063e 9bb9 8abe 7116 503d 696b e93d
00000080: 97cc 903d 974a 653d e56b d23d c98c 9ebd
00000090: dae8 db3d d5fe dcbd 71c7 303d 10ac f8bd
000000a0: c1a0 f2bc d1c0 2cbe d414 903d a005 3abe
000000b0: 231e f63c 51f6 f2bd a5da 10be b9e5 5b3e
000000c0: a630 52ba 407d 90bc f5f4 b93d 787c e33c
000000d0: e125 353e 5d22 0ebd 81c3 5ebe adb2 003d
000000e0: b4b4 ffbd 1ce5 913d 86e0 62bd a7cc 37be
000000f0: 52d0 13be 3a6c 6a3e 4ea2 1c3e 2f70 5c3c
00000100: b880 dc3c 1355 383e 3d5f 4ebe 596b 203d
00000110: 86ce ac3d f61a 4b3e 869e 1cbe 8b9b e7bd
00000120: 2e40 37be 4adf ed3d f2ce ae3d 833a 043c
00000130: 3b3b 973d 378a 2dbe 92c8 38bd c48c e3bc
00000140: fe52 7e3e bc9b 46bd a911 b7bc 104d 9a3e
00000150: 4469 0bbd a9e1 4abe 51c2 f8bd b869 6bbe
00000160: 76af 63be c3b6 c33c 6fdc 9abd eb56 8abd
00000170: 7b5e 4c3e f81e 6dbd 60df 4ebe 697d ea3d
00000180: f746 563e dd73 753e 2271 cd3d cff8 92be
00000190: 1ba3 293c 8770 7e3e 68f1 c13d f123 603a
000001a0: eac3 223e 2ea0 49bc ced6 14bd a30d 29be
000001b0: d53a c9bb e21d 94bd abb2 333d 3369 0b3e
000001c0: a525 8b3d e125 a1bc d778 1a3d 8a4c 89bd
000001d0: 13af 85bd 8892 32be 8bc8 853e 3ff0 353e
000001e0: 8aac 10bd 536c 8b3e 6779 433e 91cc 99bd
000001f0: 6a4c 363d ea5f 8bbe 370f 883e d772 afbd

weight f4 [128, 128]
-0.06509005 -0.1803624 0.16123998 0.1680385 -0.0032577387 -0.06354989 -0.105730824 0.179253
-0.22969012 0.08983062 -0.13107787 -0.10685364 -0.23446992 -0.1275858 -0.10779292 -0.044944797
-0.081295684 -0.013675006 0.040744826 -0.16106297 0.04816168 0.100201406 0.116669126 0.13785405
-0.04964624 -0.21249114 -0.07871896 -0.19430807 -0.03828216 -0.18469612 0.11112763 0.08665401
-0.046836223 -0.053815406 -0.08031316 -0.14891122 0.005595287 0.12090349 -0.030515075 -0.32109982
-0.08171938 -0.08388866 -0.2234318 0.059177354 0.059121653 -0.031134635 -0.04342626 0.022664195
-0.1292596 0.035366654 0.042214837 -0.18572135 -0.29674992 0.012691139 0.08100846 -0.09120662
0.2584311 0.21317203 0.16116385 0.018944237 -0.11865409 -0.26143232 -0.09547779 0.07270607
-0.1353029 -0.1983143 -0.13359314 -0.07025918 -0.06701022 0.16618198 -0.18616688 0.19385137
-0.2449239 0.06576275 -0.025595337 -0.22553535 -0.2986546 -0.09884896 -0.017907262 -0.037268884
0.030811962 -0.113929756 -0.21722895 0.06159853 -0.26734167 0.16163366 -0.060726505 -0.04476549
0.10692386 -0.1381911 -0.15931664 0.17914075 -0.20283511 0.045742534 -0.08426681 -0.12632822
0.11092587 -0.076524846 0.09554021 -0.16227815 0.27037546 -0.0017234018 -0.17408395 0.010388681
-0.10478931 -0.12389253 -0.0786052 0.14558955 -0.10418204 0.009614328 -0.005659245 -0.051755946
-0.12986022 -0.15128751 -0.0033957846 0.09763371 -0.002686759 -0.031576905 -0.007198194 -0.21577291
-0.035484094 -0.0055521727 -0.16849634 0.07831141 -0.06739451 0.16710936 -0.04504326 0.21859156
0.07888662 -0.050107453 -0.0033629641 0.052966285 0.062025238 -0.45631394 -0.20429264 0.16736074
0.014402735 -0.09480498 0.09818688 0.18073557 0.011187066 -0.112192094 0.1334453 0.13649791
-0.1395728 0.10102254 -0.07904634 -0.008614399 0.093323395 -0.03033827 -0.1209838 0.09655879
-0.07243367 0.026971085 -0.024839545 -0.075640075 0.12786517 0.047742892 0.020553928 0.17726794
0.039504115 -0.05199848 -0.15151799 -0.1875789 0.06451162 -0.039354406 0.0390762 -0.005069292
-0.07535602 -0.15393865 -0.13528277 -0.11500036 -0.032142658 -0.0060597607 0.035679124 0.0240683
-0.029036522 0.08477874 0.057197787 0.2095754 0.08443866 -0.11195536 -0.054071367 -0.072933085
0.036444467 0.16048895 0.027721884 -0.10290304 -0.029690646 0.1810166 -0.25654173 -0.06388215
-0.17867033 -0.11517977 -0.123044305 0.13018873 -0.037613604 -0.25843456 -0.008173671 -0.103809536
-0.054456115 0.2786515 -0.16564511 -0.1541135 0.036674403 -0.18807767 -0.24148354 0.023239585
-0.12787038 -0.13027918 -0.10902359 0.03988916 0.21779832 -0.1354129 -0.049558613 0.15774201
0.08825315 0.089604236 0.32048288 -0.03943528 0.016766384 0.02260755 0.2269461 -0.002833152
-0.026007837 -0.18145269 0.04105929 0.2542535 -0.14741701 0.15339944 0.1288343 -0.0637045
0.25686178 -0.05466595 0.10231426 -0.07504815 -0.0082006045 0.010429835 -0.15944599 -0.09703909
0.173533 -0.027297825 -0.112054236 0.090970084 -0.17440675 -0.0662718 0.096569136 -0.069564074
0.020942988 0.060169246 -0.17564657 -0.15108436 -0.071687676 -0.011985081 -0.17046598 -0.06240158
00000000: ef4d 85bd ecb0 38be 181c 253e 4912 2c3e
00000010: c97f 55bb 7226 82bd 6789 d8bd 198e 373e
00000020: e333 6bbe 1ef9 b73d 4739 06be 15d6 dabd
00000030: e218 70be daa5 02be 89c2 dcbd 0918 38bd
00000040: 5a7e a6bd 220d 60bc 0ce4 263d b1ed 24be
00000050: 2f45 453d 6536 cd3d 39f0 ee3d 9d29 0d3e
00000060: db59 4bbd 4797 59be 6837 a1bd b2f8 46be
00000070: c1cd 1cbd fb20 3dbe e296 e33d a877 b13d
00000080: 57d7 3fbd 8b6d 5cbd 3a7b a4bd 2f7c 18be
00000090: ab58 b73b 409c f73d c0fa f9bc 3267 a4be
000000a0: 7e5c a7bd d1cd abbd 4ecb 64be f463 723d
000000b0: 8c29 723d 100e ffbc bcdf 31bd 43aa b93c
000000c0: a15c 04be a0dc 103d 77e9 2c3d bd2d 3ebe
000000d0: 9bef 97be 7fee 4f3c c3e7 a53d 89ca babd
000000e0: 1551 843e c549 5a3e 2308 253e f230 9b3c
000000f0: ea00 f3bd 75da 85be dc89 c3bd ece6 943d
00000100: d88c 0abe e712 4bbe a4cc 08be 0ce4 8fbd
00000110: a73c 89bd 9c2b 2a3e 88a2 3ebe f980 463e
00000120: 55cd 7abe 9fae 863d 50ad d1bc bdf2 66be
00000130: 41e9 98be 5371 cabd 40b2 92bc 42a7 18bd
00000140: 5e69 fc3c 0154 e9bd 4471 5ebe bd4e 7c3d
00000150: 02e1 88be 4b83 253e 5bbc 78bd 055c 37bd
00000160: e6fa da3d f881 0dbe e723 23be ac70 373e
00000170: 02b4 4fbe 865c 3b3d 1494 acbd 2f5c 01be
00000180: 1a2d e33d 0fb9 9cbd 96aa c33d 3e2c 26be
00000190: a76e 8a3e c5e3 e1ba 1043 32be 4935 2a3c
000001a0: c79b d6bd 5ebb fdbd c3fb a0bd 6d15 153e
000001b0: 655d d5bd 6a85 1d3c 3071 b9bb 0bfe 53bd
000001c0: 14fa 04be 1deb 1abe d08b 5ebb 2ff4 c73d
000001d0: 5614 30bb c956 01bd d4de ebbb 93f3 5cbe
000001e0: c557 11bd 00ef b5bb 4e8a 2cbe bc61 a03d
000001f0: 2206 8abd b71e 2b3e 487f 38bd 77d6 5f3e
00000200: 4f8f a13d 793d 4dbd 2d65 5cbb 2df3 583d
00000210: 2d0e 7e3d fba1 e9be 1732 51be 9d60 2b3e
00000220: 73f9 6b3c 1d29 c2bd 3416 c93d bf12 393e
00000230: f549 373c f8c4 e5bd e2a5 083e 1cc6 0b3e
00000240: 2cec 0ebe e8e4 ce3d 0ce3 a1bd 6823 0dbc
00000250: 5620 bf3d f787 f8bc 5bc6 f7bd 9dc0 c53d
00000260: 1b58 94bd 77f2 dc3c 4d7c cbbc 2fe9 9abd
00000270: 16ef 023e 0d8e 433d b660 a83c ba85 353e
00000280: 11cf 213d 5cfc 54bd 8827 1bbe af14 40be
00000290: ab1e 843d 1632 21bd 5e0e 203d 4e1c a6bb
000002a0: 4254 9abd 18a2 1dbe 9187 0abe 4f85 ebbd
000002b0: 05a8 03bd f590 c6bb 4624 123d e22a c53c
000002c0: 00de edbc 7aa0 ad3d 3a48 6a3d ef9a 563e
000002d0: 2dee ac3d da48 e5bd f079 5dbd f15d 95bd
000002e0: cb46 153d 3757 243e 0119 e33c d4be d2bd
000002f0: cc39 f3bc 6a5c 393e 7059 83be a5d4 82bd
00000300: 5bf5 36be 5fe3 ebbd a7fe fbbd 3250 053e
00000310: b910 1abd 8951 84be dcea 05bc 189a d4bd
00000320: 600d 5fbd 69ab 8e3e df9e 29be eecf 1dbe
00000330: e637 163d 6f97 40be 7647 77be f160 be3c
00000340: 74f0 02be e867 05be c347 dfbd d162 233d
00000350: 8606 5f3e aea9 0abe f9fd 4abd 1f87 213e
00000360: 11be b43d 6d82 b73d 5516 a43e e386 21bd
00000370: a859 893c 7833 b93c 8f64 683e 67ac 39bb
00000380: 630e d5bc bcce 39be c92d 283d 842d 823e
00000390: 7cf4 16be be14 1d3e 24ed 033e 8177 82bd
000003a0: 6383 833e 67e9 5fbd 248a d13d d8b2 99bd
000003b0: d45b 06bc e6e1 2a3c cf45 23be 6ebc c6bd
000003c0: a2b2 313e b09f dfbc b17c e5bd 864e ba3d
000003d0: af97 32be 82b9 87bd 0ac6 c53d 9c77 8ebd
000003e0: a190 ab3c 0774 763d b2dc 33be dcb5 1abe
000003f0: fdd0 92bd 135d 44bc a28e 2ebe cd98 7fbd

bias f4 [128]
-0.16847764 0.08355121 -0.06718416 0.095326796 0.14351876 -0.006622344 0.04628505 -0.04772733
0.15767477 0.1438914 -0.089432664 0.004240887 0.10685138 0.15775076 -0.11478636 -0.063697346
0.020390622 -0.10738037 -0.03120085 0.016982397 -0.055235464 -0.121246696 -0.005112674 0.014105489
-0.09122086 0.15109463 0.024763135 -0.11921449 -0.048450436 -0.14693351 0.115018934 -0.079865575
-0.0005928759 0.05764358 0.026567297 0.010143965 0.17335004 -0.09273551 -0.0035879533 0.1057366
0.14603157 0.14925914 -0.004456204 -0.08724003 -0.0336561 -0.055393215 -0.018045403 -0.038494058
0.06865167 0.026882237 0.002863288 0.060470466 -0.12261256 -0.117871225 0.18026271 -0.09692123
0.12176536 0.047179654 0.032898206 -0.061310306 0.13165729 -0.07707996 -0.073127344 -0.13921525
0.0014699656 0.032533944 0.025302079 0.08740863 -0.08858626 0.09125503 0.0854403 -0.10728963
-0.0790098 0.04513023 -0.047463797 0.028010353 0.04610303 -0.1516252 -0.035481833 0.025859257
0.045237157 0.21359377 -0.014542368 0.06059925 0.058178186 0.0021980847 -0.05713822 -0.01738077
-0.12152891 0.031773273 0.13598102 0.14193393 0.01854053 0.09657038 0.08853106 -0.06186143
-0.11990259 0.025880264 -0.061758965 -0.04554725 0.036036406 0.1979702 0.015913146 -0.16555823
-0.033301424 0.020481471 -0.03906638 0.04275792 0.05469276 0.12616792 0.076611646 0.095623285
-0.0015016056 0.15913332 0.05353972 -0.042652514 -0.059773345 0.11228906 -0.033847757 -0.06733336
-0.11327945 0.09405628 -0.12505247 0.005734692 0.065114036 -0.096817814 -0.06630369 -0.07904021
00000000: 6785 2cbe e61c ab3d d997 89bd b23a c33d
00000010: 95f6 123e 3f00 d9bb 6595 3d3d bc7d 43bd
00000020: 7f75 213e 4458 133e 7928 b7bd 23f7 8a3b
00000030: e5d4 da3d 6a89 213e 1c15 ebbd c173 82bd
00000040: 3c0a a73c 3dea dbbd ed98 ffbc ab1e 8b3c
00000050: 953e 62bd 3050 f8bd 3888 a7bb b51a 673c
00000060: 01d2 babd 8db8 1a3e 0fdc ca3c ba26 f4bd
00000070: f773 46bd bd75 16be 0c8f eb3d 9090 a3bd
00000080: 3a6b 1bba ad1b 6c3d a9a3 d93c df32 263c
00000090: ac82 313e 1dec bdbd de23 6bbb 6e8c d83d
000000a0: 4d89 153e 63d7 183e 5905 92bb e7aa b2bd
000000b0: fbda 09bd ffe3 62bd f4d3 93bc f2ab 1dbd
000000c0: 3f99 8c3d 2338 dc3c 00a6 3b3b e1af 773d
000000d0: 4b1c fbbd 7866 f1bd ca96 383e a37e c6bd
000000e0: 1e60 f93d 743f 413d 45c0 063d 8420 7bbd
000000f0: 2bd1 063e 19dc 9dbd cac3 95bd 718e 0ebe
00000100: dcab c03a 5042 053d 4e46 cf3c 4c03 b33d
00000110: b76c b5bd ebe3 ba3d 53fb ae3d aaba dbbd
00000120: e4cf a1bd 7ada 383d 6669 42bd f875 e53c
00000130: 88d6 3c3d a343 1bbe 6655 11bd cbd6 d33c
00000140: 994a 393d 53b8 5a3e 1d43 6ebc eb36 783d
00000150: 404c 6e3d be0d 103b c409 6abd 1e62 8ebc
00000160: 26e4 f8bd b124 023d 9c3e 0b3e 2157 113e
00000170: 4fe2 973c b1c6 c53d c64f b53d 6962 7dbd
00000180: 7d8f f5bd d902 d43c f8f6 7cbd c18f 3abd
00000190: e99a 133d b3b8 4a3e 495c 823c 1988 29be
000001a0: 1367 08bd c2c8 a73c 1204 20bd ee22 2f3d
000001b0: 8405 603d 2a32 013e 91e6 9c3d 24d6 c33d
000001c0: 86d1 c4ba d8f3 223e 774c 5b3d 67b4 2ebd
000001d0: e5d4 74bd cff7 e53d f2a3 0abd 13e6 89bd
000001e0: 0eff e7bd 94a0 c03d c10d 00be 15ea bb3b
000001f0: 825a 853d 6b48 c6bd 3bca 87bd d5df a1bd

weight f4 [12, 128]
0.056420326 -0.13317491 0.19306289 -0.008614497 0.0156628 0.19340244 0.0067806765 -0.0029648612
0.19720864 -0.119944155 -0.048173066 -0.038484525 -0.013672351 -0.1812637 -0.16210817 -0.09361935
-0.05539816 -0.049389724 -0.21203731 -0.046797402 -0.019605191 0.1607745 0.07796295 -0.0049596974
0.15181346 -0.23583286 -0.03286719 0.019354042 0.19026384 -0.07698926 0.048935346 -0.009424248
-0.029461045 0.253912 0.079100296 0.052265424 -0.16393839 0.07869128 -0.018051269 0.033745386
0.010849865 -0.14603342 -0.08393554 0.048253335 -0.063613854 0.041935798 -0.0015787189 0.0049060653
-0.09210877 -0.089214794 0.08734054 -0.17511885 -0.1794399 0.07760099 -0.11019982 0.008652308
-0.020567594 -0.025554134 -0.050615802 0.18702482 0.063404895 0.10191468 0.024608636 -0.05315768
-0.13407631 0.20469613 -0.05644814 -0.16345048 -0.04033917 0.035127703 0.08519337 0.15712263
-0.10393784 -0.022851208 -0.1702765 0.1530423 0.03192579 0.0023569777 -0.045980953 0.06602031
0.25016475 -0.26170167 0.050794475 0.037656013 -0.11499715 -0.069278106 0.03530524 0.046268295
-0.04708737 0.056171115 0.02271342 0.27439028 -0.214046 0.09552164 0.25193053 -0.02813705
0.108096726 0.07648015 0.11924511 0.07105958 0.036170464 -0.12546077 -0.08812852 0.17782913
-0.071526684 -0.03859726 0.008255894 0.022577962 -0.094342805 -0.19499594 0.10172294 0.008014807
-0.05691501 0.11843651 -0.100688495 0.11069324 -0.0837545 -0.0683009 -0.1759253 -0.03539606
0.19684947 0.04592779 -0.12097506 -0.15120417 -0.05908227 0.096330866 -0.15744434 -0.30397627
-0.047764603 0.14731595 -0.2732969 -0.02253276 0.28477582 -0.04409211 -0.03226872 0.040458143
0.06963476 0.010416986 0.039860655 0.14663273 0.23942654 0.1029676 0.040624503 -0.037128337
0.1633951 0.1901489 -0.06341604 -0.0054221163 0.048335515 -0.19623871 0.26163712 0.075579986
0.19545981 0.20939271 -0.009192587 -0.052870523 -0.16058171 -0.06103215 -0.03225 0.12849769
0.033029553 0.06386287 -0.076223075 0.14172952 0.16902205 -0.011576945 0.07877544 -0.10083137
0.22320078 -0.034502033 0.08495296 -0.10298046 -0.050641313 -0.11608376 -0.05683203 0.08808654
0.15061072 -0.08026349 -0.13822992 -0.01818558 0.047441117 -0.2890421 0.30675507 -0.05466077
0.13070261 0.14068815 -0.03887154 -0.18658608 0.07338151 -0.07680376 -0.07666742 -0.09980397
-0.06685423 0.12456334 0.055402283 0.10531769 -0.18860614 -0.15511288 -0.041702457 0.05127683
-0.09349152 0.16885196 -0.18487701 0.012724749 -0.006906442 -0.051606614 -0.10907557 -0.059557017
-0.104564145 0.17394517 -0.15806389 -0.008488589 0.014952936 -0.010808914 -0.21045434 -0.10610422
0.09894035 -0.052139316 0.08187518 -0.06702996 0.06937237 -0.08579771 0.24388415 0.057635922
-0.17168868 -0.07026734 -0.080936305 -0.058242887 -0.100989595 0.18692103 0.07334877 -0.11004062
-0.17544056 0.1325372 0.0362495 0.019898541 0.32129598 0.071434885 0.01650462 0.24958344
0.050313998 0.18423481 0.009474556 -0.04965469 -0.04131769 -0.028299801 0.05774615 -0.013667006
-0.1452702 -0.10458828 0.010947291 -0.18851753 0.15647423 0.009927169 0.03629637 0.048621975
00000000: 0019 673d 015f 08be 47b2 453e d223 0dbc
00000010: 464f 803c 4a0b 463e 7030 de3b 1e4e 42bb
00000020: 10f1 493e 48a5 f5bd 1f51 45bd f3a1 1dbd
00000030: ff01 60bc 319d 39be afff 25be 80bb bfbd
00000040: 2ee9 62bd e14c 4abd 4f20 59be a2ae 3fbd
00000050: 119b a0bc 12a2 243e 0aab 9f3d f584 a2bb
00000060: fd74 1b3e 2b7e 71be bf9f 06bd 5e8c 9e3c
00000070: 86d4 423e 8cac 9dbd 6e70 483d 2968 1abc
00000080: 4a58 f1bc c100 823e 56ff a13d 4514 563d
00000090: 77df 27be e528 a13d 41e0 93bc 9a38 0a3d
000000a0: a2c3 313c c989 15be 65e6 abbd 4aa5 453d
000000b0: fb47 82bd dfc4 2b3d 04ed ceba 0fc3 a03b
000000c0: 86a3 bcbd 3fb6 b6bd 99df b23d 5b52 33be
000000d0: 18bf 37be 45ed 9e3d 71b0 e1bd 69c2 0d3c
000000e0: 5f7d a8bc e756 d1bc 8452 4fbd 6f83 3f3e
000000f0: 6dda 813d a5b8 d03d 0d98 c93c debb 59bd
00000100: 4d4b 09be dd9b 513e 2a36 67bd 905f 27be
00000110: af3a 25bd 11e2 0f3d dd79 ae3d c1e4 203e
00000120: 5ddd d4bd 7532 bbbc f65c 2ebe 1fb7 1c3e
00000130: 9ec4 023d 8677 1a3b 8656 3cbd a835 873d
00000140: 9815 803e c3fd 85be de0d 503d 313d 1a3d
00000150: a083 ebbd aee1 8dbd 3a9c 103d d383 3d3d
00000160: b0de 40bd af13 663d 7f11 ba3c e27c 8c3e
00000170: e02e 5bbe d9a0 c33d 0afd 803e ac7f e6bc
00000180: d161 dd3d a0a1 9c3d c836 f43d af87 913d
00000190: 7b27 143d ca78 00be ba7c b4bd d718 363e
000001a0: 957c 92bd 2918 1ebd bb43 073c 6bf5 b83c
000001b0: cd36 c1bd 04ad 47be 1e54 d03d 8950 033c
000001c0: b71f 69bd d78e f23d c535 cebd 23b3 e23d
000001d0: 7b87 abbd 58e1 8bbd c325 34be 76fb 10bd
000001e0: e892 493e c71e 3c3d c6c1 f7bd 44d5 1abe
000001f0: 4000 72bd 1e49 c53d 1739 21be c7a2 9bbe
00000200: d1a4 43bd fed9 163e 92ed 8bbe 9f96 b8bc
00000210: 23ce 913e ee99 34bd 352c 04bd 70b7 253d
00000220: ab9c 8e3d 02ac 2a3c ed44 233d e426 163e
00000230: 3b2c 753e ade0 d23d e165 263d e213 18bd
00000240: 0c51 273e 65b6 423e 45e0 81bd 02ac b1bb
00000250: 76fb 453d cdf2 48be 4df5 853e aec9 9a3d
00000260: 9e26 483e 0b6b 563e 819c 16bc c38e 58bd
00000270: 886f 24be d9fc 79bd 9318 04bd e694 033e
00000280: ff49 073d 89ca 823d d81a 9cbd 8b21 113e
00000290: 1e14 2d3e 3aad 3dbc 0555 a13d ad80 cebd
000002a0: bf8e 643e 0152 0dbd d1fb ad3d 6be7 d2bd
000002b0: 446d 4fbd 53bd edbd b4c8 68bd b766 b43d
000002c0: b239 1a3e 2f61 a4bd 258c 0dbe edf9 94bc
000002d0: 9e51 423d 53fd 93be 000f 9d3e f9e3 5fbd
000002e0: e8d6 053e 8e10 103e c437 1fbd 6c10 3fbe
000002f0: 0c49 963d 4a4b 9dbd cf03 9dbd 0666 ccbd
00000300: dfea 88bd 101b ff3d 81ed 623d cdb0 d73d
00000310: f821 41be e9d5 1ebe 32d0 2abd a707 523d
00000320: 7b78 bfbd 87e7 2c3e 6650 3dbe 777b 503c
00000330: 6f4f e2bb 7561 53bd 0363 dfbd 0ff2 73bd
00000340: ba25 d6bd af1e 323e 80db 21be b913 0bbc
00000350: 29fd 743c df17 31bc 5881 57be 2b4d d9bd
00000360: 3da1 ca3d 0990 55bd 2dae a73d 0147 89bd
00000370: 1a13 8e3d b6b6 afbd c4bc 793e a513 6c3d
00000380: 28cf 2fbe 53e8 8fbd efc1 a5bd 1890 6ebd
00000390: a2d3 cebd 3a68 3f3e e137 963d fa5c e1bd
000003a0: b1a6 33be d5b7 073e 5b7a 143d 4402 a33c
000003b0: e880 a43e 744c 923d b234 873c cd92 7f3e
000003c0: 0d16 4e3d 0da8 3c3e 2b3b 1b3c b762 4bbd
000003d0: bd3c 29bd fcd4 e7bc 3a87 6c3d 94eb 5fbc
000003e0: b6c1 14be 6132 d6bd 445c 333c bd0a 41be
000003f0: c83a 203e 91a5 223c 81ab 143d d627 473d

bias f4 [12]
0.05304769 0.15553124 0.107177354 -0.06527019 0.034210116 0.10175877 0.035927165 0.031093583
0.007917642 0.02902073 0.09889877 0.000656933
00000000: 8948 593d 9543 1f3e cd7f db3d 61ac 85bd
00000010: e81f 0c3d e766 d03d 5d28 133d f8b7 fe3c
00000020: ffb8 013c e2bc ed3c 708b ca3d 0736 2c3a
