actor_model/actor_600.pt (torch, 89966 bytes, 6 tensors)

weight f4 [128, 16]
0	0xbe218908	-0.1577493
1	0x3d83b68b	0.06431302
2	0xbc6e5160	-0.0145457685
3	0xbd94739a	-0.07248612
4	0xbe3dc2d3	-0.18531351
5	0x3df4aff2	0.119476214
6	0x3ca0c058	0.019622967
7	0x3d6bc1cf	0.057557877
8	0xbe02312d	-0.12714072
9	0x3c967e55	0.018370787
10	0x3c664e79	0.014056795
11	0x3db0761c	0.086162776
12	0x3d976926	0.07393102
13	0xbe0c7cdc	-0.13719505
14	0xbd5b1c4d	-0.053493787
15	0xbcf66448	-0.030077115
16	0xbe07a441	-0.13246252
17	0x3d991e28	0.07476455
18	0x3d908343	0.07056286
19	0xbdcbd903	-0.09953501
20	0x3d155f40	0.03646779
21	0x3e830c5a	0.2559536
22	0xbdc62d63	-0.096766256
23	0xbd4e307b	-0.050339203
24	0xbdf7d8a7	-0.1210187
25	0xbcea6af5	-0.028615454
26	0xbc948f3f	-0.018134711
27	0xbb8946ce	-0.004189349
28	0xbd780d8f	-0.060559805
29	0xbe333328	-0.17499983
30	0xbd1522c8	-0.036410123
31	0xbddbce1f	-0.10732674
32	0xbd811523	-0.0630286
33	0x3d9e5a51	0.0773207
34	0xbded1d71	-0.11577881
35	0x3e9f096e	0.31061882
36	0x3d9ae672	0.07563485
37	0xbc56fd02	-0.013121845
38	0xbe16c095	-0.14721902
39	0x3df18942	0.11793758
40	0x3caaa18a	0.020828981
41	0xbdc9ea27	-0.09859114
42	0x3dc8d1f3	0.0980567
43	0xbd671ce4	-0.056424037
44	0xbe7fb9cd	-0.24973221
45	0x3e17cae1	0.14823486
46	0xbe1e88b3	-0.15481834
47	0x3dbb8f93	0.09158244
48	0xbd5766b9	-0.0525882
49	0x3e51b021	0.20477344
50	0x3e2de525	0.16981943
51	0x3dd259d1	0.10271037
52	0x3eacfca2	0.33786494
53	0xbd58cdf0	-0.052930772
54	0x3e8ab0e5	0.27088085
55	0x3db14223	0.08655193
56	0x3df7a1b7	0.120913915
57	0x3ce182a3	0.027528113
58	0x3daaa68a	0.08332546
59	0xbdb825de	-0.089915976
60	0xbcaabc16	-0.02084164
61	0xbcca0737	-0.024661643
62	0x3d98f3fc	0.07468411
63	0xbacddd80	-0.0015706271
64	0xbcc186f4	-0.023623921
65	0xbdeeef4e	-0.116667375
66	0x3e21f11e	0.15814635
67	0x3e27230b	0.16321962
68	0x3e2d3090	0.16913056
69	0x3e4c9ce1	0.1998172
70	0xbdf31942	-0.11870052
71	0x3de48240	0.11157656
72	0x3e246c18	0.1605686
73	0xbd17c413	-0.037052225
74	0x3e08fde3	0.133781
75	0xbe7e60bf	-0.24841593
76	0x3ea61351	0.32436612
77	0xbde8e38d	-0.11371527
78	0xbe3a61ee	-0.1820142
79	0xbdd0b37a	-0.101904824
80	0x3d307dd8	0.043088764
81	0xbd8b66f6	-0.068067476
82	0xbd10131b	-0.03517447
83	0xbdb0af01	-0.08627129
84	0xbd25612c	-0.040375873
85	0xbd59b22e	-0.05314844
86	0x3d4dfe50	0.05029136
87	0xbe80f638	-0.2518785
88	0xbe1d8efe	-0.15386578
89	0x3cb7a8a3	0.02241928
90	0x3d5505a9	0.05200735
91	0xbdd281ef	-0.10278689
92	0x3db7f89b	0.089829646
93	0xbe41cf48	-0.18926728
94	0xbe8d5aff	-0.27608487
95	0xbe648def	-0.22319768
96	0xbe533fbe	-0.20629784
97	0xbd3fdcd2	-0.04684145
98	0xbd0c4bce	-0.03425198
99	0x3e58df44	0.21178919
100	0xbd3a8437	-0.045536246
101	0x3dbc968e	0.092084035
102	0xbd8aaccb	-0.06771239
103	0x3d7c45f1	0.06159014
104	0xbce38bc4	-0.027776606
105	0x3dbc09a0	0.09181523
106	0x3e338d11	0.17534281
107	0xbd7d61f8	-0.06186101
108	0x3bf1cb48	0.0073789693
109	0x3e115ca3	0.14195494
110	0xbe1d63b8	-0.15370071
111	0xbdf610e4	-0.120149404
112	0x3e0299a4	0.12753922
113	0x3e76e3b1	0.24110295
114	0xbda844bf	-0.08216237
115	0x3bf0d3a3	0.007349448
116	0xbda02560	-0.07819629
117	0x3bb6c628	0.0055778213
118	0xbdfa0dc9	-0.122096606
119	0xbd6ea70d	-0.05826478
120	0x3e4215e0	0.18953657
121	0x3d7f2aa4	0.062296525
122	0xbd8ac2e9	-0.067754574
123	0x3d2a0e04	0.041517273
124	0xbe36a462	-0.17836145
125	0xbc9d4de3	-0.019202178
126	0xbe5539d1	-0.20822836
127	0xbd9a8a50	-0.07545912
128	0x3dad2255	0.08453814
129	0xbdc1c0c1	-0.09460593
130	0x3d972dbb	0.07381769
131	0x3d9bb101	0.0760212
132	0x3ca52898	0.020160958
133	0xbddb8fd9	-0.10720796
134	0xbdde54b5	-0.10856
135	0x3dcddc91	0.10051835
136	0x3dce434d	0.1007143
137	0xbd918871	-0.07106102
138	0x3c3fa16e	0.011696203
139	0x3c73e375	0.014885773
140	0xbe0762b9	-0.13221253
141	0x399ad8f3	0.0002953481
142	0x3e51dbd3	0.20494013
143	0xbd4beb54	-0.049784973
144	0xbde60363	-0.11231115
145	0x3ddf4e36	0.109035894
146	0xbd052453	-0.032505345
147	0x3dbfe1d5	0.09369246
148	0x3bb1e7ef	0.00542926
149	0xbe646b3e	-0.22306535
150	0xbd801972	-0.06254853
151	0xbd103e06	-0.0352154
152	0x3de24143	0.11047604
153	0xbd609982	-0.054833896
154	0xbdaf0ad1	-0.08546985
155	0xbd41e5b9	-0.04733822
156	0x3d8b6320	0.06806016
157	0xbe369634	-0.17830735
158	0xbca38a0a	-0.019963283
159	0x3db577e3	0.08860757
160	0x3d2c5fc3	0.042083513
161	0x3c49f06b	0.0123253865
162	0xbdce8264	-0.10083464
163	0x3c1ee7c0	0.009698808
164	0x3e04d7ac	0.12972897
165	0xbdaef911	-0.085435994
166	0x3d8760dd	0.06610272
167	0xbd4530d1	-0.048142258
168	0x3e4164b0	0.18886065
169	0x3dcfd785	0.10148529
170	0xbdb20e59	-0.08694143
171	0x3d9cdc9d	0.07659266
172	0x3dc6e2d5	0.097112335
173	0x3ed12e12	0.4085546
174	0xbe4346c2	-0.1906996
175	0xbe1caed1	-0.15301062
176	0x3d38ab48	0.04508522
177	0x3e0a8dcc	0.13530654
178	0xbd8a2198	-0.06744689
179	0xbdee0c06	-0.11623387
180	0x3d200939	0.039071295
181	0xbd0c90a2	-0.03431762
182	0x3cfde723	0.030994004
183	0x3e5ffa98	0.21872938
184	0xbe578331	-0.2104614
185	0xbe317b04	-0.17332083
186	0xbd072d9d	-0.033002485
187	0xbd96bc17	-0.07360094
188	0xbe0604c8	-0.13087761
189	0xbde89826	-0.11357145
190	0x3d5974dc	0.05308996
191	0xbda412b2	-0.08011378
192	0xbd971d58	-0.07378644
193	0x3ddc2f2c	0.10751185
194	0x3e90eb64	0.2830459
195	0xbda0442a	-0.07825501
196	0x3d7f6091	0.062347952
197	0xbd52f9b3	-0.051507663
198	0xbdb988ad	-0.09059272
199	0x3bbffded	0.0058591277
200	0x3c61a14b	0.013771365
201	0x3db69b36	0.08916323
202	0xbd1c4947	-0.03815582
203	0xbe42eb3d	-0.19035049
204	0x3dc6bdd6	0.09704177
205	0x3e251993	0.16123037
206	0x3b8d08fc	0.0043040495
207	0xbd21f37e	-0.039538853
208	0xbd76be44	-0.060240045
209	0x3d821f69	0.06353647
210	0x3e058bce	0.13041613
211	0xbd61ad6b	-0.055097025
212	0xbe5a0cd5	-0.21293958
213	0xbe012808	-0.12612927
214	0x3d285334	0.041094974
215	0x3df93a28	0.121692955
216	0x3e0ad394	0.13557273
217	0xbcd1a69a	-0.025592137
218	0xbdd704a4	-0.10498932
219	0xbdcc15dd	-0.099651076
220	0xbdc8119b	-0.09768983
221	0xbd18f28e	-0.037340693
222	0xbdcc496c	-0.099749416
223	0xbd8a60d1	-0.067567475
224	0x3ce5f5fc	0.028071396
225	0xbca3333f	-0.019921897
226	0xbca08d04	-0.019598491
227	0xbd94628a	-0.07245357
228	0xbe28d53f	-0.16487597
229	0x3df1bc51	0.11803497
230	0x3e6d48bd	0.23172279
231	0x3d216491	0.03940255
232	0x3c9386cd	0.018008614
233	0x3cde11aa	0.027108032
234	0x3cee2a52	0.029072914
235	0x3dc866a3	0.097852014
236	0x3ccddd5f	0.025129972
237	0x3de67490	0.11252701
238	0xbde2af93	-0.110686444
239	0x3d8a537f	0.06754207
240	0xbd4488f1	-0.04798216
241	0xbdb3c0bd	-0.08776996
242	0xbdab927e	-0.083775505
243	0x3e2dd48a	0.16975608
244	0x3dfb63b9	0.1227488
245	0xbda9c8ab	-0.082902275
246	0x3ceb2a70	0.02870676
247	0x3d24d863	0.040245425
248	0xbd1ec838	-0.038765162
249	0xbe1781f2	-0.14795664
250	0xbe00244e	-0.12513849
251	0x3da2039d	0.079108454
252	0xbd340257	-0.043947544
253	0xbd431765	-0.047629733
254	0xbca74109	-0.020416753
255	0xbe309aec	-0.17246598

bias f4 [128]
0	0xbc53b487	-0.012921459
1	0x3df30d03	0.11867716
2	0x3e0ed2fe	0.13947675
3	0x3d3568cd	0.0442894
4	0x3e848f42	0.25890547
5	0x3e8ef896	0.2792403
6	0x3e457ced	0.19285937
7	0xbe42ce87	-0.19024096
8	0xbe0463dd	-0.1292872
9	0x3e3bca6d	0.18338938
10	0xbd0ff504	-0.035145774
11	0xbe84aeea	-0.259147
12	0xbe35cb9f	-0.17753457
13	0x3952df85	0.00020110428
14	0xbdbcf196	-0.09225766
15	0x3e31d353	0.1736577
16	0xbe58df8c	-0.21179026
17	0x3e638fe5	0.2222286
18	0x3e746edf	0.23870419
19	0xbd36116d	-0.044450212
20	0x3d455607	0.048177745
21	0x3cd0ab87	0.025472416
22	0xbea1cebe	-0.31603044
23	0xbd4ca752	-0.049964257
24	0xbe332965	-0.1749626
25	0xbe43ff26	-0.191403
26	0x3e87299c	0.26398933
27	0x3da60991	0.081072934
28	0x3dcf4b36	0.10121767
29	0xbd861dab	-0.065486275
30	0x3e178489	0.14796652
31	0xbe74de0c	-0.23912829
32	0xbd031f46	-0.032012247
33	0x3e823b90	0.25436068
34	0xbe7342a4	-0.2375589
35	0xbe81fa8f	-0.25386474
36	0x3e97d2d1	0.29653028
37	0x3e8d3dfc	0.27586353
38	0xbe5211f7	-0.20514666
39	0xbe060a06	-0.13089761
40	0xbd03d611	-0.03218657
41	0xbe64ffc5	-0.22363193
42	0xbc30b11e	-0.0107844155
43	0x3dd47d41	0.10375453
44	0x3d5fb6fd	0.05461787
45	0x3e067a36	0.13132557
46	0xbe1ac223	-0.1511312
47	0xbd54b506	-0.05193045
48	0x3e2dec15	0.1698459
49	0x3c956f0e	0.018241432
50	0x3e3e82ba	0.18604556
51	0xbe65e083	-0.22448926
52	0xbe8356d2	-0.25652176
53	0xbe7de904	-0.2479592
54	0xbea008b9	-0.31256655
55	0x3cfc0de8	0.03076835
56	0xbdc6a13d	-0.096987225
57	0x3ca9791e	0.020687636
58	0xbe2e03e0	-0.16993666
59	0xbdba0727	-0.090833955
60	0xbd75d673	-0.060018968
61	0x3e76aff8	0.24090564
62	0x3e988da4	0.29795563
63	0x3e6db06a	0.23211828
64	0x3d76d35f	0.060260173
65	0x3d9e2453	0.07721772
66	0xbdd33840	-0.10313463
67	0x3e6691bb	0.2251653
68	0xbd06cc8b	-0.03290991
69	0x3dc4d5f1	0.096111186
70	0xbdaddb81	-0.08489133
71	0x3e0d3e27	0.1379324
72	0xbe19953b	-0.14998333
73	0x3d949ab7	0.07256072
74	0x3e01112e	0.1260421
75	0x3e020473	0.1269701
76	0x3e93f417	0.28897163
77	0x3dc10113	0.09424033
78	0xbd15cfb1	-0.036575023
79	0x3e3c4a6f	0.18387769
80	0xbe5e787f	-0.21725653
81	0xbe106b68	-0.14103472
82	0x3e80e207	0.25172445
83	0xbc593e17	-0.013259432
84	0x3d67be28	0.05657783
85	0xbe6b8f9d	-0.23004003
86	0xbca11d3a	-0.019667257
87	0x3e589b9c	0.2115311
88	0xbd50dede	-0.050993793
89	0xbd9c3c16	-0.07628648
90	0xbe7ec8ac	-0.24881238
91	0xbe5816a9	-0.21102394
92	0xbe89da2f	-0.26924273
93	0xbe2ad6d0	-0.16683507
94	0xbda79879	-0.08183379
95	0x3e785f5f	0.24255131
96	0xbe545860	-0.20736837
97	0xbcacaa64	-0.021077342
98	0xbe2b54bc	-0.16731542
99	0x3e09c70e	0.1345484
100	0xbe58f907	-0.21188746
101	0xbd36b873	-0.0446095
102	0x3d996437	0.074898176
103	0x3e4c1c4c	0.1993267
104	0x3deebf9d	0.11657641
105	0xbe869d0a	-0.26291686
106	0xbe91cfa8	-0.28478742
107	0xbe61b12c	-0.22040242
108	0xbd4a8b13	-0.049449038
109	0xbe81c39f	-0.2534456
110	0xbe0f7ad0	-0.14011693
111	0x3d9f6249	0.07782418
112	0xbd85eabf	-0.06538915
113	0x3dc86281	0.09784413
114	0xbd90b3a3	-0.07065513
115	0xbd232e1a	-0.039838888
116	0xbe894046	-0.2680685
117	0x3de2b52d	0.11069713
118	0x3e5cc8d8	0.21560991
119	0x3e82fce2	0.2558356
120	0xbe7e1bad	-0.24815245
121	0xbe54c000	-0.20776367
122	0xbd55105e	-0.052017562
123	0x3d7cf2be	0.061754934
124	0xbd9c3077	-0.076264314
125	0x3e28c014	0.16479522
126	0xbe5928c6	-0.2120696
127	0x3e783e67	0.24242555

weight f4 [128, 128]
0	0x3cd57cb1	0.026060434
1	0xbddcc555	-0.107798256
2	0xbd57ff38	-0.05273363
3	0xbd5fb506	-0.054615997
4	0xbd02d516	-0.031941496
5	0xbc9cae86	-0.019126188
6	0x3c33bcb2	0.010970281
7	0xbd1f9e1f	-0.038969155
8	0x3dc9f6c7	0.09861522
9	0x3d64e318	0.055880636
10	0xbe233aaa	-0.15940347
11	0xbe409a17	-0.1880878
12	0x3d05a1b5	0.03262492
13	0x3e05385a	0.13009778
14	0x3e64d3f2	0.22346476
15	0x3db63241	0.08896304
16	0xbd6fa48a	-0.058506526
17	0xbd9b5752	-0.075850144
18	0x3e45792f	0.19284509
19	0xbda157a1	-0.07878042
20	0x3dd62b1e	0.10457443
21	0xbd20eab2	-0.039286323
22	0xbc560e84	-0.013064984
23	0xbd8b0a08	-0.06789023
24	0xbd14a296	-0.036287867
25	0xbe6656c6	-0.22494039
26	0xbdee3c4b	-0.11632594
27	0xbd7e8798	-0.06214103
28	0xbcb6806a	-0.02227803
29	0xbd097950	-0.03356296
30	0xbd83026c	-0.06396946
31	0x3dd48cfd	0.10378454
32	0x3e06f613	0.13179807
33	0x3d860ec0	0.06545782
34	0x3d8c03ea	0.06836684
35	0xbe127e7b	-0.14306061
36	0x3e11c461	0.14235069
37	0x3dc449ee	0.095844135
38	0xbe234e23	-0.15947776
39	0x3e6cc6ea	0.23122755
40	0xbdca5ab0	-0.098805785
41	0x3db95a4d	0.09050427
42	0xbd3cacb7	-0.04606315
43	0xbc338d92	-0.010959046
44	0x3e131bb0	0.1436603
45	0x3d6dbd66	0.058041953
46	0xbcb1b5a6	-0.021693062
47	0xbd42167f	-0.047384735
48	0xbe05e792	-0.13076618
49	0x3d7c8609	0.061651263
50	0xbe1f129b	-0.15534441
51	0xbc07b316	-0.0082824435
52	0xbe389227	-0.18024503
53	0x3c9dff5c	0.019286804
54	0x3de08782	0.10963346
55	0xbd572d35	-0.052533347
56	0x3bbb2163	0.005710767
57	0x3e02f255	0.12787755
58	0x3e475c4d	0.19468804
59	0x3d391f92	0.045196123
60	0xbe14d536	-0.14534459
61	0x3e152d82	0.14568141
62	0x3e0a65fe	0.1351547
63	0x3e07fb0b	0.13279359
64	0x3cab2dff	0.020895956
65	0x3d10a58d	0.03531413
66	0x3becd438	0.007227447
67	0x3d5b40a9	0.05352846
68	0x3e04f8f8	0.12985599
69	0x3d44cc74	0.048046544
70	0xbd921878	-0.07133573
71	0xbd695aa7	-0.05697122
72	0xbd6a3da7	-0.057187703
73	0xbe566cf3	-0.20939998
74	0x3e3521eb	0.1768872
75	0xbcd2128c	-0.02564361
76	0x3db18798	0.086684406
77	0xbd317d0b	-0.04333214
78	0xbcced203	-0.025246626
79	0xbe066ec6	-0.13128194
80	0x3d2d498c	0.042306468
81	0x3deb2a14	0.11482635
82	0xbe7664df	-0.24061917
83	0xbe3762bc	-0.17908758
84	0x3e9c3833	0.30511627
85	0xbe188a4a	-0.14896503
86	0x39f86dcc	0.0004738405
87	0xbd4674b3	-0.048451137
88	0x3d9b8008	0.075927794
89	0xbd70f017	-0.058822718
90	0x3e654f71	0.22393586
91	0xbc5c96c1	-0.013463677
92	0x3e2f174b	0.1709873
93	0x3e02e61b	0.12783091
94	0x3e746ca1	0.23869564
95	0x3e382dd5	0.17986234
96	0xbe2c3825	-0.16818292
97	0xbe25a0e4	-0.16174656
98	0xbdf60e5b	-0.12014457
99	0xbc9b1199	-0.01892929
100	0xbcc87219	-0.024468469
101	0xbdfaa941	-0.12239314
102	0x3b2a5393	0.0025989756
103	0xbeb46680	-0.3523445
104	0x3d0c01fd	0.034181584
105	0xbdd16224	-0.10223797
106	0xbe0a0418	-0.13478124
107	0xbdcbf773	-0.099593066
108	0x3dc419dd	0.095752455
109	0xbe9545aa	-0.29154712
110	0x3e31ba77	0.17356287
111	0x3e57dbda	0.2107996
112	0xbeb14a76	-0.34627122
113	0xbd1ba7b5	-0.038001735
114	0xbd74bde5	-0.05975141
115	0x3e22f780	0.15914726
116	0xbd9c4930	-0.07631147
117	0xbd6b2a42	-0.057413347
118	0xbbf9cf68	-0.0076236017
119	0xbcbbeea5	-0.022940943
120	0x3e3470ba	0.17621127
121	0xbc96c1e9	-0.01840301
122	0xbe7b8efd	-0.24566264
123	0xbc99e9e0	-0.018788278
124	0x3dd69154	0.10476938
125	0x3e17c0fa	0.14819708
126	0xbdb8256f	-0.08991515
127	0x3e56c079	0.2097186
128	0xbe26499a	-0.16239014
129	0x3dc9b256	0.09848468
130	0xbdbc95ad	-0.09208236
131	0x3e60172d	0.21883841
132	0x3c8c7a9f	0.017148314
133	0xbd254151	-0.040345494
134	0xbd5b745c	-0.053577766
135	0x3d9ecd00	0.077539444
136	0x3e251a98	0.16123426
137	0xbda20728	-0.07911521
138	0xbd8840dc	-0.06652996
139	0xbca0a801	-0.01961136
140	0xbe07679e	-0.1322312
141	0xbd0a4195	-0.03375395
142	0x3e18df6f	0.14928983
143	0xbd61f4e7	-0.055165198
144	0x3e92ab6d	0.28646412
145	0x3e0ebe01	0.13939668
146	0xbd10eb39	-0.035380576
147	0xbd94c7b8	-0.07264656
148	0x3e18fc79	0.1494006
149	0x3df36863	0.118851446
150	0xbdaf12a3	-0.085484765
151	0x3e82ca2b	0.25544867
152	0xbd6058e1	-0.05477226
153	0x3d522749	0.051306996
154	0x3bc8f3ee	0.0061325943
155	0x3e75494f	0.23953746
156	0xbd543177	-0.051804986
157	0xbe64c017	-0.22338901
158	0x3d4235e2	0.047414668
159	0x3da46e71	0.080288775
160	0x3c0a78d3	0.008451658
161	0xbd895c10	-0.06707013
162	0x3d4c1661	0.04982603
163	0x3e1f4628	0.15554106
164	0x3e510042	0.20410255
165	0x3e195fbb	0.14977925
166	0x3e0d8c0d	0.13822956
167	0xbdcf639c	-0.10126421
168	0xbcdea0e2	-0.027176324
169	0xbd9f884c	-0.077896684
170	0x3b3892ed	0.0028163746
171	0x3e687225	0.22699793
172	0xbd9c7134	-0.07638779
173	0x3dd0f358	0.10202664
174	0xbbf3fd63	-0.0074459775
175	0x3df1e5a7	0.11811381
176	0xbe49a8fb	-0.19693367
177	0xbd4ca929	-0.04996601
178	0xbe244e7b	-0.16045563
179	0xbcefbd72	-0.02926514
180	0xbe016fb0	-0.12640262
181	0xbd459665	-0.04823913
182	0x3cf896b4	0.030345298
183	0xbde3c83b	-0.11122175
184	0xbe3371a0	-0.17523813
185	0xbdec2fe4	-0.11532572
186	0x3e21fd35	0.15819247
187	0xbe001a77	-0.12510096
188	0xbe1992b9	-0.14997377
189	0x3dc36673	0.09541025
190	0x3e1eb334	0.15498048
191	0x3e33453e	0.17506883
192	0xbe1f284a	-0.15542713
193	0x3dae4f2b	0.08511194
194	0x3d11f8f9	0.03563783
195	0xbd00fefd	-0.031493176
196	0x3d9b279f	0.075759165
197	0x3e1a45bf	0.15065669
198	0xbd6c166a	-0.057638563
199	0x3d0c36f0	0.03423208
200	0xbdbe3f01	-0.09289361
201	0xbd5ab830	-0.05339831
202	0xba0705b0	-0.0005150689
203	0x3bba39a7	0.005683142
204	0x3d02945b	0.031879764
205	0x3d7e596d	0.062097
206	0xbc3ca861	-0.011514754
207	0x3dcaac4b	0.098961435
208	0x3e5a002e	0.21289131
209	0x3b5c4c61	0.0033614861
210	0x3d0ab4ba	0.03386376
211	0x3e7f6e1c	0.24944347
212	0x3d293836	0.041313373
213	0x3dd26e8f	0.10274994
214	0xbe0e6478	-0.13905513
215	0xbd1ffea9	-0.039061222
216	0xbe6503a6	-0.22364673
217	0x3db584ae	0.08863197
218	0x3de29324	0.11063221
219	0x3d56d838	0.052452296
220	0xbd3f047f	-0.046635147
221	0x3dd1bc86	0.10241036
222	0xbd7f9762	-0.06240023
223	0x3dd1905b	0.10232612
224	0xbdf53191	-0.11972345
225	0x3d594744	0.05304648
226	0xbc802c17	-0.015646024
227	0xbca245b8	-0.019808635
228	0x3d7a1439	0.061054442
229	0x3e19c7f2	0.1501768
230	0xbe4a2d96	-0.19743952
231	0xbbedbb85	-0.00725502
232	0xbd50098f	-0.050790366
233	0xbd19651c	-0.03744994
234	0x3dba6869	0.09101946
235	0xbc127db2	-0.008941101
236	0xbda25e42	-0.079281345
237	0x3e2a5602	0.16634372
238	0x3e8cf077	0.2752721
239	0xbdcde691	-0.10053743
240	0x3e9b040c	0.30276525
241	0x3c18d3d3	0.009327847
242	0x3da4504d	0.08023129
243	0x3dc7c5b2	0.09754504
244	0xbe550be1	-0.20805313
245	0x3e805ea3	0.25072202
246	0x3e170fa1	0.14752056
247	0x3cb584a3	0.022157973
248	0x3bffe29e	0.0078089973
249	0xbe0c68dc	-0.13711876
250	0xbd1cd866	-0.03829231
251	0xbd5e6745	-0.054297704
252	0xbdfa392d	-0.12217937
253	0xbda6279c	-0.08113024
254	0xbd98c49b	-0.074593745
255	0x3e22f350	0.15913129

bias f4 [128]
0	0xbc363f8f	-0.011123552
1	0x3d65e771	0.056128923
2	0xbb36e37f	-0.0027906594
3	0x3c83e24c	0.016099118
4	0x3d3ce302	0.04611493
5	0xbd1b5931	-0.037926856
6	0x3ba3fd73	0.0050045787
7	0xbd95bcb7	-0.07311385
8	0xbd432fd8	-0.04765305
9	0xbd8fd543	-0.07023098
10	0xbd61f6ad	-0.05516689
11	0x3da6d84f	0.08146726
12	0xbd45f2ca	-0.048327245
13	0xbcee578e	-0.029094484
14	0x3bf9e25a	0.00762586
15	0x3d7c3c24	0.061580792
16	0x3c4cef32	0.0125082005
17	0x3d07304d	0.033005048
18	0xbc865766	-0.016399097
19	0xbdda1c5c	-0.1064994
20	0x3d2943ef	0.041324552
21	0x3d58fdbe	0.052976362
22	0x3db597da	0.08866854
23	0x3d34de05	0.044157047
24	0xbd123e90	-0.035704195
25	0xbd805e45	-0.062679805
26	0xbdeb8885	-0.115006484
27	0xbd862ad0	-0.065511346
28	0xbd69ea0a	-0.057107963
29	0x3d6a0084	0.057129398
30	0x3d6e6a8b	0.058207076
31	0xbdbedc7e	-0.09319399
32	0xbab8ff8b	-0.0014114244
33	0xbdd18b6d	-0.102316715
34	0xbd757939	-0.05993006
35	0xbcadf32e	-0.021234121
36	0xbd38f331	-0.0451538
37	0x37e369a9	2.710971e-05
38	0xbda68c1d	-0.08132193
39	0x3dd60e56	0.10451953
40	0xbc4a5cf7	-0.012351266
41	0x3ce656ce	0.028117564
42	0x3cf0bce8	0.029386953
43	0x3da07e96	0.07836644
44	0x3c88fc7e	0.01672196
45	0xbda20a35	-0.07912103
46	0xbd3ef678	-0.04662177
47	0x3d62041c	0.0551797
48	0xbd5d2249	-0.053987775
49	0x3cc124bc	0.023577087
50	0xbd301238	-0.042986125
51	0xbd474485	-0.04864933
52	0xbde7d9a9	-0.11320812
53	0x3e1f38df	0.15549038
54	0x3cc8c9bb	0.024510255
55	0xbd5410cf	-0.051773842
56	0x3db24ca0	0.08706021
57	0xbab52033	-0.00138188
58	0x3dbbc127	0.091677
59	0x3cde3af7	0.027127726
60	0x3d81ca20	0.063373804
61	0xb9f686fa	-0.00047021342
62	0x3be686ef	0.0070351283
63	0xbd5d351a	-0.05400572
64	0x3d3874ab	0.04503314
65	0x3d65ee6f	0.05613559
66	0x3d9381a1	0.07202459
67	0xbdac7050	-0.084198594
68	0xbd09e29a	-0.03366337
69	0x3d78d63c	0.060751185
70	0xbcbb6210	-0.022873908
71	0xbc349cd7	-0.011023722
72	0xbd8cc82f	-0.068741195
73	0xbdae5b9e	-0.08513568
74	0xbd80377a	-0.06260581
75	0xbc6649b7	-0.014055661
76	0x3d43ca78	0.04780051
77	0x3da0919f	0.07840275
78	0x3dd1682b	0.102249466
79	0x3d3e3bb9	0.046443675
80	0xbd96ef47	-0.07369857
81	0x3d6357f8	0.055503815
82	0xbd9ea249	-0.07745797
83	0xbd8ce641	-0.06879855
84	0xbd3f0ff3	-0.04664607
85	0x3d86c65b	0.06580802
86	0x3d2a9d9b	0.04165421
87	0xbdd74f66	-0.10513191
88	0xbc73d8ee	-0.014883263
89	0xbdca0813	-0.09864821
90	0x3d766fa0	0.060165048
91	0xbd42595b	-0.047448497
92	0xbdab3c5c	-0.08361122
93	0xbb549999	-0.0032440184
94	0xbd6dec59	-0.058086727
95	0x3d8f99b2	0.07011737
96	0xbcdaa0c7	-0.026687993
97	0x3b9dee59	0.004819673
98	0x3d2d56ce	0.04231911
99	0xbdf280d1	-0.11840976
100	0x3dc97449	0.09836633
101	0x3d82f378	0.06394094
102	0xbc06b0bc	-0.008220848
103	0x3d2807b4	0.04102297
104	0x3d0a06b1	0.033697788
105	0x3c319e43	0.010840955
106	0x3da7fdbf	0.08202695
107	0xbdc3e14b	-0.095644556
108	0x3dba97a3	0.09110954
109	0x3d47f34a	0.048816003
110	0xbda942cf	-0.08264696
111	0xbdfb108b	-0.12259015
112	0x3d395357	0.045245495
113	0xbc13cbb4	-0.009020735
114	0xbd872c56	-0.06600253
115	0xbc8711d7	-0.016487999
116	0xbd3434ad	-0.043995548
117	0x3ddd3106	0.10800366
118	0xbd54d2db	-0.0519589
119	0xbd2a3d57	-0.041562404
120	0xbce0164a	-0.027354378
121	0xbd42f6a3	-0.047598492
122	0x3bbf9815	0.005846987
123	0x3c67de04	0.014152054
124	0x3dce11db	0.100619994
125	0xbc55b167	-0.013042784
126	0xbc8f5c84	-0.01750017
127	0xbdb8eea6	-0.090298936

weight f4 [12, 128]
0	0x3cfd8c72	0.030950759
1	0x3e24a8ce	0.16080019
2	0xbdedac42	-0.11605121
3	0x3e42826e	0.18995067
4	0xbe17eb71	-0.14835908
5	0x3d939858	0.07206792
6	0xbe15a96d	-0.14615412
7	0xbc527ff3	-0.012847888
8	0xbe27b903	-0.1637917
9	0xbd87a2df	-0.06622862
10	0xbbf28cde	-0.0074020466
11	0xbd6267f8	-0.055274934
12	0xbd5565e2	-0.052099116
13	0x3dd4330c	0.10361299
14	0xbd23f0f2	-0.040024705
15	0xbe275404	-0.16340643
16	0x3e308299	0.17237319
17	0xbd7c6506	-0.06161978
18	0xbd68686e	-0.056740217
19	0x3c660fed	0.014041883
20	0xbd96cba5	-0.07363061
21	0xbe457b0c	-0.1928522
22	0x3cb7ecb6	0.02245174
23	0x3e0a6108	0.13513577
24	0xbe0c4211	-0.13697077
25	0xbe397f0f	-0.18114875
26	0xbd525f68	-0.051360518
27	0x3db5869b	0.088635646
28	0x3e033d96	0.12816462
29	0x3d3276f9	0.043570492
30	0xbd080331	-0.03320617
31	0x3dc5621c	0.096378535
32	0x3d5d1d18	0.053982824
33	0x3e486417	0.19569431
34	0xbc94057b	-0.01806902
35	0xbda4e6e8	-0.08051854
36	0xba28c678	-0.00064382656
37	0xbdc032a8	-0.09384662
38	0xbe6432ff	-0.22285078
39	0x3d4b6ee2	0.049666293
40	0xbdf35d51	-0.11883033
41	0xbd8bc59f	-0.068248026
42	0x3d9fb85d	0.077988364
43	0xbdc8bcad	-0.09801612
44	0x3d890731	0.06690825
45	0x3e694007	0.2277833
46	0xbc25e31a	-0.010124946
47	0xbb824fb3	-0.003976786
48	0xbd8d05ed	-0.06885896
49	0x3d3b1583	0.045674812
50	0x3aa4139b	0.001251805
51	0xbc897197	-0.016777797
52	0x3e57ecaa	0.21086374
53	0x3e347c5c	0.17625564
54	0x3c1fc9e2	0.009752722
55	0x3d629f74	0.055327848
56	0x3c9f9e4c	0.019484662
57	0xbdd53ff4	-0.10412589
58	0xbd3d7079	-0.04624984
59	0x3e7252dd	0.23664422
60	0x3ca80b23	0.020513123
61	0xbda512eb	-0.08060249
62	0x3db6675b	0.08906432
63	0x3e5b61b9	0.21423997
64	0x3e37255e	0.17885348
65	0x3d68727b	0.056749802
66	0x3d08d8f9	0.033410046
67	0x3ba23cfe	0.0049511185
68	0xbb7c53dc	-0.0038502133
69	0x3e7e2888	0.24820149
70	0x3e285153	0.16437273
71	0x3d1ea236	0.038728915
72	0x3e2eb965	0.1706291
73	0xbbc26305	-0.005932214
74	0xbc979ddc	-0.01850789
75	0xbe0af1dd	-0.13568826
76	0xbdcf5243	-0.10123112
77	0x3ddb057f	0.10694408
78	0x3dcaba73	0.098988436
79	0x3dc39e0b	0.09551629
80	0x3be37c91	0.0069423397
81	0x3d7e54ef	0.062092718
82	0x3cd0353a	0.025416005
83	0x3e0e6b2e	0.13908073
84	0x3e09b2d4	0.13447124
85	0x3dc0455b	0.093882285
86	0xbc098b58	-0.008395039
87	0x3df99763	0.12187078
88	0x3daab24b	0.08334788
89	0x3e003d45	0.12523372
90	0x3c19f9d8	0.009397946
91	0xbc770dae	-0.015078945
92	0xbd044df9	-0.032300923
93	0xbd3f81eb	-0.04675476
94	0x3d1f882f	0.038948234
95	0xbade2944	-0.0016949554
96	0xbe561a13	-0.20908384
97	0x3d06d15d	0.032914508
98	0xbe045724	-0.12923867
99	0x3d050b95	0.03248175
100	0x3d55aea6	0.05216851
101	0x3e74ffa7	0.23925649
102	0x3da0fa0e	0.07860194
103	0x3aa8b95b	0.0012872623
104	0xbed67f60	-0.41894054
105	0x3deebb5e	0.11656831
106	0x3e263864	0.16232449
107	0xbdcd303e	-0.10018967
108	0xbd5b975a	-0.053611137
109	0x3cda8ed2	0.02667943
110	0xbd50135f	-0.050799724
111	0xbd72e716	-0.059302412
112	0x3da61b57	0.081106834
113	0xbd080114	-0.033204153
114	0xbddcb55c	-0.10776779
115	0x3da8f48c	0.082497686
116	0x3d82016b	0.06347927
117	0xb9f7c8d1	-0.0004726113
118	0xbbcba36b	-0.0062145493
119	0xba0a05b0	-0.000526513
120	0x39ee1b76	0.00045415357
121	0xbe645216	-0.22296938
122	0xbd58fa95	-0.05297335
123	0x3e458190	0.19287705
124	0x3d8c3d06	0.06847577
125	0x3c87dfb7	0.016586168
126	0x3e4021f0	0.18762946
127	0x3cb952f5	0.022622565
128	0xbd084102	-0.03326512
129	0x3e415e09	0.18883528
130	0x3dfc46e1	0.123182066
131	0x3b0e0af2	0.0021674004
132	0xbe52d4d5	-0.20589001
133	0x3e20284d	0.15640374
134	0x3db1d0e9	0.086824246
135	0x3bca88a4	0.0061808396
136	0xbe9da560	-0.30790234
137	0x3e3cfcca	0.18455806
138	0x3e830e04	0.2559663
139	0xbc17ac41	-0.009257377
140	0x3d73d5ae	0.059529953
141	0xbe3b7139	-0.1830491
142	0xbe1994e4	-0.14998204
143	0xbdc2cbf7	-0.095115595
144	0xbe352768	-0.17690814
145	0x3c2a954b	0.010411571
146	0xbe2969ce	-0.16544268
147	0xbdd4834e	-0.10376607
148	0xbdb27f88	-0.08715731
149	0xbcdbc9d1	-0.026829632
150	0xbc7a1146	-0.015262907
151	0x3d8c4077	0.06848233
152	0xbde3b894	-0.1111919
153	0x3d67e4cf	0.056614693
154	0x3d9ccbf1	0.07656086
155	0x3e40128d	0.18757077
156	0xbcd1ffe0	-0.025634706
157	0x3e1539e2	0.14572862
158	0x3d1d4b57	0.038401928
159	0xbe27d18a	-0.16388527
160	0x3e3c50a8	0.18390143
161	0xbe0cc4b3	-0.1374691
162	0x3e4c213f	0.19934557
163	0xbcffefbf	-0.03124225
164	0x3cbc100e	0.022956874
165	0x3db4509c	0.088044375
166	0xbe9a35fe	-0.30119318
167	0xbe94871b	-0.29009327
168	0x3d8f9cbf	0.07012319
169	0x3df78956	0.120867416
170	0x3d3a804b	0.045532506
171	0x3da7969d	0.08183024
172	0x3d87a976	0.06624119
173	0x3d711bb3	0.058864307
174	0x3de45ed3	0.11150899
175	0x3d55059b	0.0520073
176	0xbdc8b3be	-0.09799908
177	0x3dcd02a1	0.10010267
178	0x3e25fd73	0.16209964
179	0x3d29d894	0.04146631
180	0xbc5f7613	-0.013638991
181	0xbe01f1a2	-0.12689832
182	0x3d0788e9	0.033089552
183	0xbdb8b32b	-0.090185486
184	0xbebad416	-0.36489934
185	0xbd91b774	-0.07115069
186	0x3da08c39	0.07839245
187	0x3ddcba74	0.107777506
188	0xbd412adc	-0.047160015
189	0x3c4c3119	0.012462878
190	0x3da0f9dc	0.07860157
191	0x3e134f0a	0.1438562
192	0xbdea691d	-0.1144583
193	0xbd3cec9f	-0.046124097
194	0xbd439e5b	-0.04775844
195	0x3dfb1e38	0.12261623
196	0xbdaec94c	-0.08534488
197	0xbe4038d7	-0.18771683
198	0x3cb3cb43	0.021947509
199	0xbe090b7b	-0.13383286
200	0x3e19e190	0.15027452
201	0xbd882a4e	-0.06648694
202	0xbdb3eb63	-0.08785131
203	0xbcb02384	-0.02150131
204	0x3d111a21	0.03542531
205	0xbe51f51b	-0.20503657
206	0xbd4b47de	-0.049629085
207	0x3dc85cac	0.09783301
208	0x3c86d887	0.01646067
209	0xbdc50bae	-0.09621368
210	0x3c2a666f	0.010400399
211	0xbdb7e95c	-0.08980057
212	0x3e621856	0.22079596
213	0x3d9bdeb4	0.076108366
214	0xbe180946	-0.14847288
215	0x3e48ef26	0.19622478
216	0xbdb34560	-0.087534666
217	0x3d002c0b	0.031292003
218	0x3d0a859b	0.033818822
219	0xbd3cf001	-0.046127323
220	0xbd595330	-0.05305785
221	0xbbe9450f	-0.007118828
222	0x3d0e824c	0.03479223
223	0x3ca371ea	0.01995178
224	0x3dca1435	0.098671354
225	0xbe1dc088	-0.15405476
226	0xbe617da1	-0.2202058
227	0x3d9439d6	0.07237594
228	0x3da07f18	0.07836741
229	0xbe064e3d	-0.13115783
230	0x3d94955c	0.072550505
231	0x3def5abe	0.116872296
232	0x3d9515b2	0.07279529
233	0x3de082a0	0.10962415
234	0x3bec743d	0.007216005
235	0x3dc1461b	0.094372
236	0x3ba3745b	0.004988236
237	0x3cfefba0	0.031125844
238	0xbd0b865e	-0.03406369
239	0x3d0ea943	0.03482939
240	0x3dc7d7cf	0.09757959
241	0x3cebf495	0.02880315
242	0x3d85cd28	0.06533271
243	0x3d109db6	0.035306655
244	0x3e3c82d3	0.1840928
245	0xbe4aea5d	-0.19815965
246	0x3d16fda9	0.036863003
247	0x3d843f60	0.064574
248	0x3dd884b1	0.10572184
249	0x3da1bba2	0.07897116
250	0xbdac91fb	-0.08426281
251	0xbe952cca	-0.29135734
252	0xbd998bec	-0.07497391
253	0xbe1543b7	-0.14576612
254	0xbe4d234d	-0.20032997
255	0x3dcba7d8	0.09944123

bias f4 [12]
0	0x3b67f833	0.003539574
1	0xbd99470e	-0.07484256
2	0x3db8a556	0.0901591
3	0xbcb8d02e	-0.022560205
4	0xbd6e227d	-0.05813836
5	0x3d287f8d	0.041137267
6	0xbb58d219	-0.0033084212
7	0x3db1a453	0.086739205
8	0x3de9be80	0.11413288
9	0xbd02916b	-0.031876963
10	0x3d45da1f	0.04830372
11	0x3da3d6e9	0.07999975
