actor_model/actor_900.pt (torch, 83322 bytes, 6 tensors)

weight f4 [128, 3]
000000 c5 c7 8f bd 1c 77 0e 3e d4 a7 46 be 45 f5 66 be
       -0.07020525 0.13912624 -0.19399959 -0.225545
000010 50 fe 4c be d8 93 5b 3e ba 72 53 3d bf a0 06 3e
       -0.20018888 0.21443117 0.051623084 0.13147257
000020 02 aa 4f 3e 58 51 be bd 29 ae d8 bd ae f2 97 bd
       0.20279697 -0.09292859 -0.105800934 -0.07419334
000030 be c1 97 bd b4 96 0e 3e 8a 59 d4 bd e6 c2 17 be
       -0.0741 0.13924676 -0.10368641 -0.14820442
000040 52 5d 08 3d 7d 7e 15 3e 22 41 23 3d 57 13 e2 bd
       0.033292122 0.14599033 0.039857037 -0.11038845
000050 4e 0a 83 3e 5b 63 08 be 20 e6 11 bd 68 1e e8 bc
       0.255938 -0.13319151 -0.035619855 -0.028334811
000060 6f 65 40 be b4 06 93 3d 0e 61 29 be a8 a9 62 3d
       -0.18788694 0.07179013 -0.1654093 0.055337578
000070 00 be 42 3e 4e 09 86 3e 95 ef 9f bc a6 27 86 bd
       0.19017792 0.26178974 -0.019523421 -0.06550531
000080 60 1f 0e bd 34 9e a4 bd 5e a2 20 3e a4 eb a8 bc
       -0.03469789 -0.08037987 0.15686938 -0.020620175
000090 aa 16 22 be b4 6d 49 be 77 53 85 be 19 bd bf bb
       -0.15828958 -0.19670755 -0.2604024 -0.0058513996
0000a0 b9 4f 65 3e e2 ef 9d 3d 1c 7c 73 be 65 4f 1c be
       0.22393693 0.0771177 -0.23777813 -0.15264662
0000b0 be 80 80 be a8 77 75 be 50 c9 95 3d 68 f3 65 3e
       -0.25098222 -0.23971426 0.07313788 0.22456133
0000c0 1d d9 8d 3d cf 33 c9 3d ad 7b 0d 3e ed 54 78 be
       0.06926177 0.09824335 0.1381671 -0.24251147
0000d0 76 c9 83 bc b0 c4 85 3d 29 ab 66 bb 9c 6b 1b be
       -0.016087275 0.06531656 -0.0035197234 -0.15177768
0000e0 2e 3e 8c 3e d0 f8 b9 bd b9 59 4a 3e 79 0f db bd
       0.2739119 -0.0908066 0.19760789 -0.106963105
0000f0 4e c7 80 be ae 1d d3 bd 8d 02 6b be 57 48 3a 3e
       -0.25152057 -0.10308395 -0.22950192 0.18191658
000100 c3 ee b1 bd 8e 6e 4e bd a6 2d 52 3c c2 98 60 bd
       -0.08688118 -0.050398402 0.012828266 -0.05483318
000110 9d 13 b1 bd a3 28 1f bd b0 39 4c bd d9 be 49 be
       -0.08646319 -0.038857114 -0.049859703 -0.19701709
000120 26 26 06 3e c4 f4 12 3d 52 19 16 be c7 38 11 3e
       0.1310049 0.035877958 -0.14658096 0.14181815
000130 b8 a8 9c bd 1f 59 7d be ee 32 83 3e 1b fb ea bd
       -0.07649368 -0.24741028 0.25624794 -0.11473676
000140 a1 98 4f 3d 08 72 87 be 5b f2 05 be 2a 93 06 3d
       0.050682668 -0.26454186 -0.13080733 0.03285519
000150 ba a2 7f 3c 8d 90 ab 3d ad ed 22 be 95 49 46 bd
       0.015602762 0.0837718 -0.15910979 -0.048410017
000160 5c ff de 3d a2 58 24 be 3e cb 18 3d d4 b9 16 3e
       0.1088855 -0.16049436 0.0373032 0.14719325
000170 90 a5 b3 3d c0 99 5c bd b6 26 06 bc c4 98 1c be
       0.08771813 -0.053857565 -0.00818794 -0.1529265
000180 46 fa d5 bd 45 8a 6a be ba 1f 64 3d b2 cb 0e bc
       -0.104481265 -0.22904308 0.05569432 -0.008715557
000190 ec bc 9b 3d 70 b7 23 be d3 e8 3f 3c 3e 33 dc 3d
       0.07604393 -0.15987945 0.011713224 0.10751961
0001a0 7e e4 c0 bc b2 2e 08 3e 6c 7e f2 bd 23 11 e6 bd
       -0.023546454 0.13299063 -0.11840519 -0.11233737
0001b0 f5 43 80 3d 6d 26 16 3e 40 31 34 3e b3 3c fa 3d
       0.06262962 0.14663096 0.17596912 0.12218609
0001c0 60 7b 88 3e 15 13 33 bd a1 c6 61 3e 9e c4 4e be
       0.26656628 -0.04371937 0.22048427 -0.20192191
0001d0 04 34 d5 bb 8b f4 92 be a3 bc f9 3d dd 3a 10 be
       -0.006506445 -0.28702196 0.12194183 -0.14084955
0001e0 f2 df 7f bd 3a e9 80 3d 47 c3 60 be f0 10 34 bd
       -0.06246943 0.062944844 -0.21949492 -0.043961465
0001f0 5c d1 90 bd 81 2e a5 3d 26 6a 84 3b fc 6a d4 3c
       -0.07071182 0.080655105 0.004040974 0.02592992
000200 15 69 77 be 0a 6a 8c 3e 26 ca 8b bd 84 92 a2 3d
       -0.2416118 0.2742465 -0.06825666 0.07938102
000210 b1 c4 90 3c e1 65 4e bd 98 5b 02 3e 06 bb 45 3c
       0.017671915 -0.050390128 0.12730253 0.012068516
000220 af a0 d0 3d c5 69 76 3d a4 44 3a 3d 44 61 9a be
       0.10186898 0.060159463 0.045475617 -0.30152333
000230 17 f4 30 3d 65 f8 29 3e fe 05 35 3e 82 de 51 3e
       0.043201532 0.16598661 0.17678067 0.20495036
000240 b1 b8 19 be cc e4 9e be f2 58 57 bd 2b fc 19 3a
       -0.1501186 -0.31033933 -0.05257506 0.0005874063
000250 c1 a6 fd 3d 4a 5a 81 be b9 83 20 39 a7 b7 01 be
       0.123853214 -0.25264198 0.0001530786 -0.12667714
000260 33 4a 0b 3d 67 4f 44 be 93 eb 8d 3d 5d 98 f0 bd
       0.03400631 -0.19170915 0.06929698 -0.11747811
000270 3d 36 9b 3d a6 18 bc 3d 98 41 e0 3d b8 b0 1f bd
       0.075787045 0.09184389 0.10950011 -0.03898689
000280 02 fb 34 3d 0b e7 50 3d f7 fe 86 bc b1 7e a1 3c
       0.044184692 0.05100159 -0.016478999 0.019713731
000290 af d4 b7 bb 41 d7 e0 bb 44 22 5c 3d f2 4d 8b 3d
       -0.0056100707 -0.0068615978 0.053743616 0.06801976
0002a0 23 13 e3 bd 6e 0a 1c 3e 35 76 4b bd e0 3a 7c bd
       -0.110876344 0.15238354 -0.049673278 -0.061579585
0002b0 a5 44 44 3d 0e 7c 71 bb e3 84 de 3c 7d 33 0c be
       0.047917027 -0.0036847624 0.027162975 -0.13691516
0002c0 0c fc 43 be 78 c5 cf 3c af d5 da bc a4 71 0b be
       -0.19139117 0.025362715 -0.02671322 -0.13617569
0002d0 48 ae 42 3d 1e 9b ec 3d 33 b0 6d bc 80 48 db bd
       0.04752949 0.11553024 -0.014507341 -0.10707188
0002e0 fc 40 1d bd 86 52 46 be dd b4 39 bc dc cd 46 bd
       -0.038392052 -0.19367418 -0.011334625 -0.048536167
0002f0 da 07 df 3e 26 b0 8e 3d 3f 15 b4 bd 30 b3 88 be
       0.43560678 0.069671914 -0.08793115 -0.2669921
000300 ae a7 a0 3c a2 6f d2 3d 9a c8 6c be c5 a9 32 bc
       0.019611206 0.102751985 -0.23123398 -0.010904734
000310 0f 1f 3e 3e 3c 80 b4 3d c5 39 8e 3e c3 82 8a bd
       0.18566535 0.08813521 0.2777845 -0.06763222
000320 f2 3f ba 3c 79 c3 d4 bc 5a 24 f2 bb c7 ae c9 bd
       0.02273557 -0.025972115 -0.0073895874 -0.09847789
000330 ad 33 28 bd 6e 54 8a 3d 29 3e 47 be 87 90 09 3e
       -0.041064907 0.06754385 -0.19457306 0.13434039
000340 66 ea c5 3d 35 82 05 be 07 c3 fc 3d 60 05 1a 3e
       0.096638486 -0.13037951 0.12341886 0.15041113
000350 71 42 8d be c9 c8 78 bd b8 a2 54 bd aa 34 11 bd
       -0.27589753 -0.06073836 -0.051912993 -0.035450615
000360 4b 4a 1d 3d 25 e2 64 3c 87 8d 04 3b 7c e5 8f bd
       0.03840093 0.013969933 0.0020225958 -0.070261925
000370 7a 82 58 bd 35 0b a7 3e 78 a6 06 3d 4d 7a 25 3e
       -0.052858807 0.32625738 0.0328736 0.16159935
000380 92 20 52 bd 17 75 81 3e 92 ee 04 be b6 e4 0f be
       -0.051300593 0.25284645 -0.12981632 -0.1405209
000390 b2 33 2a be 02 71 8c 3b 72 c6 ab 3b 6e 39 9c bd
       -0.16621283 0.0042859325 0.0052421624 -0.07628141
0003a0 fe 92 98 bc 7c a6 b6 3e fd 7d 54 bd b7 a8 48 3e
       -0.018624779 0.35673892 -0.051877964 0.1959561
0003b0 be 55 e7 bd a7 6d 9c bc 70 58 12 be 9a 90 e1 bd
       -0.11295651 -0.019095255 -0.14291549 -0.11013909
0003c0 24 19 21 3e 6d d9 19 3e 4c 99 07 bd b7 5d fc bc
       0.15732247 0.15024348 -0.03310518 -0.030806405
0003d0 a3 c8 a0 bd a2 a9 08 3e 90 c8 2b bc d0 98 17 bd
       -0.078507684 0.1334596 -0.01048483 -0.037010968
0003e0 06 a5 ef bd e8 ce 2c 3d c4 62 67 bd 1a 2f 08 bd
       -0.117013976 0.04218951 -0.056490675 -0.033248045
0003f0 85 c1 1a be 78 78 0b bc df cc 8a bd 7f 8d 61 3e
       -0.15112884 -0.008512609 -0.06777357 0.22026633

bias f4 [128]
000000 26 56 ad be 78 7c c7 be 92 f7 53 3d 96 c4 2c bd
       -0.3385479 -0.3896215 0.051749773 -0.042179666
000010 86 f6 2d be ae d2 8e 3e 5d 4a 68 3e c7 5b fd 3d
       -0.16988572 0.2789511 0.22684617 0.12371021
000020 da 09 ed 3e f3 bd 75 3e ac 53 fa 3d f0 9f 38 bc
       0.4629658 0.23998241 0.122229904 -0.011268601
000030 f5 da ef 3e 7e 09 11 be 0c 8f 92 be ea c7 9d 3e
       0.46846738 -0.14163777 -0.2862476 0.30816585
000040 b8 21 0a 3e 3e b1 a5 3e f2 cd a6 be f9 42 4d be
       0.13489425 0.32361788 -0.32579 -0.2004508
000050 f5 d6 b9 be 42 7f f4 3e 7f 47 3f 3d e7 97 04 bf
       -0.36296812 0.4775334 0.046699043 -0.51794285
000060 3e 7e e0 be 34 86 b0 be 97 8f a4 bc dd bf ff bd
       -0.43846315 -0.3447739 -0.020088 -0.12487767
000070 3f cd a6 3e f5 6b ee 3c eb 45 13 3e a5 35 56 be
       0.32578465 0.029104212 0.1438214 -0.20918901
000080 f1 a3 d1 3e 12 ed 51 3e df b9 86 3c 37 c9 07 bf
       0.4094539 0.20500591 0.016446052 -0.53041404
000090 8a 77 ed be d2 a0 fa be 99 70 42 be f8 71 3b be
       -0.46380264 -0.4895082 -0.18988265 -0.18305194
0000a0 7e 16 0f 3e 43 6b 46 3e 70 2a 5c 3e 41 f9 9a bd
       0.13973424 0.19376855 0.21500564 -0.07567073
0000b0 e6 d2 b2 be dc 0f 63 bd cb 41 58 3e e4 9f a4 3e
       -0.34926528 -0.055435047 0.21118848 0.32153237
0000c0 2f b4 9f be 04 64 d4 3e e1 82 8e 3e 25 39 e9 be
       -0.31192157 0.41482556 0.27834228 -0.4555141
0000d0 1d d3 59 3c 0d 6a a5 3d 59 92 2f be 98 65 bc 3e
       0.013294962 0.08076868 -0.17145671 0.3679626
0000e0 3c 32 d3 be 9a 61 d1 3e 5a 5d 4c be 38 c1 90 3e
       -0.41249263 0.40894777 -0.19957486 0.28272414
0000f0 85 ca a7 3e 94 51 68 3d 5d c5 9d 3e f0 44 0a 3d
       0.32771698 0.056718424 0.3081464 0.03375715
000100 04 03 30 be f3 db ab be 97 ff 74 be 80 18 9d 3e
       -0.1718865 -0.33566245 -0.23925625 0.30682755
000110 bb a5 d7 3e 12 3f 81 3d c9 fc 07 3f 68 70 53 3d
       0.4211863 0.06310858 0.53120095 0.05162087
000120 37 67 72 3e 9f cf 16 3e 2c 2c fd 3d 83 62 9b 3d
       0.23672186 0.14727639 0.12361941 0.07587149
000130 d6 e9 bc bd 97 59 89 3d 30 af 96 be dc 0b b4 be
       -0.09224288 0.06706541 -0.29430532 -0.35165298
000140 33 f8 5f 3e d3 17 de 3c ab ad 01 3d b3 09 02 bf
       0.21872024 0.02711097 0.031659763 -0.5079605
000150 a0 18 eb 3e 26 cc e1 3d 83 7a d7 be b1 4a 11 bf
       0.45917225 0.11025266 -0.42085657 -0.56754595
000160 a7 3c da bd 30 c0 d8 3c 33 93 f3 be 77 f7 48 3d
       -0.106561 0.02645883 -0.47573242 0.049064126
000170 f5 e5 56 bd 21 83 0c 3f 2d 35 b8 3e f7 cd e3 be
       -0.052465398 0.54887587 0.3597807 -0.44493076
000180 c0 58 64 3d cf 5a 83 bd 87 e2 e5 3d 1d bf 8e be
       0.0557487 -0.06413805 0.11224847 -0.27880183
000190 fa 1e a6 be 46 ef 7b be 72 0b 2d 3e f2 84 d4 be
       -0.32445508 -0.24602994 0.16898897 -0.4150768
0001a0 b0 42 05 3f d8 3c f6 3e e9 b3 b4 3d bf 15 b6 3e
       0.5205488 0.48093295 0.08823378 0.35563466
0001b0 1d 31 bd be 5e c6 3c 3e 88 08 94 be 10 a6 ae 3e
       -0.36951533 0.18435046 -0.2891276 0.3411107
0001c0 5c 1a f4 3e 02 77 f8 3e 2b 13 b9 bd 83 cf 05 be
       0.4767636 0.48528296 -0.09036859 -0.1306744
0001d0 f3 dd b6 3e 17 0a 9e be ce b4 bb 3e 1e 19 9b be
       0.3571621 -0.30867073 0.3666138 -0.302926
0001e0 b4 94 42 be e6 b7 9f bd 75 fb 5e 3d 6e 14 a4 3d
       -0.19002038 -0.07798748 0.054439027 0.08011709
0001f0 96 6b 20 3e 1b 38 3f 3e 80 b3 85 3e 5e a0 a0 be
       0.15666041 0.18673746 0.2611351 -0.3137235

weight f4 [128, 128]
000000 25 da 8c bc fa 7d a3 bb 27 bd f3 bd 12 ed 52 be
       -0.017193863 -0.004989383 -0.11901312 -0.20598248
000010 4c 76 26 3d 03 23 0a be ec 06 10 3e c1 15 3f bd
       0.04064016 -0.13489918 0.1406514 -0.046651606
000020 4c 2f 0d be 9a 53 2e bb 7f 73 80 be bd 73 31 be
       -0.13787574 -0.0026600123 -0.25088117 -0.17329307
000030 a4 2f f0 3d 88 c9 95 3e 8b 5f 06 3e 8c b1 59 bd
       0.11727837 0.2925532 0.13122384 -0.053147838
000040 33 8a 7f bc 68 75 36 be 74 cd 5d 3e 90 cc 20 be
       -0.015596914 -0.17818224 0.21660405 -0.15703034
000050 f5 88 dd 3b 52 4b 51 3c c9 f4 0f be 7a 2f 09 3c
       0.0067607113 0.012774305 -0.14058222 0.008373136
000060 37 03 64 bc c1 5f 10 bd 8f 10 ef 3c e6 ad 40 be
       -0.013916782 -0.035247568 0.0291827 -0.18816337
000070 64 30 1d 3e 53 3e 65 bd b6 dc b2 bd d1 80 68 bd
       0.15350491 -0.05596764 -0.087335035 -0.056763474
000080 eb ac 21 be 5a 76 3b 3d f4 03 6b 3d d9 58 30 bd
       -0.15788619 0.045767166 0.057376817 -0.04305348
000090 ae 16 81 bc ff 7b 0f 3e ff fd de bd ac 17 34 3d
       -0.015757885 0.14012145 -0.1088829 0.043967888
0000a0 dd b1 89 3c 9f 25 be bc 0b 4b 0b 3e e4 e5 88 be
       0.016808445 -0.023211299 0.13602845 -0.26737893
0000b0 37 11 29 bc 4e 8c 90 bd f6 85 a3 bd c0 4b 40 3e
       -0.010319046 -0.07058011 -0.079845354 0.18778896
0000c0 36 bd fa bd 04 12 1c 3e a7 e9 07 be 94 1d de bc
       -0.1224312 0.15241247 -0.13272725 -0.027113713
0000d0 76 b4 82 3d 77 b7 ec bd 9b fa 51 3e e6 95 12 be
       0.063820764 -0.11558431 0.20505755 -0.14314994
0000e0 c8 de d5 bd b7 d8 41 be a2 4a 15 bd 64 b8 34 be
       -0.10442883 -0.18930326 -0.03644813 -0.17648464
0000f0 b2 58 50 bd 8e 7c 32 bd 7e 8f a8 3c 60 18 a3 be
       -0.050865836 -0.043575816 0.020576235 -0.31854534
000100 0e 3c 6b 3e de 72 fc bd 93 8c d2 bc e5 77 14 bc
       0.22972128 -0.12326597 -0.025701797 -0.009061788
000110 22 59 91 3c 8d 8c ac 3d e7 20 1e be 01 b3 93 bd
       0.017742697 0.084252454 -0.15442239 -0.07211877
000120 80 e3 31 3d 8d 35 02 3d 81 ba 24 bc a1 e0 1a 3e
       0.04342985 0.03178935 -0.010054232 0.15124752
000130 22 f6 32 bd fc 15 56 3c c6 d5 bf 3d c7 7e 78 3c
       -0.04369176 0.013066765 0.09366946 0.015166945
000140 5f fe 6b 3d ee cd 89 3d d5 9c 35 be 9b c2 2e bd
       0.057615634 0.06728731 -0.17735608 -0.04266606
000150 d7 d2 22 3c 0d 1e eb 3d 84 8c b1 3d ff ff 4b be
       0.009937963 0.11480341 0.08669379 -0.19921874
000160 e4 47 1e bd 84 5e 24 be da 79 71 be fd b5 94 be
       -0.03864278 -0.1605168 -0.23581639 -0.29045096
000170 0d db 0b bd 51 91 81 3c 7d 50 87 3d b1 c5 1d 3c
       -0.03414445 0.015816363 0.06607149 0.009629653
000180 f9 44 05 be cf 47 8f bd f0 75 4c 3d 96 3a be bd
       -0.13014592 -0.06996118 0.04991716 -0.09288518
000190 e7 41 59 bd f8 c8 3a 3e a9 cf 35 bd 05 3d 30 bd
       -0.053041365 0.18240726 -0.044387493 -0.043026943
0001a0 40 b4 ce bd f1 5b 22 3d 52 75 ca bd ca 78 8d be
       -0.10092974 0.039638463 -0.09885658 -0.27631217
0001b0 f9 b4 8c bd c0 bc c2 3e d1 f4 01 be f1 00 f1 bd
       -0.06870455 0.3803463 -0.12691046 -0.11767758
0001c0 49 71 f2 3c 33 50 e5 bd 55 0a 38 be e4 41 e3 3c
       0.029595034 -0.111969374 -0.17972691 0.02774138
0001d0 02 0b 17 3d 1c 5a 05 bd ff ae 34 3e a1 19 d4 3c
       0.036875732 -0.032556638 0.1764488 0.025891127
0001e0 98 28 40 3d b5 98 ff 3c 24 46 8a be 58 ee bd 3c
       0.046913713 0.031200746 -0.27006638 0.02318494
0001f0 47 ab 27 be df 62 c6 be 2a 8e f0 bd 01 00 35 bd
       -0.16373931 -0.38747308 -0.11745866 -0.044189457
000200 95 f0 da bd cb 86 ae 3d c1 12 cb 3e 4f b6 45 be
       -0.10690419 0.085218035 0.39662746 -0.19307826
000210 3e 52 47 3e 7e 1b 90 3e 1d d4 d1 3d f5 16 aa 3d
       0.19464967 0.28145975 0.102455355 0.0830516
000220 4d a9 eb bd 58 a6 11 be 95 a9 5d bd 80 7f a7 bd
       -0.11506901 -0.14223611 -0.054116804 -0.081786156
000230 19 d6 25 3d 55 73 d1 3d 95 d1 0b bd 3b d8 52 3e
       0.040487383 0.10227076 -0.03413542 0.20590298
000240 35 e7 59 3e d4 c8 af 3c ba 84 81 bc 17 ae d5 3d
       0.21279605 0.021458067 -0.01581036 0.10433596
000250 dc 75 e2 3d 5f 02 c1 bd fe 26 a4 3c ef 6e 21 bd
       0.11057636 -0.094242804 0.020038124 -0.039412435
000260 5b 14 2e bd aa 7c bd 3d 81 7b ba bc 49 80 c0 3d
       -0.04249988 0.092522934 -0.02276397 0.093994685
000270 af 3f 92 3d 24 9a a2 bc 9c 14 15 3e 0a 55 8e be
       0.07141053 -0.01984889 0.14558643 -0.27799255
000280 2f 4c 57 3d e0 4e cb bc 44 2e b7 bb a5 d4 8b bd
       0.05256289 -0.024817884 -0.005590232 -0.06827668
000290 cc 9d b8 3b 93 56 12 bd f0 b7 30 bd e8 38 a4 bd
       0.005634045 -0.035727095 -0.043144166 -0.080186665
0002a0 12 1b 97 bd fd a7 00 be 78 cd 25 be 1f fc c4 bc
       -0.0737821 -0.12564082 -0.16191661 -0.024046002
0002b0 7d 9b 18 3c 67 10 0a be 67 d5 10 3e 3d d3 a8 bb
       0.009314415 -0.1348282 0.14143907 -0.0051521347
0002c0 73 23 86 3d 44 4e aa 39 8b 17 19 be 07 59 1c 3d
       0.0654973 0.0003248324 -0.14950387 0.03817084
0002d0 9e d3 b5 3c 82 28 dc 3a 90 91 7c 3e 36 7a 54 bd
       0.022195634 0.001679674 0.24664903 -0.051874362
0002e0 25 6b c9 3d aa a3 07 be c5 ec 0e 3e dc 8d 65 3e
       0.09834889 -0.13246027 0.13957508 0.22417396
0002f0 94 91 9d bd 6b 94 30 be bd 63 41 bd cb 83 72 3c
       -0.076937824 -0.17244117 -0.04721426 0.01480193
000300 e5 98 95 3d c5 8c cf 3d a9 e2 12 3e 0c d8 4c be
       0.07304553 0.101342715 0.14344276 -0.2000429
000310 a2 3c 27 3e c7 83 84 bd be fb 28 bd 4a c9 55 bc
       0.16331723 -0.06470447 -0.041255705 -0.013048479
000320 e9 85 21 3e c4 2d a6 be 44 ab 8a 3d 47 80 34 3c
       0.15773739 -0.3245679 0.067709476 0.011016912
000330 f6 80 c6 3c 9a 29 10 3d 36 1f bb bc 41 28 1a 3e
       0.024231415 0.035195924 -0.022842031 0.15054418
000340 d3 02 ed bc 14 65 29 3d 83 cd 30 3c f0 ad 03 bd
       -0.02893201 0.04135616 0.010791185 -0.0321483
000350 b3 7b 0f 3e e5 56 6a 3d 91 c6 b3 3d 96 9b 8e bc
       0.14012031 0.057211775 0.08778108 -0.017408174
000360 72 b0 86 bc ad 62 5d bd 89 b7 42 3e 7a d0 c1 3e
       -0.016441558 -0.054049183 0.19015326 0.37854367
000370 41 21 0e 3e a4 6b ac be 53 74 63 be 85 d5 de 3d
       0.13879873 -0.33675873 -0.22212343 0.10880569
000380 59 07 09 3e 9a 28 9e bc 0a 78 27 3e 2e b8 d7 bd
       0.13381709 -0.01930647 0.16354385 -0.10533176
000390 48 93 6a 3c 1a 24 17 3d 6a b9 96 3a 87 10 2c bc
       0.014317341 0.036899664 0.001149935 -0.010501987
0003a0 f4 04 8a 3d 8d 18 6d bd 0a 6e a3 3d 5b c2 2b be
       0.06739226 -0.05788474 0.07979973 -0.1677336
0003b0 3b 83 ba bd 0a 60 4b bc 62 5d 51 be bb 0a bc 3c
       -0.091070615 -0.012413034 -0.20445779 0.022954335
0003c0 e1 93 a4 bd 86 66 7e bd 01 1a 28 3e 84 a4 78 bd
       -0.08036018 -0.062109493 0.1641617 -0.06070377
0003d0 64 56 05 bd db 1c 42 bc 5f c8 68 bd c8 0f 6a 3d
       -0.03255309 -0.0118477 -0.056831714 0.057143956
0003e0 33 5c df bc db 9c e6 3d 32 19 77 bd a2 f5 fb bd
       -0.027265644 0.112603866 -0.060326762 -0.1230271
0003f0 9d e1 62 bd 5f 7f 0e be 89 c7 3d 3c 14 b3 07 bd
       -0.055390943 -0.13915776 0.011583217 -0.033129767

bias f4 [128]
000000 5c 26 32 bb b4 26 b2 3d 8f 6f 2a bd e6 c8 d3 bc
       -0.0027183509 0.08698788 -0.041610297 -0.025852632
000010 7b aa 18 3d d4 b1 28 bc 58 87 9d bd ca b1 7d bc
       0.037271958 -0.010296304 -0.076918304 -0.015484283
000020 63 c7 a8 3c 37 d1 52 3d b1 a7 29 bc da 68 3e bd
       0.020602887 0.051469054 -0.010354922 -0.046486713
000030 5c aa 3b 3c 38 ca d4 3d 3d 76 c1 bd 66 03 e3 3d
       0.011454191 0.10390133 -0.0944638 0.110846326
000040 3a c0 2b bd c3 85 ac 3c cb 0e b4 bd 44 3a 18 bc
       -0.04193137 0.021059876 -0.08791884 -0.009291235
000050 be d2 e7 bd d6 0a de 3d 67 67 b0 3b 26 63 2a 3d
       -0.11319493 0.108419105 0.0053834203 0.04159846
000060 4e 85 b3 3d 76 8e 2c 3d 9b a0 94 3d 11 65 17 bc
       0.0876566 0.04212805 0.072571956 -0.009240405
000070 bd 7e 22 3d 31 89 91 bc 5e 97 8a 3c 2b 64 4f bb
       0.03967165 -0.017765613 0.01691788 -0.0031645398
000080 f4 ae 5b bd 58 e6 6a 3d 88 a3 48 bd fb f1 0e 3d
       -0.053633645 0.05734858 -0.04898408 0.03489874
000090 c0 b8 59 3d 59 4d 81 3b 90 4f 9e bd 91 92 ef 3b
       0.053154707 0.003945988 -0.07730019 0.0073111732
0000a0 4b f6 bd 3d 14 53 f8 3b fa d6 3e 3d e5 bf 99 3d
       0.09275492 0.007578263 0.046591736 0.07507304
0000b0 e8 a2 46 bd a5 34 8b bd c8 cc 8d 3d e9 73 54 bc
       -0.048495203 -0.067971505 0.069238245 -0.012967088
0000c0 02 7f 21 bb 5e 62 20 bd 12 0f 3d 3d c9 60 4d 3d
       -0.0024642353 -0.03915631 0.04615695 0.05014113
0000d0 a5 ea 39 3d da 66 07 3d 96 da 9a 3c 7a 22 00 3d
       0.04538979 0.03305707 0.018903058 0.03128288
0000e0 a0 92 5e 3c 7b 1b 59 3d c9 05 7f bd db da 9a bd
       0.013584763 0.053004723 -0.062261377 -0.075612746
0000f0 a9 e0 89 bd 36 6f 87 bc 47 ce 55 bc 21 9f a9 bb
       -0.06732304 -0.016532522 -0.013049669 -0.0051764403
000100 0f 0d 25 bd 3b 56 05 bd ed e7 94 bd 34 07 bf 3d
       -0.040295657 -0.03255294 -0.07270799 0.09327546
000110 67 7d f4 3b 14 67 84 3d 83 c4 19 bc 38 a7 e1 bd
       0.007461238 0.06464973 -0.009385231 -0.110182226
000120 b8 6b c0 bd 39 e5 48 3d 19 90 33 bd f6 52 a7 bd
       -0.09395546 0.04904673 -0.043838594 -0.081701204
000130 39 bb 31 3d da b4 de bd 7c cf b0 3d a3 d6 8c bc
       0.04339144 -0.108743384 0.086333245 -0.01719219
000140 de c1 79 bd 4c 25 ef 3c 49 07 98 bc 30 f5 39 bd
       -0.0609759 0.02919259 -0.018558161 -0.045399845
000150 02 b4 ab 3d 53 76 1f bc 5b 26 3f 3d f2 07 2a 3c
       0.08383943 -0.009732801 0.046667438 0.010377871
000160 a5 c9 76 bd e9 f1 ab 3d b9 09 76 bc a1 ec 90 bd
       -0.060250897 0.0839575 -0.0150169665 -0.070763834
000170 df cc c0 3d 42 46 7d bd d3 a4 84 3d a9 5f ce 3c
       0.09414076 -0.06183458 0.0647675 0.025192099
000180 b3 87 5c 3d cc 04 2d bd 29 89 b4 3d 6b 60 8d bc
       0.05384035 -0.042240903 0.08815224 -0.01725789
000190 bc 0e dd bd e4 e3 5a 3d 11 78 a1 3d 04 9d 2b 3d
       -0.10793826 0.05343999 0.07884229 0.04189779
0001a0 1c db e6 bb fe 79 58 bd 70 27 3a bd 9e b0 89 bd
       -0.007045163 -0.052850716 -0.045447767 -0.0672314
0001b0 ae f5 e3 bd ed e0 fd bc 2b aa c9 bd e3 46 a0 3d
       -0.11130844 -0.030991042 -0.0984691 0.078260206
0001c0 f3 7d e1 3c ec f7 05 bd 03 53 3b 3d 1a 2c 0b bd
       0.027525878 -0.03270714 0.045733463 -0.033977605
0001d0 84 05 fa bb d4 02 b0 bc 04 83 9e 3d ba 80 5b bd
       -0.007630052 -0.021485724 0.07739833 -0.05358956
0001e0 19 ee 48 bd a7 c7 b6 3d ca b9 7f 3d cd 2a 65 bc
       -0.049055193 0.089247994 0.06243304 -0.013987255
0001f0 39 5c 68 3d 37 a8 1a 3d dc 3b 86 bd 1b 59 37 3d
       0.056728575 0.03775808 -0.06554386 0.044762712

weight f4 [12, 128]
000000 6f 7d 8b 3d 0d 5c 01 3e 02 07 51 3e 56 f9 b2 bd
       0.06811034 0.12632771 0.2041283 -0.08738963
000010 d5 46 e6 bb 31 5a cc 3d 80 cb 6f bc d9 5d 48 bd
       -0.007027487 0.0997814 -0.0146359205 -0.048917625
000020 d3 ac 99 bd 37 09 f3 3c ef 29 b4 3d cc e9 90 3c
       -0.07503667 0.02966748 0.08797061 0.017689608
000030 3a 3f 51 be 41 fd ac 3e d1 ec 9b 3d 1b b6 94 3d
       -0.20434275 0.33786967 0.076135285 0.07261296
000040 9e 9c 94 be cc c4 1c be f0 ca c2 bd 45 44 a2 bd
       -0.2902574 -0.15309447 -0.095113635 -0.07923178
000050 8c 4b 18 be 14 f9 5f 3e 8e e6 0e 3d 79 fa f2 bd
       -0.14872569 0.2187236 0.034887843 -0.1186418
000060 b9 17 3f bd 8a 4f 69 bb 89 5a 31 3e 3c d0 a2 3d
       -0.046653483 -0.0035600387 0.17319693 0.07949874
000070 b6 81 a7 bd b1 86 81 3d 9b 62 aa bd cc aa 38 3e
       -0.08179037 0.063245185 -0.08319589 0.18033904
000080 4d b5 80 3d f2 ba 24 be 77 bb e8 bd 11 59 9b 3d
       0.062845804 -0.16086939 -0.11363881 0.075853474
000090 26 f4 e5 3d 52 34 63 3c 34 82 b3 bd ef 99 39 bb
       0.11228208 0.013867455 -0.08765069 -0.0028320511
0000a0 e9 27 66 3e b4 de 0d 3c a3 c4 8e bc b0 17 bb bd
       0.22476162 0.008659054 -0.017427748 -0.091353774
0000b0 a7 86 42 3e ce 4e 7c 3e 3f 7b f0 bd c0 c3 c2 be
       0.18996678 0.24639437 -0.11742257 -0.3803997
0000c0 2f 9e 87 be 3f 37 12 bd 7f 79 6d bd cc 15 b3 3d
       -0.26487872 -0.035697218 -0.057977196 0.08744392
0000d0 d6 89 b7 3d 73 18 09 3d 9f 7d 9e 3d ad 05 30 bd
       0.08961837 0.033470582 0.07738804 -0.042974163
0000e0 a8 93 64 be 0c 21 42 be a1 48 1a be c4 08 bc 3d
       -0.22321951 -0.18957919 -0.15066768 0.091813594
0000f0 55 da c2 bd c7 7c c6 3d 7e 49 1b 3e ae 61 5f be
       -0.095143 0.09691768 0.15164754 -0.21814606
000100 2c ce 9d 3d ad 00 d9 bd 52 c4 98 bd 0a f0 ad bb
       0.0770534 -0.10595832 -0.0745932 -0.005308156
000110 79 ca 35 bd fe 90 30 be bf 98 ec 3d a3 45 06 be
       -0.044382546 -0.1724281 0.115525715 -0.13112502
000120 38 92 29 be f6 c0 2f 3e 1a f8 95 3d 31 9b 4c 3b
       -0.16559684 0.17163453 0.07322712 0.003122043
000130 ed d3 c6 bd 3d 45 bc 39 be f5 84 bd 54 44 bf 3d
       -0.097083904 0.0003590974 -0.06492184 0.093392044
000140 bb d9 a4 3d 73 6f de 3d ad 18 ce bc ef 5c f1 bc
       0.08049341 0.10861101 -0.02515825 -0.02946326
000150 c6 5e a9 bd 9d 18 71 3d 7a bd 45 3d a4 5a 33 be
       -0.0827003 0.058861364 0.048276402 -0.17515045
000160 96 6e 29 bd 12 ac 85 bd 73 4c 9d bb 92 86 7f bd
       -0.04136523 -0.065269604 -0.004800373 -0.062384196
000170 08 bd 9c bc fd 3c 77 bc 4a 41 8b bd 0f 0e 1e bb
       -0.019133106 -0.015090224 -0.06799562 -0.0024117266
000180 bb b4 11 be 6f 01 33 3e 34 8d d9 3c bf aa d6 3d
       -0.142291 0.17481016 0.026556589 0.10481786
000190 70 96 68 bd 40 20 a7 3d fe 81 5f bd 4e 78 f5 bd
       -0.056784093 0.08160448 -0.05456733 -0.11985837
0001a0 b7 74 d8 bc 1d f7 d5 3d 03 68 e6 bd 99 03 81 3e
       -0.026422841 0.10447524 -0.112503074 0.25198057
0001b0 29 1f 88 3c 1d de 01 be 41 5e 25 3e bd 30 00 3e
       0.01661642 -0.12682386 0.16149236 0.12518592
0001c0 0f 59 8c be 89 6d 1c bc f7 f5 ce 3c 5a 9d b9 3c
       -0.27411696 -0.0095476 0.02526377 0.022658039
0001d0 d0 2c f6 bd 0f b0 25 3d 73 2b 88 3d 00 ae 24 3b
       -0.12020266 0.040451106 0.06648912 0.0025128126
0001e0 84 49 16 3e af ec 64 3d b9 f4 2b 3e e0 14 96 bc
       0.14676481 0.05588978 0.16792573 -0.0183205
0001f0 50 10 93 bd 70 b0 10 3e f6 d6 a0 be d1 00 c8 3d
       -0.07180846 0.14129806 -0.31414002 0.09765781
000200 c0 91 e5 bb 53 c1 01 38 f5 82 c3 3d b8 23 00 3e
       -0.0070059 3.0936044e-05 0.095464624 0.12513626
000210 0c c1 bd b8 3d 6f f5 3d 5b ae 30 bd bd 63 1e 3d
       -9.04818e-05 0.11984108 -0.04313503 0.038669337
000220 ca 23 6a 3e f3 fd 4f 3d d5 8e 83 be 59 ea b8 bd
       0.22865215 0.050779294 -0.2569491 -0.09029073
000230 11 b6 66 3d 5e 32 4c 3d 29 6a 9f bc a4 da 22 3d
       0.056325976 0.04985272 -0.0194598 0.039759293
000240 75 00 0e 3e 15 f0 20 3e 0e eb 1b bd d4 79 1f bd
       0.13867362 0.15716584 -0.038065962 -0.038934544
000250 a0 dd 8f be 76 b6 2d 3d 2d d3 8b bd 44 93 c3 3d
       -0.28098774 0.042410336 -0.06827388 0.09549573
000260 80 5f c5 3e 47 f4 31 bd ae 5a 28 bc 51 0a 2c 3e
       0.38549423 -0.04344585 -0.010275526 0.1680081
000270 97 38 53 bd d8 b3 90 be fb d1 8d 3e 4f ce 5c bd
       -0.05156764 -0.2826221 0.27699265 -0.05390769
000280 57 14 fe 3c ae 72 d7 bd ff c3 16 3e 5c 12 ba 3d
       0.031015558 -0.1051992 0.14723204 0.09085533
000290 3b 6f 18 3d 80 78 c1 bc f3 d2 49 be 8f 10 34 be
       0.037215453 -0.02361703 -0.19709377 -0.17584442
0002a0 66 5c 52 3e a6 17 0d 3b 3b 2a 7a 3c 7c a4 29 3e
       0.2054306 0.0021528988 0.015268858 0.16566652
0002b0 c6 0a c0 3c da a2 87 be 8c 26 96 bc b5 1d fc 3d
       0.023442637 -0.26491433 -0.018328927 0.12310354
0002c0 ad b4 8b 3d 3f 50 04 3e f3 72 82 bd cd 5c 3d 3e
       0.068215705 0.12921236 -0.06369581 0.18492432
0002d0 f8 9a 9a 3d e8 81 44 be 71 10 c0 bd 53 b5 e3 3d
       0.07549089 -0.1919018 -0.09378136 0.11118569
0002e0 f6 38 a0 3d 7d 6a 6c 3d b2 38 03 3d 77 77 44 3e
       0.078233644 0.057718743 0.03203649 0.19186197
0002f0 0e 18 ee bd 29 a3 ac 3d 29 c2 55 3e d5 1e 8b bb
       -0.11625682 0.08429558 0.20874847 -0.004245619
000300 28 05 cf bc 83 1b 95 3c 0c e5 48 3e fc 13 5b 3e
       -0.025271013 0.018201595 0.19618624 0.21394342
000310 83 30 9d 3d d6 5f 9b bc 1c cd 88 bc 10 65 dc 3d
       0.076752685 -0.018966597 -0.016699366 0.10761464
000320 28 23 20 be 92 56 1a 3e 4a b6 96 3e 46 f4 9d bd
       -0.15638411 0.15072086 0.2943595 -0.07712607
000330 af 00 2d be 92 d4 04 be d0 a0 4b be 04 5a 1a bd
       -0.16894792 -0.12971714 -0.19885564 -0.0376835
000340 fa 40 85 3e f0 ae 1e 3e 90 99 98 3d fe c2 a2 be
       0.26026136 0.15496421 0.07451165 -0.31789392
000350 8d b8 4b bd cf a3 19 bd bf d2 8f 3c 8d 36 40 be
       -0.04973655 -0.037509736 0.017556546 -0.1877081
000360 55 80 28 3d 96 34 c7 bd a9 41 c5 bd a0 26 44 be
       0.041138012 -0.09726827 -0.09631664 -0.1915536
000370 30 c3 89 3d 67 a2 d4 3d 4c 90 08 3e 2d 1f 5b 3d
       0.06726682 0.10382538 0.13336295 0.05349653
000380 40 de 07 3d 84 bd c3 3d 7e 3a 05 bd 99 d2 5b bc
       0.03317094 0.095576316 -0.032526486 -0.01341691
000390 6b 46 17 3d a5 6c 85 bd b7 12 57 3e 1b ed 1a be
       0.03693239 -0.06514863 0.21003233 -0.15129511
0003a0 16 09 39 bd c1 ec 9d bd c0 3a 09 be 43 38 19 be
       -0.04517468 -0.07711173 -0.13401318 -0.14962868
0003b0 a0 15 19 bc 77 b9 d0 3d 12 ce 8e 3d 5e 6c f2 bd
       -0.009343535 0.101916246 0.069728985 -0.11837076
0003c0 44 4b 4e 3e 26 07 97 bd 20 58 37 3e fe f6 26 3e
       0.20145899 -0.0737441 0.17904711 0.16305158
0003d0 1f 85 13 be c8 1e 4c 3d b4 db df 3d 5e 3a 0e 3e
       -0.1440625 0.049834043 0.10930577 0.13889453
0003e0 44 68 94 bd 9a af 72 bd 8f 04 70 3e c2 9c 9b be
       -0.072464496 -0.059249498 0.23439239 -0.30393034
0003f0 0a 78 de 3d 16 fe ab bd 3f e9 a3 3c 90 fb 67 bb
       0.108627394 -0.083980724 0.020008681 -0.0035397746

bias f4 [12]
000000 73 b7 09 bd 37 27 32 3c 42 85 9b 3d 78 72 6a bd
       -0.033622216 0.010873607 0.07593776 -0.057238072
000010 bb 9a 69 bd f4 5f a3 3d 0e 45 84 bd 41 70 0d 3d
       -0.057032328 0.07977286 -0.06458484 0.03453088
000020 0c 62 06 3d 0d 5c 93 bd c6 54 93 3d d4 fc 5e 3d
       0.03280835 -0.07195292 0.071939036 0.054440334
