actor_model/actor_4200.pt (torch, 99279 bytes, 6 tensors)

weight f4 [128, 34]
0	0xbd76cadb	-0.06025205
1	0x3e1ebe27	0.15502225
2	0xbd977e84	-0.07397178
3	0xbc53f514	-0.012936849
4	0x3d2e181f	0.042503472
5	0x3dbeb910	0.093126416
6	0x3c950292	0.018189702
7	0xbe2ba8ea	-0.16763654
8	0x3e80ff29	0.25194672
9	0xbd11d6ad	-0.03560512
10	0xbe645257	-0.22297035
11	0xbcab519e	-0.020912942
12	0x3ca8f002	0.020622257
13	0xbdb85216	-0.09000032
14	0x3cf5078b	0.029910823
15	0x3d18872a	0.037238277
16	0x3dca2ac6	0.0987144
17	0xbde48d79	-0.11159796
18	0x3ea2b9b4	0.31782305
19	0xbdec20c0	-0.11529684
20	0x3d692466	0.056919478
21	0x3dbb45a1	0.0914414
22	0xbe0370cb	-0.12835996
23	0x3cddfdd9	0.027098583
24	0xbc2e6e1f	-0.010646372
25	0x3d946e58	0.07247609
26	0xbe4f50ec	-0.20245713
27	0xbd47f6ce	-0.048819356
28	0xbdb7b0cf	-0.089692704
29	0xbdfee3b9	-0.124457784
30	0xbd77b831	-0.060478393
31	0x3c104e07	0.008807666
32	0x3cd07bce	0.02544966
33	0x3d6233ee	0.055225305
34	0x3e440c76	0.19145378
35	0x3dfc0d02	0.123071685
36	0xbd7598f4	-0.05996032
37	0x3a989445	0.0011640867
38	0xbda009a3	-0.07814338
39	0xbd8c5003	-0.068511985
40	0xbb0e751d	-0.0021737285
41	0x3e2d4c23	0.16923575
42	0xbe865495	-0.26236406
43	0xbc9e25d7	-0.019305153
44	0xbbdf93fa	-0.00682306
45	0x3d6b16fe	0.057394974
46	0x3c6870c3	0.014187041
47	0xbc777f33	-0.01510601
48	0x3ca54024	0.020172186
49	0x3c0e2811	0.008676545
50	0x3d28d6d2	0.041220494
51	0x3d1f72b3	0.038927745
52	0x3e083ccf	0.13304447
53	0x3de292d0	0.110631585
54	0xbb8b85a5	-0.004257875
55	0x3d25c700	0.040472984
56	0x3ca80e98	0.020514771
57	0xbbad93e4	-0.005297171
58	0xbca52c41	-0.020162703
59	0x3e036676	0.12832054
60	0xbcad716b	-0.021172246
61	0x3b8b15ab	0.0042445264
62	0xbc778f3c	-0.015109833
63	0x3db94cf8	0.09047884
64	0xbc97fe1b	-0.018553784
65	0x3deae1e8	0.114688694
66	0xbd3da5b8	-0.04630062
67	0x3ce9e8a9	0.028553324
68	0x3dea894f	0.11451971
69	0x3d9918ba	0.07475419
70	0x3db369d7	0.08760422
71	0xba9dd9e3	-0.0012043085
72	0x3c12045e	0.008912174
73	0x3e2f495a	0.17117825
74	0xbc36a45b	-0.011147584
75	0x3b84126c	0.0040305164
76	0x3e29a6cd	0.16567536
77	0x3d4a5d81	0.04940558
78	0xbdb30624	-0.087414056
79	0xbde61f94	-0.11236492
80	0xbd2380a0	-0.03991759
81	0xbdd22e0b	-0.10262688
82	0x3d7bbad6	0.061457478
83	0x3be76572	0.007061654
84	0xbe2992ea	-0.1655995
85	0xbdc38607	-0.09547048
86	0xbe163b92	-0.14671162
87	0xbe34aafc	-0.1764335
88	0x3dc97a54	0.09837785
89	0xbdb8e558	-0.09028119
90	0xbcf7ed24	-0.030264445
91	0x3d448d57	0.047986355
92	0x3c326782	0.010888936
93	0xbe1407ac	-0.14456052
94	0x3cf7da5f	0.030255495
95	0xbb9bf093	-0.0047589033
96	0xbd6bf4e5	-0.057606596
97	0xbdccb119	-0.09994716
98	0x3caccd0e	0.021093871
99	0xbdb4f4fd	-0.0883579
100	0xbc8e5bcc	-0.017377757
101	0x3c86ffce	0.016479399
102	0xbdc967bb	-0.09834238
103	0xbe26ac5a	-0.16276684
104	0xbd4c6a57	-0.0499061
105	0xba981bfe	-0.0011605022
106	0xbd91d032	-0.07119788
107	0x3d212c8a	0.039349116
108	0x398f7af1	0.00027366684
109	0x3c999e73	0.018752312
110	0x3c19f5af	0.009396954
111	0xbcaae1c9	-0.020859616
112	0x3e50f127	0.20404492
113	0xbec02866	-0.37530822
114	0x3d41fb83	0.047359
115	0xbe59ad19	-0.21257438
116	0xbd9c4d97	-0.076319866
117	0x3d0974ca	0.033558644
118	0xbcfa2fb6	-0.030540328
119	0x3dc11520	0.094278574
120	0xbeace18d	-0.33765832
121	0xbdada992	-0.084796086
122	0xbdf7ea47	-0.12105232
123	0x3e00fd10	0.12596536
124	0xbc69afc5	-0.014263098
125	0x3d300e76	0.04298254
126	0x3dbcf61e	0.09226631
127	0x3c4d0fef	0.012516006
128	0x3d2ef5d6	0.042714916
129	0x3cfc184c	0.030773304
130	0xbbdc082c	-0.0067148414
131	0xbdf69ab8	-0.12041229
132	0xbd5c4316	-0.053774916
133	0xbdb02b60	-0.08602023
134	0xbbaee448	-0.005337272
135	0xbb1a77aa	-0.002356986
136	0x3ecd0abf	0.4004726
137	0x3ea2c338	0.31789565
138	0x3e0925b2	0.13393286
139	0x3aaeae67	0.0013327122
140	0x3e0d1b8b	0.13780038
141	0xbd6178d9	-0.05504689
142	0xbb2b8176	-0.0026169694
143	0x3e2f339e	0.17109534
144	0xbe4f75f1	-0.20259835
145	0xbce9baad	-0.028531397
146	0xbd1217ef	-0.035667356
147	0x3da31f54	0.0796496
148	0x3c03a05e	0.00803384
149	0x3db730e2	0.089448705
150	0x3c703f47	0.014663524
151	0x3aebb8c7	0.0017984145
152	0x3e3016f2	0.17196253
153	0xbd185156	-0.037186943
154	0x3db38dde	0.087672934
155	0x3e90288e	0.2815594
156	0xbe364545	-0.17799862
157	0xbdc5bd95	-0.096553005
158	0x3d6e882c	0.058235332
159	0xbc164410	-0.009171501
160	0x3ae00216	0.0017090465
161	0x3ec77d3a	0.38962728
162	0x3d52ac3d	0.05143379
163	0xbc897061	-0.01677722
164	0x3d529f81	0.051421646
165	0x3d5169e9	0.051126394
166	0x3ccbb9a8	0.024868801
167	0x3d847ab0	0.06468713
168	0x3d13c19c	0.036073312
169	0x3b83b028	0.004018802
170	0x3d393ed0	0.04522592
171	0x3dc5376e	0.09629713
172	0xbd647ef2	-0.055785127
173	0xbc1a6f61	-0.009425969
174	0x3cdb3465	0.026758382
175	0xbcbc7809	-0.023006456
176	0x3ba36e2e	0.0049874997
177	0xbd1d7882	-0.038445003
178	0xbda872fa	-0.08225055
179	0xbc2faa32	-0.01072173
180	0x3db9065e	0.090344176
181	0xbd5d97d7	-0.054099884
182	0x3b0cb446	0.0021469756
183	0xbd74ae8c	-0.059736773
184	0xbdb70040	-0.089355946
185	0x3c324399	0.010880374
186	0xbdaa76f0	-0.08323467
187	0x3d15f86b	0.036613863
188	0xbe482b5f	-0.19547795
189	0x3ce220cc	0.02760353
190	0xbd2c8da4	-0.042127267
191	0xbda7028e	-0.08154784
192	0x3d9031e6	0.07040767
193	0x3c890b31	0.01672897
194	0x3b16ea87	0.0023027973
195	0xbd0f203f	-0.03494286
196	0xbc7d616c	-0.015465122
197	0xbaac5dcb	-0.0013150511
198	0x3d772a55	0.060343105
199	0xbd91d39a	-0.07120438
200	0xbc0252dd	-0.007954326
201	0xbdc98541	-0.09839869
202	0xbc2a7ba1	-0.010405452
203	0x3b9fd4d3	0.0048776655
204	0x3eddbdeb	0.43308958
205	0x3e9ecf70	0.31017637
206	0x3e31494f	0.17313121
207	0xbc7461d1	-0.014915899
208	0xbb3db0c1	-0.0028944465
209	0x3ca5bf43	0.020232802
210	0x3bc2300e	0.0059261387
211	0x3ec7d8fb	0.3903273
212	0xbd2fddf1	-0.04293627
213	0x3d7644da	0.060124256
214	0xbc9d816e	-0.019226756
215	0x3dcd63c5	0.10028795
216	0x3cd294c8	0.02570571
217	0x3cdb2026	0.026748728
218	0x3b3ffb7f	0.002929419
219	0x3d25529b	0.04036198
220	0x3d0a585a	0.033775665
221	0xbab1ca73	-0.0013564363
222	0x3dfab812	0.1224214
223	0x3e236256	0.15955481
224	0xbe008771	-0.12551667
225	0x3b1a9a5d	0.0023590543
226	0x3a908b2d	0.0011027806
227	0x3c7516b4	0.014959026
228	0x3c3a9891	0.011388914
229	0x3eaf066e	0.34184593
230	0xbc152b29	-0.009104528
231	0x3d189879	0.037254784
232	0xbbcfc23f	-0.0063402946
233	0x3d904399	0.07044143
234	0x3cf35867	0.02970524
235	0xbb1e3d24	-0.002414533
236	0x3cac4cda	0.02103274
237	0x3d11678b	0.035499137
238	0xbdc976b2	-0.098370925
239	0x3c0caaa4	0.008585606
240	0xbde03a87	-0.10948663
241	0xba60f734	-0.0008581758
242	0xbe090412	-0.13380459
243	0xbdf419a6	-0.119189546
244	0x3b0e8748	0.0021748114
245	0xbded4302	-0.11585046
246	0xbc50f1c3	-0.012752953
247	0x3c433394	0.011914153
248	0xbd8b57e3	-0.068038724
249	0xbbd15a41	-0.006388933
250	0xbcb2ac96	-0.021810811
251	0xbdc32f6f	-0.095305316
252	0x3c8feda1	0.017569365
253	0x3c29346c	0.01032744
254	0x3d645c1f	0.055751916
255	0xbd9fecd4	-0.07808843

bias f4 [128]
0	0xbdad8426	-0.08472471
1	0x3e922b05	0.28548446
2	0xbd822412	-0.06354536
3	0xbe34dae4	-0.17661625
4	0xbe37be3c	-0.17943662
5	0x3e9d9006	0.30773944
6	0xbd62fed7	-0.055418815
7	0x3ec42768	0.38311315
8	0xbf097177	-0.5368876
9	0xbe447c9b	-0.19188158
10	0xbebed64b	-0.37272868
11	0xbe2c5217	-0.1682819
12	0xbcc24a4c	-0.023717068
13	0x3def10a8	0.11673099
14	0x3caae20c	0.02085974
15	0x3ec94aae	0.3931479
16	0xbec5ab94	-0.38607466
17	0xbea64917	-0.32477638
18	0xbe8a6fea	-0.2703851
19	0xbf092108	-0.53566027
20	0xbede396f	-0.43403193
21	0xbe84360a	-0.2582248
22	0xbec6ac1a	-0.38803178
23	0xbdc62d4f	-0.09676611
24	0xbee6270d	-0.44951668
25	0xbe1566ef	-0.14590047
26	0x3e9ea353	0.30983981
27	0xbe477caa	-0.1948115
28	0x3d9f5075	0.07779018
29	0xbeafeaa5	-0.34358707
30	0x3eb9f813	0.36322078
31	0xbe3d5fae	-0.1849353
32	0xbe1badf1	-0.15203072
33	0x3e66964c	0.22518271
34	0xbe8d3dec	-0.27586305
35	0x3eb01dd3	0.34397754
36	0xbeb0c9fb	-0.345291
37	0xbe52f042	-0.20599464
38	0xbe7e0028	-0.24804747
39	0xbf1fb038	-0.62378263
40	0xbedfaa17	-0.43684456
41	0xbe7f4ea1	-0.24932338
42	0xbf06ed72	-0.5270606
43	0xbeb3fd27	-0.35154077
44	0xbe5ad971	-0.2137201
45	0xbe3c6509	-0.18397917
46	0x3ea84e7b	0.32872376
47	0x3db02d24	0.0860236
48	0xba1972f1	-0.00058536144
49	0xbee3dc07	-0.44503805
50	0x3ec5cf24	0.38634598
51	0xbb19deb6	-0.0023478693
52	0xbe987117	-0.2977378
53	0x3d74a6be	0.05972933
54	0xbb9328e7	-0.00449096
55	0x3e9d9518	0.30777812
56	0x3e4c351f	0.19942139
57	0xbea9077e	-0.3301353
58	0x3c9e5971	0.019329758
59	0x3e3710ff	0.17877577
60	0xbe8cf37a	-0.27529508
61	0x3e34a2c4	0.17640215
62	0x3e6eb132	0.23309782
63	0xbe7352ef	-0.23762105
64	0x3ea694ac	0.32535303
65	0xbdd337c6	-0.10313372
66	0x3ec9a962	0.3938704
67	0x3e4f5ace	0.20249483
68	0x3e105d29	0.14098038
69	0xbe21bcd0	-0.15794683
70	0x3d076d2a	0.03306309
71	0xbe251416	-0.16120943
72	0x3d8bb64e	0.06821881
73	0xbe2ac8f9	-0.16678227
74	0x3e94de14	0.29075682
75	0xbee073f9	-0.4383848
76	0x3d8e232e	0.06940304
77	0x3f00030b	0.50004643
78	0xbe19ae31	-0.15007855
79	0xbf158370	-0.5840368
80	0x3db6e05b	0.08929511
81	0x3d6d6565	0.057958025
82	0x3e8ff82a	0.28119022
83	0xbd26affe	-0.040695183
84	0xbebe0188	-0.37110543
85	0x3e757ce2	0.2397342
86	0x3db76b56	0.089560196
87	0x3e925967	0.28583834
88	0x3dca7220	0.09885049
89	0xbecd7b90	-0.40133333
90	0xbeffa1ab	-0.4992803
91	0xbdb738ac	-0.08946356
92	0x3ba864fb	0.005138991
93	0x3e8c1772	0.27361637
94	0x3e63622d	0.2220542
95	0xbe8be424	-0.27322495
96	0xbe7d0f4a	-0.24712864
97	0x3de32c04	0.1109238
98	0xbe69979c	-0.2281174
99	0x3e78bdc5	0.24291141
100	0x3de4f9c8	0.111804545
101	0xbe6b1635	-0.2295769
102	0xbe8ee008	-0.27905297
103	0x3e91ccc4	0.28476536
104	0x3d3161dd	0.04330622
105	0x3ebdb9c5	0.37055793
106	0x3e1aa6c4	0.15102679
107	0x3e8fc370	0.28078794
108	0xbe3e87f8	-0.18606555
109	0xbded6aa2	-0.11592604
110	0xbedd1b3d	-0.43184844
111	0xbe49e6f4	-0.19717008
112	0x3e3dad61	0.1852317
113	0xbe104f05	-0.14092644
114	0x3eb4e024	0.35327256
115	0xbe8b32e8	-0.27187276
116	0xbeb4d924	-0.35321915
117	0xbef0603a	-0.46948415
118	0xbdb32483	-0.087471984
119	0x3dbbfb7a	0.09178825
120	0xbe32b05d	-0.1745009
121	0xbd6e3225	-0.05815329
122	0x3e5428bd	0.20718665
123	0xb986dc40	-0.0002572257
124	0xbd95a0da	-0.073060706
125	0x3ea1f409	0.31631497
126	0xbe1e49c4	-0.15457827
127	0xbf0072ab	-0.5017497

weight f4 [128, 128]
0	0x3b10e33c	0.0022108098
1	0x3d200261	0.03906477
2	0xbe4f0cb4	-0.2021969
3	0x3ea53780	0.32268906
4	0xbf67d6f3	-0.9056236
5	0xbc644769	-0.013933041
6	0xbf25fb00	-0.6483612
7	0x3e2a9edc	0.16662163
8	0x3eac6d3b	0.33677086
9	0x3d70e293	0.058809828
10	0xbdd6f2ce	-0.1049553
11	0xbdaf62f9	-0.085637994
12	0xbe1c3085	-0.15252884
13	0x3ca0b042	0.019615296
14	0x3d9797de	0.07402013
15	0xba5b4ffc	-0.00083661056
16	0xbe87cbf8	-0.26522803
17	0xbe9c7ca2	-0.30563837
18	0xbeb40df4	-0.35166895
19	0xbd95442e	-0.07288395
20	0xbe2694a1	-0.16267635
21	0xbc5129f2	-0.012766348
22	0xbe07a66a	-0.13247076
23	0x3d2a072d	0.04151075
24	0xbd870548	-0.06592804
25	0xbddaa029	-0.106750794
26	0xbd8b7afc	-0.06810567
27	0xbdda8944	-0.106707126
28	0xbf07953f	-0.52962106
29	0xbcd126bf	-0.02553117
30	0x3de1eb18	0.11031169
31	0xbdf8c226	-0.12146406
32	0x3d9cb311	0.07651342
33	0x3db96a2c	0.09053454
34	0xbe021145	-0.127019
35	0x3d4c1aa8	0.04983011
36	0xbc622a51	-0.013804034
37	0x3c3f53b1	0.011677668
38	0xbdbc4497	-0.0919277
39	0xbe8724af	-0.26395175
40	0x3e1f1de7	0.1553875
41	0xbe31ac56	-0.17350897
42	0xbd938736	-0.07203524
43	0xbdf04d65	-0.11733512
44	0xbeb857d6	-0.36004514
45	0xbe0120e2	-0.126102
46	0x3e547f7c	0.20751756
47	0x3d6f6431	0.05844516
48	0x3e043d7c	0.1291408
49	0xbdd06c12	-0.10176863
50	0xbcc0c0f5	-0.02352951
51	0x3dbe92ae	0.09305321
52	0xbd8235f0	-0.06357944
53	0xbdcdbd6c	-0.10045895
54	0x3dc3b464	0.09555891
55	0x3d895011	0.067047246
56	0x3d3488af	0.044075664
57	0xbf023664	-0.50864244
58	0xbe69be93	-0.22826605
59	0xbd79a3d6	-0.06094726
60	0xbe9220c5	-0.28540626
61	0x3dbc3e99	0.09191627
62	0xbbfe9cbf	-0.0077701504
63	0x3e049f98	0.12951505
64	0xbdb69efd	-0.08917043
65	0x3e0f0579	0.13966931
66	0x3ebd4e9a	0.3697403
67	0xbde4300c	-0.11141977
68	0x3e58f972	0.21188906
69	0x3e9ce1d3	0.3064104
70	0xbde6c0e1	-0.112672575
71	0xbe01bc36	-0.12669453
72	0xbd467957	-0.048455562
73	0xbe4d7f81	-0.2006817
74	0x3e9c111a	0.30481797
75	0x3dbb5096	0.0914623
76	0x3e8a4221	0.27003577
77	0x3ded567a	0.1158876
78	0x3d8b9de0	0.06817222
79	0xbde4a232	-0.11163749
80	0xbd912902	-0.070879
81	0x3d86ebea	0.06587966
82	0xbdf69817	-0.120407276
83	0xbd628c0d	-0.055309344
84	0xbe269d8c	-0.16271037
85	0x3e02a965	0.12759931
86	0xbe5edf06	-0.21764764
87	0xbd9df46d	-0.07712636
88	0xbf9843dd	-1.189571
89	0xbe1f063e	-0.15529725
90	0x3d9cc180	0.07654095
91	0xbd34b71b	-0.044119935
92	0x3db37e23	0.08764293
93	0x3de5e0d8	0.11224526
94	0x3dce61d4	0.10077253
95	0xbf0a938a	-0.54131377
96	0xbe038f07	-0.1284753
97	0x3d55770a	0.052115478
98	0xbe8c4532	-0.27396542
99	0xbe5625ea	-0.209129
100	0xbc9f5d7f	-0.019453762
101	0xbd710c0b	-0.058849376
102	0xbddcd59c	-0.1078293
103	0xbc440c06	-0.011965757
104	0x3e0db7fc	0.13839716
105	0x3c70b0a3	0.014690551
106	0x3da81202	0.0820656
107	0xbe40514c	-0.18781012
108	0xbdc14442	-0.09436847
109	0x3e8258e3	0.2545844
110	0xbe3f5784	-0.18685728
111	0xbd3ad622	-0.04561437
112	0xbd90fe8f	-0.07079803
113	0xbda4df52	-0.080504075
114	0x3df0f9f0	0.11766422
115	0x3de914f0	0.11380947
116	0x3d2e55e9	0.0425624
117	0xbe0b9787	-0.13632022
118	0x3d9751b1	0.07388628
119	0x3e41b1a9	0.18915428
120	0xbdcfe379	-0.10150809
121	0x3e76505a	0.24054089
122	0x3d435cec	0.04769604
123	0x3d89b04d	0.0672308
124	0xbe305f1a	-0.17223778
125	0x3e8acb38	0.2710817
126	0xbda6bc8e	-0.08141433
127	0x3ec90072	0.39258152
128	0x3cf18997	0.029484553
129	0xbe8b0b60	-0.27157116
130	0xbd9349c9	-0.07191808
131	0x3d8454de	0.064615
132	0xbeb31a8b	-0.34981188
133	0xbe13c9bc	-0.14432424
134	0xbeb83da5	-0.3598453
135	0xbcdbc5a9	-0.02682765
136	0xbe4aec43	-0.19816689
137	0x3e33ed5f	0.17571019
138	0xbdfc2eb2	-0.12313594
139	0xbd8640fe	-0.06555365
140	0x3d9f47be	0.077773556
141	0x3c92afa3	0.017906016
142	0x3e22b313	0.15888624
143	0x3e05d6a6	0.13070163
144	0x3e646686	0.22304735
145	0x3dc9aff7	0.09848016
146	0xbc4dd0a7	-0.012561954
147	0xbe6e5023	-0.23272757
148	0xbe9da865	-0.30792537
149	0xbc4b175f	-0.012395709
150	0x3e12b1a4	0.14325577
151	0xbed4f748	-0.4159491
152	0x3e3cac11	0.18425013
153	0xbdec3067	-0.115326695
154	0xbdc4ad8f	-0.09603416
155	0xbd894a01	-0.06703568
156	0xbf1656cc	-0.5872619
157	0xbe40f15c	-0.18842071
158	0x3ca0d776	0.01963399
159	0x3dfcda38	0.123463094
160	0x3e11accc	0.14226073
161	0xbd31282f	-0.043251213
162	0xbdd48aa2	-0.103780046
163	0xbe20ef99	-0.15716399
164	0xbe6a6dd4	-0.22893459
165	0xbd7fef5a	-0.062484123
166	0x3c9094ff	0.017649172
167	0xbe38ae64	-0.18035275
168	0xbd8cbe4c	-0.06872234
169	0x3e0ada15	0.13559754
170	0x3e314e3b	0.17314999
171	0xbc76c2a7	-0.015061057
172	0xbcd1d83c	-0.025615804
173	0xbed15799	-0.40887144
174	0xbebd7e5c	-0.37010467
175	0x3dd9c0c0	0.10632467
176	0x3d125cb6	0.035732947
177	0x3e259a3c	0.16172117
178	0xbe459b77	-0.19297586
179	0x3c8722af	0.01649603
180	0x3d9e932b	0.07742914
181	0x3e2997a3	0.16561751
182	0x3e0da922	0.1383405
183	0x3e7b0c26	0.24516353
184	0x3e125f05	0.1429406
185	0xbde33889	-0.110947676
186	0x3decfb0e	0.115713224
187	0xbec3a255	-0.38209787
188	0x3d2cb032	0.04216022
189	0x3de35baf	0.11101472
190	0x3d50e7ad	0.051002193
191	0xbc2c04a9	-0.010499158
192	0xbe8f9d75	-0.28049818
193	0x3dacf09a	0.084443286
194	0x3d7b8e37	0.061414924
195	0xbd6f6750	-0.058448136
196	0xbcd21385	-0.025644073
197	0xbd8714a7	-0.06595736
198	0x3d9f7d1c	0.077875346
199	0x3db9393a	0.09044118
200	0xbd6aee0c	-0.057355925
201	0xbe0fd2b0	-0.14045215
202	0x3c8f4e02	0.017493252
203	0x3e400fe4	0.18756062
204	0x3c572a85	0.013132696
205	0xbe999dd0	-0.30003214
206	0x3e0bf890	0.13669038
207	0xbe0da5c5	-0.13832767
208	0xbda29008	-0.07937628
209	0xbe089f3f	-0.13341998
210	0x3b6f7ac9	0.0036541692
211	0xbe4285a1	-0.18996288
212	0x3d495505	0.049153347
213	0x3d9246a1	0.07142378
214	0xbe830640	-0.25590706
215	0xbe3d4259	-0.18482341
216	0xbe90d79e	-0.28289503
217	0xbe9b1b07	-0.30294058
218	0x3cb4812c	0.02203425
219	0xbc25aa74	-0.01011144
220	0x3ea7b7e9	0.327575
221	0xbe0f22c2	-0.13978103
222	0x3d1cfb52	0.038325615
223	0x3d9537a7	0.072860055
224	0xbe2e0d1c	-0.16997188
225	0xbe5f2f50	-0.21795392
226	0xbe5be5a0	-0.21474314
227	0x3d07305c	0.033005103
228	0x3d23bef4	0.03997703
229	0x3dc2f246	0.09518866
230	0x3b0f53b4	0.002186996
231	0x3d39df2c	0.04537885
232	0xbe080257	-0.13282143
233	0xbe068f7f	-0.13140677
234	0x3d411d31	0.04714698
235	0xbb60ef43	-0.0034322299
236	0x3ca95f68	0.020675376
237	0xbde52490	-0.11188614
238	0xbf1fd059	-0.6242729
239	0x3d21b16e	0.03947585
240	0x3d0caadf	0.034342643
241	0xbd4c8011	-0.04992682
242	0x3e020826	0.12698421
243	0xbea89c31	-0.32931665
244	0x3c6631ae	0.0140499305
245	0xbd7c1ad3	-0.06154902
246	0x3e4dd52a	0.20100847
247	0x3e472d39	0.19450845
248	0x3e59b16a	0.21259084
249	0xbdbed1a3	-0.09317329
250	0xbbb69d69	-0.005572964
251	0xbe5bf0e3	-0.2147861
252	0xbc9ee81d	-0.01939779
253	0xbce04f80	-0.027381659
254	0xbe7b1a56	-0.24521765
255	0x3d53ba12	0.051691122

bias f4 [128]
0	0x3e1a83a0	0.15089273
1	0xbd640b8d	-0.05567508
2	0x3b3d02ec	0.0028840853
3	0x3e5cf606	0.21578225
4	0x3e1323f8	0.1436919
5	0xbe1132f2	-0.1417959
6	0xbdb23f39	-0.08703465
7	0xbc564113	-0.013077038
8	0xbe6728f8	-0.22574222
9	0xbe82da3e	-0.2555713
10	0x3e200fbf	0.15631007
11	0xbd0f76e2	-0.035025485
12	0xbe762832	-0.24038771
13	0x3d228a22	0.039682515
14	0xbe33e856	-0.17569098
15	0x3df82806	0.12117009
16	0x3cd166ad	0.025561655
17	0xbdbf9844	-0.09355214
18	0xbde4721d	-0.11154578
19	0xbb0fcdf6	-0.002194283
20	0x3d46f924	0.048577443
21	0x3dbf8569	0.09351618
22	0xbe3e6afa	-0.18595496
23	0x397defe8	0.00024217332
24	0xbdb56696	-0.08857457
25	0x3e1c56e8	0.15267527
26	0x3dfaaa54	0.12239519
27	0x3bc7ca44	0.00609711
28	0xbda8e841	-0.08247424
29	0x3df593d0	0.119910836
30	0x3dcac439	0.09900708
31	0x3dbe44f1	0.09290493
32	0x3b054248	0.0020333696
33	0xbdc2607a	-0.09491058
34	0xbe35ad2b	-0.1774184
35	0x3e82ed14	0.255715
36	0x3bfd8299	0.0077365157
37	0xbe3d6849	-0.18496813
38	0xbe2df8ae	-0.16989395
39	0xbda80680	-0.08204365
40	0xbe64e522	-0.22353032
41	0x3c6723ee	0.014107687
42	0x3df23f4d	0.1182848
43	0x3e87eff6	0.26550263
44	0xbd3d61c6	-0.046235822
45	0x3c8769a7	0.016529871
46	0xbe80badd	-0.25142565
47	0xbd8fb43a	-0.07016797
48	0xbe2cc3aa	-0.16871515
49	0x3d87bdac	0.06627974
50	0xbdfa3bbe	-0.12218426
51	0xba92fc22	-0.0011214057
52	0x3e2e4ec6	0.17022237
53	0xbe0c6be6	-0.13713035
54	0x3d43d34f	0.04780894
55	0xbdf02613	-0.11726012
56	0xbde18d30	-0.110132575
57	0x3c015703	0.00789428
58	0xbd9b0fa8	-0.075713456
59	0x3e92cb60	0.28670788
60	0xbd1c3f8b	-0.038146537
61	0x3e3b9da2	0.18321851
62	0x3e3e8363	0.18604808
63	0x3de7832b	0.11304315
64	0x3e560849	0.20901598
65	0x3ca151a7	0.019692255
66	0x3e96d9cc	0.2946304
67	0xbd9055b0	-0.070475936
68	0x3d5a251e	0.053258054
69	0xbd4eeed5	-0.050520737
70	0x3e27ca0b	0.16385667
71	0x3e3894b7	0.1802548
72	0x3e4eb8b6	0.20187649
73	0xbce396fc	-0.027781956
74	0xbd9a3fcc	-0.075316995
75	0x3e522f32	0.20525816
76	0x3c88af0d	0.016685033
77	0x3d8a208e	0.067444906
78	0xbe119c86	-0.14219865
79	0x3d300703	0.042975437
80	0xbe17b21f	-0.14814042
81	0x3c4062b2	0.011742281
82	0xbc985566	-0.018595409
83	0xbcba5879	-0.022747265
84	0x3e0ad91c	0.13559383
85	0x3d5475f9	0.05187032
86	0x3e83712a	0.25672275
87	0x3e185745	0.1487704
88	0x3e90ee0d	0.28306618
89	0x3dc67ff8	0.09692377
90	0xbe3413ae	-0.17585632
91	0x3d2fd5e1	0.04292858
92	0xbe01d928	-0.12680495
93	0x3ec46a1c	0.38362205
94	0xbd969609	-0.07352836
95	0xbe195650	-0.14974332
96	0x3e1e16e2	0.15438417
97	0x3e1c813d	0.15283675
98	0xbe13a871	-0.14419724
99	0xbe386af1	-0.18009545
100	0xbd9ad431	-0.075600035
101	0x3a96fabc	0.0011518816
102	0xbaea83bf	-0.0017892047
103	0x3e045725	0.12923868
104	0x3df96a80	0.121785164
105	0x3dfe1bfa	0.1240768
106	0xbb8ba817	-0.004261981
107	0x3c9ae146	0.018906247
108	0x3da7780b	0.08177193
109	0x3e424279	0.1897067
110	0x3d55a58f	0.052159842
111	0xbd839702	-0.06425287
112	0xbdb9b1e3	-0.09067132
113	0xbd5f75e9	-0.054555807
114	0x3e698331	0.22803952
115	0x3c321de9	0.010871389
116	0x3da485bd	0.08033321
117	0xbb8d53f9	-0.004312989
118	0x3e8aed1c	0.27134025
119	0x3df391f2	0.11893071
120	0xbe9599ba	-0.29218847
121	0x3dc36357	0.09540432
122	0xbe3981dd	-0.18115945
123	0xbdcddd2c	-0.10051951
124	0x3d60ba0e	0.054864936
125	0x3e21adf7	0.15789019
126	0x3c635ef3	0.013877618
127	0x3e8d25aa	0.27567798

weight f4 [12, 128]
0	0x3aa82e8e	0.0012831257
1	0x3da6c7d7	0.08143585
2	0x3e814634	0.25248873
3	0xbc9ac913	-0.018894708
4	0xbdd054f5	-0.10172454
5	0x3d4fbf64	0.050719634
6	0x3dcd6467	0.10028916
7	0xbcf6f194	-0.03014449
8	0xbe566643	-0.20937447
9	0x3d37570c	0.04476075
10	0x3d3cdb11	0.046107356
11	0xbca83c38	-0.020536527
12	0xbdbee0d6	-0.09320228
13	0x3e23ea77	0.1600741
14	0xbd5a5ebd	-0.053313006
15	0xbdcbf9f2	-0.09959783
16	0xbc26f2cd	-0.010189724
17	0x3d7cfe40	0.06176591
18	0xbd9912a0	-0.074742556
19	0x3b153a2c	0.002277027
20	0x3e44959a	0.19197693
21	0xbca7802d	-0.020446861
22	0x3bb8cc67	0.005639601
23	0x3e6923b1	0.22767521
24	0xbd9e334f	-0.0772463
25	0x3c99a3b3	0.018754816
26	0xbdced07c	-0.10098359
27	0x3d18c466	0.037296675
28	0x3d2afabf	0.041743036
29	0x3c914eed	0.01773783
30	0xbd18895e	-0.03724038
31	0xbd22b0fa	-0.03971956
32	0xba449a77	-0.00074998237
33	0x3e18c821	0.14920093
34	0x3d2aeeed	0.041731764
35	0xbcb8f146	-0.022575986
36	0x3c722a12	0.014780538
37	0x3c2482c6	0.010040944
38	0xbbbee872	-0.0058260495
39	0xbc9f74d6	-0.019464891
40	0xbe2db3fb	-0.16963188
41	0xbe27dbb7	-0.16392408
42	0x3d8b913a	0.06814809
43	0xbd8dfd79	-0.06933112
44	0x3c805b66	0.015668582
45	0xbd191f42	-0.037383325
46	0xbd4782c4	-0.048708692
47	0xbd71834c	-0.058963105
48	0xba314cc7	-0.0006763455
49	0xbad65f15	-0.0016355241
50	0x3e4e7593	0.20162039
51	0x3bba8b09	0.005692844
52	0xbd053f28	-0.032530934
53	0x3d6d6b9b	0.05796395
54	0x3e12666d	0.14296885
55	0x3e0a498d	0.1350462
56	0x3dba978c	0.091109365
57	0xbe3607ec	-0.1777646
58	0x3c7e4f92	0.015521901
59	0xbcc70c50	-0.024297863
60	0xbd6c4d45	-0.057690877
61	0xbc1c414c	-0.009537052
62	0xbccca507	-0.024981035
63	0xbd4b4a9d	-0.049631704
64	0x3da01895	0.07817189
65	0x3ddcae63	0.10775449
66	0x3dbed263	0.09317472
67	0xbb729594	-0.0037015425
68	0xbd3d790d	-0.04625802
69	0x3da36c80	0.07979679
70	0x3ce60d86	0.02808262
71	0x3d313217	0.04326066
72	0x3cfe888d	0.031070972
73	0x3bdfec30	0.0068335757
74	0xbd817d10	-0.06322682
75	0xbbaa4bbe	-0.0051970175
76	0x3ba67767	0.005080152
77	0xbcd030d0	-0.0254139
78	0xbd885f1a	-0.06658764
79	0xbd80d772	-0.06291093
80	0xbcd90089	-0.026489513
81	0x3d1e9cdb	0.038723808
82	0xbd54165d	-0.05177914
83	0x3e33dd62	0.1756492
84	0x3d2e6b4d	0.0425828
85	0x3ce979e1	0.0285005
86	0xbad8afcc	-0.0016531884
87	0xbc837970	-0.016049117
88	0x3dc121ca	0.09430273
89	0x3d4f40fc	0.050599083
90	0x3d3db551	0.046315495
91	0x3c095543	0.008382144
92	0xbe0c2435	-0.13685687
93	0xbb5be9ed	-0.0033556179
94	0x3d71039f	0.058841344
95	0x3d8f1d2d	0.06987987
96	0xbcdc9e4d	-0.026930952
97	0xbc9b24d1	-0.018938454
98	0xbe15b30e	-0.14619085
99	0xbc7a8071	-0.015289412
100	0xbd99521c	-0.07486364
101	0x3e3e8e1f	0.18608902
102	0x3d7d9560	0.061910033
103	0x3d9081d8	0.07056016
104	0xbdc7c108	-0.09753615
105	0xbe1e0b3c	-0.15433973
106	0xbcb5fd46	-0.022215497
107	0x3b5e428f	0.0033914184
108	0x3e02984c	0.12753409
109	0x3d51fe32	0.05126781
110	0xbcfd5ba1	-0.030927481
111	0x3d49a172	0.049226232
112	0xbddd48df	-0.10804915
113	0x3d36f62d	0.044668365
114	0xbd80e080	-0.0629282
115	0x3cf05e94	0.029341973
116	0x3b741dc3	0.0037249185
117	0x3d93171f	0.071821444
118	0xbdab0342	-0.08350231
119	0xbd8cc5c0	-0.06873655
120	0xbda52dae	-0.08065353
121	0x3ce8669f	0.028369246
122	0x3d2ba50a	0.04190544
123	0xbd64b16e	-0.055833273
124	0x3d8d95c0	0.06913328
125	0x3c8e71bd	0.017388219
126	0xbd8b72e2	-0.068090215
127	0xbd53cd4a	-0.05170945
128	0xbce7e37f	-0.02830672
129	0xbd690253	-0.056886982
130	0xbe35aa91	-0.17740847
131	0xbb2af7c3	-0.002608762
132	0x3e4b46cd	0.19851227
133	0x3d8628c3	0.065507434
134	0x3b2a1429	0.0025951958
135	0xbbeecab1	-0.0072873463
136	0xbe1d012d	-0.1533248
137	0x3dc2c5f4	0.09510413
138	0xbe177dd2	-0.1479409
139	0x3d0a67ec	0.033790514
140	0xbcd613f7	-0.026132567
141	0x37ced72b	2.4657309e-05
142	0xba9c09d0	-0.001190478
143	0x3c2c488a	0.010515342
144	0xbd0b8dfa	-0.034070946
145	0x3da11fae	0.078673705
146	0xbcc04ae7	-0.023473216
147	0xbd9b9073	-0.07595911
148	0x3cf69e20	0.030104697
149	0xbc276eec	-0.010219317
150	0x3b2567e7	0.0025238933
151	0xbd8e7515	-0.069559254
152	0x3d4f2525	0.050572533
153	0x3d2d03fc	0.042240128
154	0x397ad727	0.00023922008
155	0x3d28753c	0.04112743
156	0x3daeb674	0.08530894
157	0x3c0adb73	0.008475172
158	0xbbb800f7	-0.0056153494
159	0xbaab0e18	-0.0013050465
160	0x3d9c685f	0.07637095
161	0x3de5e754	0.11225763
162	0x3ea77a10	0.32710314
163	0x3e0c9f83	0.13732724
164	0x3c77f0d1	0.015133099
165	0xbcc41c08	-0.023939148
166	0x3d15987a	0.036522366
167	0x3d921aae	0.07133995
168	0xbd84dd5e	-0.06487535
169	0x3d12f421	0.03587735
170	0x3ca1e62e	0.019763079
171	0xbdbce323	-0.092230104
172	0x3d098e57	0.03358301
173	0x3e0f41dc	0.13989967
174	0xbd35495b	-0.04425941
175	0xbd255d45	-0.040372152
176	0x3c5d1d74	0.013495792
177	0xbd8591a8	-0.06521922
178	0x3dd42bdf	0.1035993
179	0xbc3e1862	-0.011602493
180	0x3c8ab91d	0.016933972
181	0x3d2d09e8	0.042245775
182	0x3c019e9f	0.007911353
183	0x3db298e7	0.0872057
184	0xbcce1631	-0.025157066
185	0x3cb8c79a	0.022556115
186	0x3d1b01f1	0.03784365
187	0xbd8af482	-0.067849174
188	0x3e2de766	0.16982803
189	0xbce0c173	-0.027435994
190	0x3c4a1790	0.012334719
191	0x3d02535b	0.031817775
192	0x3cb3f58d	0.021967674
193	0x3cc52340	0.02406466
194	0xbdb74c40	-0.089500904
195	0xbc7ad9ed	-0.015310747
196	0x3cf7c88e	0.030247
197	0x3dad0b09	0.084493704
198	0xbd92a56e	-0.071604595
199	0x3d310037	0.043213096
200	0x3b979e6b	0.004627039
201	0x3d6cce06	0.057813667
202	0x3ccf6bbf	0.025319932
203	0xbd8d986f	-0.0691384
204	0x3e80214e	0.2502541
205	0xbd74f07f	-0.059799667
206	0xbcefb427	-0.029260708
207	0xbb4fc8e5	-0.0031705436
208	0xbda47eee	-0.080320224
209	0x3ce7ee36	0.02831183
210	0xbdc24214	-0.0948526
211	0x3ccc2df2	0.024924252
212	0xbd0ff4c1	-0.035145525
213	0x3be917fe	0.007113456
214	0x3d808acd	0.06276474
215	0x3dd90985	0.10597519
216	0x3b6c7d24	0.0036085332
217	0x3cd12b46	0.02553333
218	0x399911c5	0.00029195673
219	0xbe0fe266	-0.14051208
220	0xbe1b032b	-0.15137927
221	0xbc78fabc	-0.0151964985
222	0x3d8be5e2	0.06830956
223	0xbba2fad3	-0.0049737482
224	0x3d46cbc5	0.048534174
225	0xbe2063e8	-0.15663111
226	0xbd2ba3f5	-0.04190441
227	0x3cbe3544	0.023218758
228	0xbd2dae1e	-0.04240238
229	0x3c2c95a1	0.010533721
230	0x3c8252a0	0.01590854
231	0x3c2a97ac	0.010412138
232	0xbd92b7e8	-0.071639836
233	0x3d3eec0b	0.046611827
234	0xbd4ff573	-0.050771188
235	0x3c881045	0.01660932
236	0xbda0cc6e	-0.07851492
237	0xbd8e3697	-0.06944006
238	0x3d53a88e	0.05167442
239	0xbd2636e1	-0.04057968
240	0xbc5e0822	-0.013551744
241	0x3dfde823	0.12397792
242	0x3d8f57ce	0.06999169
243	0xbd1b83a7	-0.03796735
244	0xbc3e9c16	-0.0116338935
245	0x3da0d7b8	0.07853645
246	0xbb3244b9	-0.0027201606
247	0x3b93765f	0.004500195
248	0xbddcb8b3	-0.10777416
249	0xbb9b60bb	-0.004741756
250	0x3d833869	0.06407244
251	0x3dbc9618	0.092083156
252	0xbb021cb6	-0.0019853539
253	0x3ca283b0	0.019838184
254	0xbe9751e7	-0.29554674
255	0x3d6a0855	0.057136852

bias f4 [12]
0	0xbd6289b6	-0.055307113
1	0x3d8d4ded	0.06899629
2	0x3d8339a8	0.064074814
3	0xbe1a9f58	-0.15099847
4	0xbe2f87c8	-0.1714164
5	0x3d1904d3	0.037358116
6	0xbe007cbc	-0.12547582
7	0x3ea3edc1	0.3201733
8	0xbbe893eb	-0.0070977113
9	0xbca71dd2	-0.020399962
10	0x3cb10615	0.021609345
11	0x3e05bd7e	0.13060567
