actor_model/actor_200.pt (torch, 89966 bytes, 6 tensors)

weight f4 [128, 16]
0	0xbdc07078	-0.09396452
1	0x3d19ed31	0.03757972
2	0x3cce1cc7	0.025160206
3	0xbdd7c34c	-0.10535297
4	0xbe36ec17	-0.17863499
5	0x3daf02d1	0.08545459
6	0x3d113c93	0.03545816
7	0x3d8c51ab	0.068515144
8	0xbe1d39ba	-0.15354052
9	0x3d079f2e	0.03311079
10	0x3ca163b1	0.019700857
11	0x3d793855	0.060844738
12	0x3dbb9bbb	0.091605626
13	0xbe1494cc	-0.14509887
14	0xbdbfa6f2	-0.09358014
15	0xbc9318d0	-0.017956167
16	0xbde6ebba	-0.1127543
17	0x3d852a22	0.06502177
18	0x3e0d7609	0.13814558
19	0xbddebade	-0.10875486
20	0x3d8d1fa8	0.068908036
21	0x3e6bb404	0.2301789
22	0xbc04b390	-0.008099452
23	0xbd1dfb60	-0.038569808
24	0xbdd72a50	-0.10506117
25	0xbdaceb75	-0.08443347
26	0xbcecb0f3	-0.02889297
27	0xbc6fb3bd	-0.014630255
28	0xbdce69d1	-0.10078777
29	0xbe11642e	-0.14198372
30	0xbd2c4fd8	-0.042068332
31	0xbe1f0d27	-0.15532361
32	0xbddc4eb1	-0.10757197
33	0x3db73f24	0.0894759
34	0xbe2b4e04	-0.1672898
35	0x3eace9fb	0.33772263
36	0x3d9420d4	0.07232824
37	0x3c2e80bf	0.010650813
38	0xbe5b1347	-0.21394072
39	0x3de205d7	0.1103627
40	0x3cd8914d	0.026436472
41	0xbe01d17f	-0.12677573
42	0x3dcb55c7	0.0992847
43	0xbd0494ec	-0.032368585
44	0xbe9155b8	-0.2838571
45	0x3e0462c4	0.12928301
46	0xbe2fc5c5	-0.17165287
47	0x3da71658	0.081585586
48	0xbd9c5443	-0.07633259
49	0x3e69ed31	0.22844388
50	0x3e08e982	0.13370326
51	0x3ddb0c52	0.10695709
52	0x3eca0b4b	0.3946174
53	0xbdbcbcae	-0.09215675
54	0x3e9699ac	0.29414117
55	0x3db557d1	0.0885464
56	0x3d6c059d	0.05762254
57	0x3d4064b9	0.046971057
58	0x3decbbd6	0.11559264
59	0xbdb8f3ab	-0.09030851
60	0xbcd3677a	-0.025806177
61	0x3b44bf3d	0.0030021213
62	0x3dcfdbb6	0.101493284
63	0x3d35dde0	0.04440105
64	0xbcba2dc7	-0.022726906
65	0xbe0ea45c	-0.13929886
66	0x3e232531	0.15932156
67	0x3e308e45	0.17241772
68	0x3e13460b	0.14382188
69	0x3e404603	0.18776707
70	0xbdbe83db	-0.09302493
71	0x3df147c4	0.11781266
72	0x3e0e9ea6	0.13927707
73	0xbce56d3b	-0.028006187
74	0x3e334653	0.17507295
75	0xbe840b79	-0.25790003
76	0x3eaed7e0	0.34149075
77	0xbdc8fb7e	-0.09813593
78	0xbe334e78	-0.17510402
79	0xbdd28660	-0.10279536
80	0x3b1cc2a6	0.002391973
81	0xbd0192fc	-0.031634316
82	0x3c3a3378	0.01136481
83	0xbde78040	-0.113037586
84	0xbd800d94	-0.0625259
85	0xbd331031	-0.043716613
86	0x3c5bc587	0.013413793
87	0xbe84a9eb	-0.25910887
88	0xbe1527ce	-0.14565966
89	0xbc7c98b7	-0.015417269
90	0x3c334037	0.010940603
91	0xbddd87dc	-0.10816929
92	0x3dd7d82b	0.10539278
93	0xbe5912c6	-0.21198568
94	0xbe6f920b	-0.23395555
95	0xbe6066c7	-0.21914206
96	0xbe32e3e8	-0.17469752
97	0xbe21e517	-0.15810047
98	0xbd79388c	-0.060844943
99	0x3e233b2b	0.1594054
100	0xbd693674	-0.056936696
101	0x3df3f080	0.11911106
102	0xbda07a8a	-0.078358725
103	0x3d6ac769	0.05731908
104	0xbd6d39d1	-0.057916466
105	0x3e2696c2	0.16268447
106	0x3e4e943d	0.20173736
107	0xbd0fd416	-0.03511437
108	0xbd280cf2	-0.04102797
109	0x3e18da2f	0.1492698
110	0xbe15a2e0	-0.14612913
111	0xbe099aae	-0.13437912
112	0x3e3899ee	0.1802747
113	0x3e5f6580	0.21816063
114	0xbd6e8855	-0.058235485
115	0xbd39cd2d	-0.045361686
116	0xbd4fff6c	-0.0507807
117	0xba482017	-0.0007634176
118	0xbc5393f0	-0.012913689
119	0xbd963735	-0.07334749
120	0x3e47084b	0.19436757
121	0x3e0e1cc9	0.13878168
122	0xbdbb876f	-0.09156691
123	0x3c576ba2	0.01314822
124	0xbe11aac1	-0.14225294
125	0xbce3e2e9	-0.02781816
126	0xbe3dc33b	-0.18531506
127	0xbcdaf07e	-0.026726004
128	0x3dba04c6	0.09082942
129	0xbda2f82c	-0.07957491
130	0x3c9e6868	0.019336894
131	0x3d721624	0.059103146
132	0xbd5acdc7	-0.0534189
133	0xbd92ab4f	-0.07161581
134	0xbd016d6b	-0.03159849
135	0x3d9c03b2	0.07617892
136	0x3d4e52cc	0.05037193
137	0xbdeb53bb	-0.1149058
138	0xbccded81	-0.025137665
139	0x3d779e5c	0.060453758
140	0xbe2302de	-0.15919062
141	0xbcb82ac4	-0.02248133
142	0x3e52b5d6	0.20577177
143	0xbdeef324	-0.11667469
144	0xbe2ec93d	-0.17068954
145	0x3e126fdc	0.14300483
146	0xbd89030a	-0.06690033
147	0x3ddefc42	0.10887958
148	0xbb68d95f	-0.0035529954
149	0xbe4d600b	-0.20056169
150	0xbdc28b27	-0.094991975
151	0xbd39fc93	-0.04540689
152	0x3dbb7e5f	0.09154963
153	0xbdb7a729	-0.0896743
154	0xbdda1294	-0.10648075
155	0xbc53cf3a	-0.012927825
156	0x3d8ec5aa	0.06971295
157	0xbe516b0e	-0.20450994
158	0xba63fa08	-0.00086966204
159	0x3decd4f5	0.11564056
160	0x3dec403a	0.11535688
161	0xbb80070b	-0.0039070896
162	0xbe1daba9	-0.15397514
163	0xbcd195a9	-0.025584059
164	0x3ddd67b5	0.10810796
165	0xbda16096	-0.078797504
166	0x3d6ab10e	0.05729776
167	0xbd0f7478	-0.035023183
168	0x3e34d983	0.17661099
169	0x3d968304	0.07349208
170	0xbda53475	-0.08066646
171	0x3d83535f	0.06412386
172	0x3d49b636	0.049246036
173	0x3ed7bb8c	0.42135274
174	0xbe4492a6	-0.19196567
175	0xbe038272	-0.1284273
176	0x3d60af89	0.054854903
177	0x3e19fbf6	0.15037522
178	0xbdca966f	-0.09891974
179	0xbddc0268	-0.107426465
180	0x3cfec081	0.031097652
181	0x3a0a4a9a	0.0005275399
182	0x3d136ea9	0.035994206
183	0x3e5a4ce6	0.21318397
184	0xbe6cc120	-0.23120546
185	0xbe51fb20	-0.20505953
186	0xbd1dfa39	-0.03856871
187	0xbd2edd23	-0.04269136
188	0xbe0e0fad	-0.13873167
189	0xbdc4d820	-0.09611535
190	0x3ddf3dbf	0.10900449
191	0xbdd94a5a	-0.106098846
192	0xbe0c34fa	-0.13692084
193	0x3dd777c8	0.10520893
194	0x3e7bd23e	0.2459192
195	0xbd1b318e	-0.037889056
196	0x3dae9380	0.08524227
197	0xbcad9569	-0.021189408
198	0xbcdb844d	-0.026796484
199	0x3c0a9e38	0.008460574
200	0x3bfb359b	0.0076663024
201	0x3d389b39	0.045069907
202	0xbc8b71c8	-0.017022029
203	0xbe364f92	-0.17803791
204	0x3dede6a2	0.11616255
205	0x3e2fd5e1	0.17171432
206	0x3d656c23	0.05601133
207	0xbde73247	-0.112888865
208	0xbda0b369	-0.0784672
209	0x3deb8857	0.11500614
210	0x3e28761f	0.1645131
211	0xbd171b89	-0.036891494
212	0xbe3d62bb	-0.18494694
213	0xbdeac573	-0.11463442
214	0x3db39f2a	0.087705925
215	0x3de576f4	0.11204329
216	0x3e343d69	0.17601551
217	0xbd375846	-0.04476192
218	0xbdd2d626	-0.10294752
219	0xbde8026c	-0.11328587
220	0xbe0a628d	-0.13514157
221	0xbd3ebe60	-0.046568274
222	0xbdf8a3ed	-0.12140641
223	0xb91a4a49	-0.00014714258
224	0x3bb8e9d0	0.005643107
225	0xbd4ea336	-0.05044862
226	0xbd583bb3	-0.05279131
227	0xbd663fcf	-0.056213196
228	0xbde52aed	-0.11189828
229	0x3d8f08d0	0.06984103
230	0x3e5083c9	0.20362772
231	0x3d707ac2	0.05871082
232	0x3cac17bf	0.021007417
233	0x3b9cc55a	0.0047842683
234	0x3d1823a7	0.037143376
235	0x3dd2414b	0.1026636
236	0x3d40f24a	0.047106065
237	0x3e15a778	0.14614666
238	0xbddd6eca	-0.10812147
239	0x3de2357e	0.11045359
240	0xbd143880	-0.036186695
241	0xbcb32a56	-0.021870773
242	0xbd55a75a	-0.052161552
243	0x3e205156	0.15656027
244	0x3e3bb11c	0.1832928
245	0xbdf18d1b	-0.11794492
246	0x3a358019	0.000692369
247	0x3ca6a00e	0.020339992
248	0x3c243346	0.01002199
249	0xbdf360ec	-0.11883721
250	0xbe0578c3	-0.13034348
251	0x3d9037d2	0.07041897
252	0xbd3aa5fa	-0.045568444
253	0xbd6f6af1	-0.058451597
254	0x3bd3d1b7	0.006464209
255	0xbe48e54b	-0.19618718

bias f4 [128]
0	0xbd94e5c0	-0.07270384
1	0x3dca7b7f	0.09886836
2	0x3e1be10a	0.15222564
3	0x3d80a451	0.06281341
4	0x3e86f304	0.2635728
5	0x3e95137a	0.29116422
6	0x3e305daa	0.1722323
7	0xbe456028	-0.19274962
8	0xbde0ac8b	-0.1097041
9	0x3e45496d	0.19266291
10	0xbd603a17	-0.0547429
11	0xbe699593	-0.22810964
12	0xbe2a47f7	-0.16629015
13	0x3d011951	0.031518284
14	0xbd7ee663	-0.062231433
15	0x3e26eb3a	0.1630067
16	0xbe3448f4	-0.17605954
17	0x3e484998	0.19559324
18	0x3e73d035	0.23809893
19	0xbd1e58fd	-0.038659085
20	0x3dfe261d	0.12409613
21	0x3c98a7b8	0.018634662
22	0xbe812eb0	-0.25230932
23	0xbd5ed817	-0.054405298
24	0xbe59f772	-0.21285799
25	0xbe1a990d	-0.15097447
26	0x3e83c184	0.25733578
27	0x3d9cebf8	0.07662195
28	0x3dc74617	0.097301655
29	0xbd7978dd	-0.06090628
30	0x3e1dddf2	0.15416697
31	0xbe67d0d6	-0.22638258
32	0x3be32eb3	0.006933057
33	0x3e7c11ca	0.24616161
34	0xbe71e974	-0.23624212
35	0xbe3c757c	-0.18404192
36	0x3e916490	0.28397036
37	0x3e861fa1	0.26196006
38	0xbe0f8efd	-0.1401939
39	0xbe119822	-0.1421819
40	0xbd1734a1	-0.036915425
41	0xbe6587e4	-0.2241512
42	0x396d6e0d	0.00022643078
43	0x3ddf89d3	0.1091496
44	0x3d733cae	0.05938404
45	0x3de6f1e5	0.112766065
46	0xbe3c0524	-0.18361336
47	0xbcc80d5a	-0.024420429
48	0x3e39da64	0.18149716
49	0x3d094d4e	0.03352099
50	0x3e29b441	0.16572668
51	0xbe7b32ca	-0.24531093
52	0xbe5478b7	-0.20749174
53	0xbe81a102	-0.25318152
54	0xbe69962c	-0.22811192
55	0x3d235564	0.039876357
56	0xbd95e861	-0.073197134
57	0x3cd03499	0.025415706
58	0xbe374b0c	-0.17899722
59	0xbd6b3a38	-0.05742857
60	0xbd911ec1	-0.07085944
61	0x3e7d86b1	0.24758412
62	0x3e96219a	0.2932251
63	0x3e813110	0.25232744
64	0x3db2ee57	0.08736866
65	0x3d679f67	0.056548502
66	0xbd98228b	-0.074284635
67	0x3e6d3e42	0.2316828
68	0x3d5abd05	0.05340292
69	0x3dc08138	0.093996465
70	0xbd430741	-0.04761434
71	0x3e03acbe	0.12858865
72	0xbe1264c0	-0.14296246
73	0x3dd9e498	0.10639304
74	0x3e114a58	0.14188516
75	0x3ddc99c7	0.10771518
76	0x3e8c5259	0.27406576
77	0x3dcbf185	0.099581756
78	0x3ceae779	0.028674828
79	0x3e55a5a2	0.20863965
80	0xbe5da54c	-0.21645087
81	0xbe215804	-0.15756232
82	0x3e661417	0.22468601
83	0x3849b16e	4.808738e-05
84	0x3d448342	0.04797674
85	0xbe70f774	-0.23531896
86	0x3cccfbe1	0.025022449
87	0x3e5dfd93	0.21678762
88	0xbd32858b	-0.043584388
89	0xbd831c4d	-0.06401882
90	0xbe77e83d	-0.24209686
91	0xbe4bf4f2	-0.19917658
92	0xbe9c8b29	-0.3057492
93	0xbe269511	-0.16267802
94	0xbc85a00f	-0.016311673
95	0x3e824b68	0.25448155
96	0xbe5a5443	-0.21321206
97	0xbd1c4f33	-0.038161468
98	0xbe2e9e8b	-0.17052667
99	0x3e04f80d	0.12985249
100	0xbe476b15	-0.19474442
101	0xbd22b869	-0.03972665
102	0x3d9d057e	0.07667063
103	0x3e514274	0.20435506
104	0x3dcad486	0.09903817
105	0xbe76493c	-0.24051374
106	0xbe8d2f9a	-0.2757538
107	0xbe5513f1	-0.20808388
108	0xbcdb5c68	-0.026777461
109	0xbe846ddc	-0.25865066
110	0xbdb6df1a	-0.08929272
111	0x3da7ecfe	0.081994995
112	0xbddab777	-0.106795244
113	0x3db99855	0.09062258
114	0xbdb5b343	-0.08872082
115	0xbc38cca1	-0.011279256
116	0xbe43b249	-0.19110979
117	0x3dcf1b8c	0.10112676
118	0x3e75a9ba	0.23990527
119	0x3e86cbf6	0.26327485
120	0xbe5bbb15	-0.21458085
121	0xbe449f2b	-0.19201343
122	0xbd8ecaef	-0.069723
123	0x3db87aef	0.09007823
124	0xbd6c7e5d	-0.057737697
125	0x3e2a1a80	0.16611671
126	0xbe1d0e23	-0.15337424
127	0x3e6d2699	0.23159255

weight f4 [128, 128]
0	0x3c8129a3	0.015766924
1	0xbdfa4b08	-0.12221342
2	0xbcac17f1	-0.02100751
3	0xbd0718f3	-0.032982778
4	0xbcd4dee9	-0.025985198
5	0xbca3bc0d	-0.01998713
6	0x3cf473ee	0.029840436
7	0x3af95a7a	0.0019024156
8	0x3d7521a0	0.05984652
9	0x3db130bb	0.08651873
10	0xbe0bbcdf	-0.13646267
11	0xbe3ae8c8	-0.18252861
12	0x3ceb695a	0.028736759
13	0x3df0af2d	0.11752162
14	0x3e765850	0.24057126
15	0x3dc844b9	0.09778733
16	0xbd97d5a3	-0.07413795
17	0xbd960d14	-0.07326713
18	0x3e3ab071	0.1823137
19	0xbd9f9985	-0.077929534
20	0x3e0a8fba	0.1353139
21	0xbdda35cf	-0.106547944
22	0xbd11e43f	-0.035618063
23	0xbda6116c	-0.08108792
24	0xbd8950f6	-0.06704895
25	0xbe460fb7	-0.19341932
26	0xbdb7aa33	-0.0896801
27	0xbc35bc58	-0.011092268
28	0xbd28dc71	-0.041225854
29	0xbd13bcaa	-0.036068596
30	0xbd3115c6	-0.043233655
31	0x3dcee709	0.1010266
32	0x3df37ac6	0.118886515
33	0x3d8e815a	0.069582656
34	0x3d962d35	0.07332841
35	0xbe10ce85	-0.14141281
36	0x3e11d9f5	0.142433
37	0x3dac19c3	0.08403351
38	0xbe0a390a	-0.13498321
39	0x3e6e98d0	0.23300481
40	0xbdee721c	-0.116428584
41	0x3e2abaee	0.1667287
42	0xbcf94053	-0.03042618
43	0x3b548654	0.0032428699
44	0x3e0859fb	0.13315575
45	0x3d487fc2	0.048949964
46	0xbd15e0ab	-0.036591213
47	0xbd38225e	-0.04495465
48	0xbde0659c	-0.109568805
49	0x3dae98cb	0.08525237
50	0xbe1f979c	-0.15585178
51	0xbcf64cbe	-0.03006589
52	0xbe338b16	-0.17533526
53	0xbc0b526b	-0.008503537
54	0x3e07bddf	0.13256024
55	0xbd5ddaf8	-0.054163903
56	0x3cecd5ab	0.028910479
57	0x3dc27ed6	0.09496848
58	0x3e3e0408	0.18556225
59	0x3cf27f79	0.0296018
60	0xbe0b5cc9	-0.13609613
61	0x3e15501f	0.14581345
62	0x3e08308e	0.13299772
63	0x3df79fa6	0.120909974
64	0x3c944408	0.018098846
65	0x3b963af3	0.004584664
66	0xbc069778	-0.008214824
67	0x3d3c8856	0.046028458
68	0x3e17044d	0.14747734
69	0x3d27fbb4	0.041011527
70	0xbd574a53	-0.052561115
71	0xbd665743	-0.056235563
72	0xbd329762	-0.0436014
73	0xbe323756	-0.17403921
74	0x3e54d3eb	0.20783965
75	0xbca04bba	-0.01956736
76	0x3d969861	0.07353283
77	0xbd046580	-0.03232336
78	0x3d0b2212	0.03396804
79	0xbdeb1398	-0.114783466
80	0x3d0837a3	0.033256184
81	0x3df35cc6	0.118829295
82	0xbe8179e9	-0.25288323
83	0xbe345ad6	-0.17612776
84	0x3ea17a5b	0.31538662
85	0xbe0d9afd	-0.13828655
86	0xbb63984e	-0.0034728232
87	0xbd380cbd	-0.044934023
88	0x3db0011e	0.08593963
89	0xbd3e0aed	-0.04639714
90	0x3e5bf914	0.21481735
91	0xbb51c9c4	-0.003201113
92	0x3e31b7fe	0.17355344
93	0x3e262b65	0.16227491
94	0x3e7dc6f9	0.24782933
95	0x3e4b8ebe	0.1987867
96	0xbe0feb6a	-0.14054647
97	0xbe03fed3	-0.12890176
98	0xbe1b73f9	-0.15180959
99	0xbd05ee99	-0.032698248
100	0xbcaf1646	-0.021372925
101	0xbde8da6c	-0.11369786
102	0x3af6ec8a	0.0018838805
103	0xbea43d0d	-0.32077828
104	0x3cdfebf2	0.027334187
105	0xbd790bbf	-0.060802218
106	0xbe2135ef	-0.1574323
107	0xbdd9e2ce	-0.10638963
108	0x3dd1233c	0.102117985
109	0xbe9463e9	-0.28982475
110	0x3e668b7b	0.22514145
111	0x3e458042	0.19287208
112	0xbeb64343	-0.35598192
113	0xbd757462	-0.059925444
114	0xbc5197ca	-0.012792537
115	0x3e1422c5	0.14466389
116	0xbd2986f4	-0.041388467
117	0xbd0adbd0	-0.033901036
118	0xbc80f5fe	-0.015742298
119	0xbca8c699	-0.020602511
120	0x3e1bf8c3	0.15231614
121	0xbc5ed505	-0.0136005925
122	0xbe61d93f	-0.22055529
123	0x3c8e862a	0.017397959
124	0x3e109e97	0.14122997
125	0x3e1ad47e	0.15120122
126	0xbda6efa2	-0.08151175
127	0x3e49858b	0.19679849
128	0xbe1f991b	-0.15585749
129	0x3d7a768f	0.061148223
130	0xbde4faf2	-0.111806765
131	0x3e7a264d	0.24428673
132	0xbbce3602	-0.0062930593
133	0xbd8d7071	-0.06906212
134	0xbde9bae0	-0.11412597
135	0x3decc9e4	0.11561945
136	0x3e0690e5	0.1314121
137	0xbdd24afb	-0.10268208
138	0xbcb0bf05	-0.02157546
139	0xbce148dc	-0.027500562
140	0xbdff68d7	-0.124711685
141	0xbc4fbf4e	-0.012679888
142	0x3e1a1d07	0.15050136
143	0xbd2aabe1	-0.041667823
144	0x3e69e737	0.22842108
145	0x3e22cd14	0.15898544
146	0xbccf9524	-0.02533967
147	0xbdbd1f18	-0.09234446
148	0x3e0bc551	0.13649489
149	0x3de6b06f	0.11264121
150	0xbde147dd	-0.11000035
151	0x3e97b706	0.29631823
152	0xbd78c1de	-0.06073176
153	0x3c8c056b	0.017092427
154	0xbcac287a	-0.021015394
155	0x3e61a868	0.22036898
156	0xbd4aae35	-0.049482543
157	0xbe7099a1	-0.23496105
158	0x3b7df7a1	0.0038752335
159	0x3d998b56	0.07497279
160	0x3bf656eb	0.0075176856
161	0xbd99cb7a	-0.07509513
162	0x3d993126	0.074800774
163	0x3e2966a9	0.16543068
164	0x3e4f1ce8	0.2022587
165	0x3e138a3d	0.14408202
166	0x3dcbb4d8	0.099466026
167	0xbe2269b0	-0.15860629
168	0xbcc93a8e	-0.024564054
169	0xbdaebf55	-0.085325874
170	0xbd14d854	-0.03633912
171	0x3e65b7aa	0.22433344
172	0xbdaf6b71	-0.08565415
173	0x3e04d533	0.12971954
174	0x3ce32115	0.027725736
175	0x3d980e2f	0.0742458
176	0xbe76b0e8	-0.24090922
177	0xbd60a926	-0.054848813
178	0xbe1e68ef	-0.15469716
179	0xbdaa00e2	-0.0830095
180	0xbded849e	-0.1159756
181	0xbe13a37c	-0.14417833
182	0x3c81672c	0.015796266
183	0xbdf2083f	-0.11817979
184	0xbe8544f1	-0.2602916
185	0xbdd2fe6c	-0.10302433
186	0x3e55a108	0.2086221
187	0xbdd4526b	-0.103672825
188	0xbe14ff9d	-0.14550634
189	0x3dca46ba	0.09876771
190	0x3e129c9a	0.14317551
191	0x3e2ee120	0.17078066
192	0xbe2c1d5a	-0.16808072
193	0x3df3324b	0.11874827
194	0x3cfc5a6d	0.030804837
195	0xbd9b345c	-0.07578346
196	0x3dd31c06	0.103080794
197	0x3e2d585f	0.16928242
198	0xbd937f07	-0.07201963
199	0x3d0786c6	0.033087514
200	0xbde21885	-0.11039833
201	0xbdada76b	-0.08479198
202	0xbc93be26	-0.018035006
203	0xbd31c5df	-0.043401595
204	0x3ce55b85	0.027997741
205	0x3d7ac4bc	0.061222777
206	0xbd368d58	-0.04456839
207	0x3db9b763	0.09068181
208	0x3e2f2fee	0.17108127
209	0x3ca69a60	0.020337284
210	0x3c9e095c	0.019291572
211	0x3e8ab8cb	0.2709411
212	0x3d012e9e	0.0315386
213	0x3d8cc53b	0.06873556
214	0xbdf5530d	-0.11978731
215	0xbda7472e	-0.08167873
216	0xbe1c60b3	-0.15271263
217	0x3dc0c650	0.09412825
218	0x3dd44fae	0.1036676
219	0x3cba1c1c	0.022718482
220	0xbd95ef88	-0.073210776
221	0x3d95434a	0.07288225
222	0xbd671ea4	-0.056425706
223	0x3d783927	0.06060138
224	0xbde97c92	-0.11400713
225	0x3d8b6d1c	0.0680792
226	0xbbb1a8c6	-0.0054217307
227	0xbd13f036	-0.036117755
228	0x3be90d6d	0.007112196
229	0x3e27b8de	0.16379115
230	0xbe4c9a4b	-0.19980733
231	0xbc1652ee	-0.009175045
232	0xbd1c9298	-0.03822574
233	0xbd1495ea	-0.03627578
234	0x3d992e2d	0.074795105
235	0xbabaa08c	-0.001423852
236	0xbd9e3923	-0.07725742
237	0x3e2a34e9	0.16621746
238	0x3e8dd440	0.27700996
239	0xbdd0685a	-0.101761535
240	0x3e925438	0.2857988
241	0xbc865872	-0.016399596
242	0x3d32ad1d	0.043622125
243	0x3d6cf94b	0.05785493
244	0xbe551bed	-0.20811434
245	0x3e64fff0	0.22363257
246	0x3e083ff9	0.13305654
247	0x3c6056c6	0.013692563
248	0x3d31ee2e	0.043440036
249	0xbdcc2667	-0.09968262
250	0xbca7ceb0	-0.020484298
251	0xbd4873c3	-0.048938524
252	0xbdd82359	-0.10553617
253	0xbdb63187	-0.08896165
254	0xbd6b4a46	-0.05744388
255	0x3e18d23c	0.14923948

bias f4 [128]
0	0xbc433f4f	-0.011916949
1	0x3d270706	0.040778182
2	0xbccf5273	-0.02530787
3	0x3cc5b6b1	0.024134966
4	0x3d4e94a5	0.050434727
5	0xbc2ac6d3	-0.01042338
6	0x3bb680cd	0.0055695535
7	0xbd5773ad	-0.05260055
8	0xbd1046c7	-0.03522375
9	0xbd522112	-0.05130107
10	0xbd63e2cc	-0.055636212
11	0x3dbebd51	0.09313453
12	0xbca00caa	-0.019537289
13	0xbc815de8	-0.015791848
14	0x3d7ea34b	0.062167447
15	0x3da519c0	0.08061552
16	0x3c507e97	0.012725494
17	0x3d537fe2	0.05163563
18	0x3c90d46f	0.017679421
19	0xbd996f10	-0.074918866
20	0x3d1b9f7e	0.0379939
21	0x3d5d2aac	0.053995773
22	0x3daa95e6	0.08329372
23	0x3d8be4c5	0.06830744
24	0xbd0d320b	-0.034471553
25	0xbd90fb23	-0.070791505
26	0xbdbc714b	-0.092012964
27	0xbd893c03	-0.067008995
28	0xbcf31937	-0.02967511
29	0x3d54dbd3	0.051967453
30	0x3d82fdb5	0.06396047
31	0xbd888f2c	-0.06667933
32	0x3c2bcb1f	0.01048544
33	0xbda024e2	-0.07819535
34	0xbc47af60	-0.012187809
35	0x3c969bc8	0.01838483
36	0xbc7fa931	-0.015604303
37	0x39d097fe	0.00039786095
38	0xbd9229d2	-0.07136883
39	0x3ddb0d06	0.106958434
40	0xba11a09d	-0.0005555244
41	0x3d3ba567	0.045812037
42	0x3d5bef01	0.05369473
43	0x3d992cb2	0.07479228
44	0xbb034bc7	-0.002003418
45	0xbd66f5fb	-0.05638693
46	0xbd0ebaa0	-0.03484595
47	0x3d9365d0	0.071971536
48	0xbd6c47d2	-0.05768568
49	0x3d7a360e	0.061086707
50	0xbdaa4fb3	-0.08315983
51	0xbd95409d	-0.07287715
52	0xbdbda2e2	-0.09259583
53	0x3e13636a	0.14393392
54	0x3d0e7b4d	0.034785558
55	0xbd7c903c	-0.06166099
56	0x3dd95c4b	0.106133066
57	0x3bda8c16	0.0066695316
58	0x3dbcfb39	0.092276044
59	0x3d05ade3	0.032636534
60	0x3d7de779	0.061988328
61	0xbc87ee17	-0.016593022
62	0x3c0fe033	0.008781481
63	0xbce81000	-0.028327942
64	0x3d39b47f	0.04533815
65	0x3d11a4e6	0.03555765
66	0x3d9798fd	0.07402227
67	0xbd8b6757	-0.0680682
68	0xbb3f7921	-0.0029216486
69	0x3d80ef26	0.06295614
70	0xbc60778d	-0.013700378
71	0xbca5db6c	-0.02024623
72	0xbd78740b	-0.060657542
73	0xbd93ea38	-0.07222408
74	0xbd1d2fab	-0.038375538
75	0xbbb312e9	-0.0054649008
76	0x3d1b24cd	0.037876893
77	0x3de32e6b	0.11092838
78	0x3dc33fac	0.09533629
79	0x3d60aca2	0.054852135
80	0xbd57f694	-0.05272539
81	0x3d91bfec	0.07116684
82	0xbdaef313	-0.085424565
83	0xbd8977e1	-0.06712318
84	0xbd38c015	-0.04510506
85	0x3d2d0016	0.04223641
86	0x3d8adfa5	0.06780938
87	0xbd9eda6b	-0.07756504
88	0xbbf43140	-0.00745216
89	0xbd713792	-0.058890887
90	0x3d54ad7c	0.05192326
91	0xbd4d16cd	-0.050070573
92	0xbd467f34	-0.048461154
93	0x3c5fc0e4	0.013656829
94	0xbd268155	-0.040650684
95	0x3d4ad1f7	0.049516644
96	0xbc305aa3	-0.010763797
97	0x3c19d062	0.009388061
98	0x3d2a2630	0.041540325
99	0xbd902b9a	-0.07039566
100	0x3dc9113e	0.09817742
101	0x3d9f3c2f	0.07775151
102	0xbc9bae54	-0.019004025
103	0x3d26b135	0.04069634
104	0x3d0fcc32	0.035106845
105	0x3d847602	0.06467821
106	0x3da59557	0.08085125
107	0xbdbe3f10	-0.09289372
108	0x3da5c700	0.08094597
109	0x3d196ded	0.03745835
110	0xbd1f873c	-0.03894733
111	0xbddff2ed	-0.10935006
112	0x3d3feb2b	0.046855133
113	0xbc48a070	-0.0122452825
114	0xbd6bd251	-0.05757362
115	0xbb121c25	-0.0022294607
116	0xbbe616ec	-0.0070217755
117	0x3dec5c8c	0.115410894
118	0xbcd4afc4	-0.025962718
119	0xbd0aaef2	-0.033858247
120	0x3d11d219	0.035600755
121	0xbd8c0bcb	-0.06838187
122	0x3cb90f2f	0.022590248
123	0xbbcab49b	-0.0061860806
124	0x3dbaaedb	0.09115382
125	0xbcb448be	-0.022007342
126	0xbd333032	-0.043747135
127	0xbd791620	-0.060812116

weight f4 [12, 128]
0	0x3d4e45e9	0.05035964
1	0x3e28f4e9	0.16499676
2	0xbded04bc	-0.11573169
3	0x3e51daf2	0.20493677
4	0xbe273e09	-0.16332258
5	0x3dc6132b	0.09671625
6	0xbd2a00fe	-0.041504852
7	0x3bd194cf	0.006395913
8	0xbe03bc3e	-0.12864777
9	0xbdc6bcac	-0.09703955
10	0x3c2c7194	0.010525126
11	0xbd787e89	-0.06066755
12	0xbcf531e5	-0.029931018
13	0x3def203f	0.11676072
14	0xbd87b708	-0.06626707
15	0xbe18bfec	-0.14916962
16	0x3e52e122	0.20593694
17	0xbd86ac9a	-0.0657589
18	0xbd16ab21	-0.036784295
19	0x3cf1cb4e	0.029515889
20	0xbda72ef1	-0.0816325
21	0xbe589374	-0.21149999
22	0x3cc174c2	0.023615245
23	0x3e228236	0.15869984
24	0xbdf93212	-0.12167753
25	0xbe385c2b	-0.1800391
26	0xbc5bf062	-0.013424011
27	0x3dc219a3	0.09477546
28	0x3dd72af2	0.10506238
29	0x3d2000ed	0.039063383
30	0xbd58ce08	-0.05293086
31	0x3dc6aced	0.09700952
32	0x3ca594a4	0.020212479
33	0x3e3d460c	0.18483752
34	0xbd054542	-0.032536753
35	0xbda9f5a5	-0.08298806
36	0x3c078b82	0.008273007
37	0xbde1496e	-0.11000334
38	0xbe517799	-0.20455779
39	0x3cb4a852	0.022052918
40	0xbda946cd	-0.08265457
41	0xbda78a0e	-0.08180629
42	0x3da73c45	0.081657924
43	0xbdaab1e0	-0.08334708
44	0x3daf33b1	0.08554781
45	0x3e93b870	0.28851652
46	0xbd1240c3	-0.035706293
47	0x3d1d012b	0.038331192
48	0xbdad2294	-0.08453861
49	0x3cffebd7	0.031240387
50	0x3bdcb3cf	0.006735302
51	0xbb4ec5a7	-0.0031550915
52	0x3e66acfa	0.22526923
53	0x3e3a5eee	0.18200275
54	0xbb1074c5	-0.0022042256
55	0x3d8930ab	0.06698736
56	0x3d7874a2	0.060658105
57	0xbe01ed73	-0.12688236
58	0xbd6bada8	-0.05753866
59	0x3e7ef1e0	0.24896955
60	0xba4d00d8	-0.0007820255
61	0xbda69979	-0.08134741
62	0x3dc33e85	0.09533409
63	0x3e78e2a8	0.24305212
64	0x3e34649c	0.17616504
65	0x3d751577	0.059834924
66	0x3d254a77	0.04035422
67	0xbc2995bf	-0.010350644
68	0xbcba4d3d	-0.022741908
69	0x3e87d317	0.26528236
70	0x3e254ef6	0.16143402
71	0x3d22b679	0.0397248
72	0x3e46c023	0.19409232
73	0xbc06351b	-0.008191372
74	0x3c9e7705	0.019343862
75	0xbe07745f	-0.13227986
76	0xbdc913eb	-0.09818252
77	0x3e1151a7	0.14191304
78	0x3de1d74a	0.11027391
79	0x3e0e6756	0.13906607
80	0x3c6eaed2	0.014568048
81	0x3d7448eb	0.059639852
82	0x3b251076	0.0025186813
83	0x3e3651f4	0.178047
84	0x3e199d50	0.15001416
85	0x3db1c11e	0.08679412
86	0x3d437dff	0.04772758
87	0x3dd664e2	0.104684606
88	0x3dc4c6b5	0.09608213
89	0x3e350c82	0.17680553
90	0x3b47cef3	0.0030488342
91	0xbb3abd88	-0.0028494317
92	0xbd6c281a	-0.05765543
93	0xbd6ce6f2	-0.057837434
94	0x3d34b1aa	0.044114746
95	0x3bfc96ed	0.0077084214
96	0xbe792174	-0.24329168
97	0x3d16dc3d	0.03683113
98	0xbe0b4857	-0.13601814
99	0x3d0db211	0.034593645
100	0x3d81c4eb	0.06336387
101	0x3e75a2a3	0.23987822
102	0x3dae622a	0.08514817
103	0xbd757d8a	-0.059934177
104	0xbed859d2	-0.42256027
105	0x3e209286	0.15680894
106	0x3dfd10e9	0.12356741
107	0xbdf1773c	-0.1179032
108	0xbd8850c1	-0.066560276
109	0xbce1c6c3	-0.027560597
110	0xbd63f499	-0.05565319
111	0xbd362d82	-0.044476993
112	0x3dcc2476	0.09967892
113	0xbc99b3f4	-0.018762566
114	0xbdf6c14d	-0.12048588
115	0x3da93fb6	0.08264105
116	0x3d57eee4	0.05271806
117	0xbc58c316	-0.013230106
118	0xbb8bf59a	-0.0042712213
119	0xbc94cb8c	-0.018163465
120	0x3d5eea63	0.054422747
121	0xbe502b1a	-0.20328942
122	0xbd689a47	-0.056787755
123	0x3e493b50	0.19651532
124	0x3d808897	0.062760524
125	0x3cc57c28	0.024107054
126	0x3e424345	0.18970974
127	0xbc3d37d2	-0.011548953
128	0xbcc8b8da	-0.024502207
129	0x3e4eb5a8	0.20186484
130	0x3deea513	0.11652579
131	0x3bc4aa30	0.0060017332
132	0xbe6dcff4	-0.23223859
133	0x3e2ef4d2	0.17085579
134	0x3df92987	0.12166124
135	0x3d0df3b5	0.034656245
136	0xbe9d3031	-0.3070083
137	0x3e3e18d9	0.18564166
138	0x3e863df6	0.26219147
139	0xbc877f28	-0.016540125
140	0x3d6b7ed8	0.057494015
141	0xbe3541b8	-0.17700851
142	0xbe105095	-0.1409324
143	0xbdb6f8e9	-0.089341946
144	0xbe4d9f04	-0.20080191
145	0xbba674d9	-0.0050798473
146	0xbe1ee1dc	-0.15515846
147	0xbdd9c8e8	-0.10634023
148	0xbde44e23	-0.11147716
149	0xbd254917	-0.040352907
150	0xbcced26f	-0.025246827
151	0x3d30fe5b	0.043211322
152	0xbe21e592	-0.1581023
153	0x3d7812c2	0.060564764
154	0x3df2d496	0.11856954
155	0x3e527939	0.20554055
156	0xbb9f165c	-0.0048549604
157	0x3e0596cc	0.13045806
158	0x3ce47853	0.027889406
159	0xbe248de9	-0.1606976
160	0x3e3d6014	0.18493682
161	0xbe1c7465	-0.15278776
162	0x3e61ba0a	0.22043625
163	0xbcc307c2	-0.02380741
164	0x3cd513db	0.026010444
165	0x3dd22fbb	0.1026301
166	0xbe9d0272	-0.30665928
167	0xbe98ecaa	-0.2986806
168	0x3dd76241	0.10516787
169	0x3de15ba0	0.11003804
170	0x3d777c25	0.060421128
171	0x3d97e7b8	0.07417244
172	0x3d6b5f84	0.057464138
173	0x3de8cac5	0.113668
174	0x3df3c428	0.11902648
175	0x3d1cceee	0.03828328
176	0xbdf03373	-0.11728563
177	0x3dc7e969	0.09761316
178	0x3e0e32a5	0.13886507
179	0x3d12bc29	0.035823975
180	0xbca2c6ca	-0.01987018
181	0xbe0ec3c9	-0.13941874
182	0x3cb421b6	0.02198873
183	0xbdb95e42	-0.090511814
184	0xbec01e45	-0.37523094
185	0xbdd56e55	-0.10421435
186	0x3d7b2958	0.061318725
187	0x3e0900d0	0.13379216
188	0xbdebe158	-0.1151759
189	0xbc206d2d	-0.009791655
190	0x3d9bfed9	0.07616968
191	0x3e141817	0.14462315
192	0xbdfc2100	-0.12310982
193	0xbd4538ad	-0.048149753
194	0xbd8951ce	-0.06705056
195	0x3e0fb700	0.14034653
196	0xbd9c6bb7	-0.076377325
197	0xbe53066e	-0.20607921
198	0x3bc20ad3	0.0059217005
199	0xbe2c0e07	-0.16802226
200	0x3e0759a4	0.13217789
201	0xbde776c8	-0.113019526
202	0xbd68ef1a	-0.05686865
203	0xbd15ceb3	-0.036574077
204	0x3cbfdd70	0.02342102
205	0xbe40f2c7	-0.18842612
206	0xbda6eaaf	-0.08150231
207	0x3e19ded9	0.15026416
208	0x3d4b4e70	0.04963535
209	0xbdb90493	-0.090340756
210	0x3c83a0d5	0.016067902
211	0xbd9c9dde	-0.07647298
212	0x3e58fc51	0.21190001
213	0x3d9a5931	0.07536543
214	0xbe29ee50	-0.16594815
215	0x3e5c01c1	0.21485044
216	0xbe069df8	-0.13146198
217	0x3d50d814	0.05098732
218	0x3d30040a	0.042972602
219	0xbd959fa3	-0.07305839
220	0xbd165b04	-0.036707893
221	0xbd982e03	-0.07430651
222	0x3c0a6784	0.008447532
223	0x3c87ad65	0.016562173
224	0x3d66dfe8	0.056365877
225	0xbe38c1a1	-0.18042614
226	0xbe6fb4fc	-0.23408884
227	0x3d9c09c0	0.07619047
228	0x3dcd3425	0.100197114
229	0xbe205916	-0.15658984
230	0x3ddd7cb6	0.10814802
231	0x3dd7b77a	0.10533042
232	0x3d84b742	0.06480266
233	0x3e126c5e	0.14299151
234	0x3ce343d2	0.0277423
235	0x3dbeb700	0.09312248
236	0x3be11270	0.006868653
237	0x3bd75ad4	0.006572107
238	0x3c82ddce	0.015974905
239	0x3d7259fb	0.059167843
240	0x3deee7d4	0.116653115
241	0x3cbfdf47	0.023421897
242	0x3da2c933	0.07948532
243	0x3d4ae46f	0.049534258
244	0x3e577d36	0.21043858
245	0xbe4c7230	-0.19965434
246	0x3d7a68b1	0.061134998
247	0x3d49da70	0.049280584
248	0x3e00fcca	0.12596431
249	0x3de7849e	0.113045916
250	0xbd969257	-0.07352131
251	0xbe9bea3e	-0.3045215
252	0xbd80eea1	-0.06295515
253	0xbe1dd40d	-0.15412922
254	0xbe5dc8d4	-0.21658641
255	0x3d9b7620	0.0759089

bias f4 [12]
0	0xba70542b	-0.00091678154
1	0xbda069d8	-0.07832688
2	0x3d65e854	0.05612977
3	0xbb93df05	-0.00451267
4	0xbd3e5e34	-0.046476558
5	0x3ce3faf7	0.02782963
6	0x3c3b86ad	0.011445683
7	0x3d8d24d2	0.068917885
8	0x3dd90dba	0.10598321
9	0xbd5740a6	-0.052551888
10	0x3d269ff2	0.04067988
11	0x3d5cdc11	0.05392081
